quadrotor/data/pre_train/32_32_batchnorm_affine_best.pt (torch, 42163 bytes, 26 tensors)

context_norm.weight f4 [24]
00000000: 2faa 923f 29bb 803f a44f 123f 59eb cc3e
00000010: 8965 ab3e 8e7d 5f3e d0ea 503e 3d79 433e
00000020: 0de4 4a3e b5f4 dd3d d349 0d3e cd33 e83d
00000030: 2df9 ea3d 7d60 f93d 57da 513e 8f8b 883d
00000040: 59d0 1a3e 59f6 a03d 3904 4c3e edf2 2c3e
00000050: d226 f13d 5557 303e ad63 5e3e e2e7 793d
1.1458186 1.0057117 0.5715277 0.40023306 0.33475903 0.21825239 0.20402074 0.19089217
0.19813557 0.1083769 0.13797693 0.11338005 0.11473308 0.12176607 0.20493446 0.06667244
0.15118541 0.07859487 0.19923486 0.16889544 0.117749825 0.17220815 0.21717711 0.061012156

context_norm.bias f4 [24]
00000000: 7f75 3a3f 40f4 703f 4d59 2f3f e629 cf3d
00000010: 5cc5 413e f3f8 43be c801 41bb 690e 33bb
00000020: 5c33 623e c980 be3c 4ba9 c9bd 485d 113e
00000030: 1a1d 36be c21c e03b f528 9d3e 8c2c 84bc
00000040: 5fe7 323d ba79 f63d 4583 37be d9d3 483e
00000050: a990 6a3d 2035 d83e f3f7 c73d e64a eebd
0.72835535 0.94122696 0.6849564 0.10115413 0.18922943 -0.19137935 -0.0029450525 -0.0027321822
0.22089905 0.023254769 -0.09846743 0.1419574 -0.17784539 0.0068393657 0.3069531 -0.016134523
0.043677684 0.12034936 -0.17921169 0.19612063 0.057266865 0.4222803 0.097640894 -0.116353795

context_norm.running_mean f4 [24]
00000000: 1403 bc40 42f1 b140 58fb 0241 ff2f e03f
00000010: dc6d dd3f 5d14 be3f 919a e63f b4f3 4340
00000020: 62f1 0a3d 629f f640 1fc9 313e 5b9a 0441
00000030: dff2 3d41 1d65 3841 8a27 103f eb91 ecbb
00000040: 30c9 e23a 33b9 7c3f f832 7f3c 53bb 7d3f
00000050: 18ed b2bb 0fda 13bc 2f53 4f3c 8d8b 7c3f
5.8753757 5.5607004 8.186363 1.7514647 1.7299151 1.4849964 1.801592 3.0617495
0.033921607 7.706956 0.17361878 8.287684 11.871795 11.524686 0.5631033 -0.007219543
0.001730239 0.9872009 0.015576117 0.9911396 -0.0054603927 -0.009024157 0.01265411 0.9865044

context_norm.running_var f4 [24]
00000000: 6ab0 4341 52cc 5e41 44f9 e740 34d2 473f
00000010: 4552 7d3f 6b08 af3f 284b 6a3e 0d4c 4e3e
00000020: 6386 563e 932a 423e a744 2b3e 0ec3 503e
00000030: 3bb6 da3d 74d0 463e dfc3 043e 3a66 5e3b
00000040: c989 5c3b cfbe 9138 2a24 1b3b 6b91 d737
00000050: 0572 833a cb41 013b 3f55 e43a 9ad2 9237
12.23057 13.924883 7.249178 0.7805512 0.9895366 1.3674444 0.22880232 0.20146199
0.20949702 0.18961553 0.16725408 0.20386907 0.10679289 0.19415456 0.12965344 0.0033935443
0.0033651462 6.94968e-05 0.0023672679 2.5697713e-05 0.0010028487 0.0019723054 0.0017420425 1.7502625e-05

layers.0.weight f4 [32, 24]
00000000: a411 7e3f 9930 a63e 1522 a4bf bf14 213e
00000010: ae92 85be 3d17 d63e 5491 60bf 1ec3 c03e
00000020: 8296 e7bc a71c 3239 872e f6bc f622 f63d
00000030: 29f7 ad3e 85d7 d23c 68b1 17be 9c22 84bf
00000040: 56b3 803f 32d5 d13c 01f8 0d3e 9aa2 89be
00000050: a205 4abe 3e3d 793e 429b 2bbd d290 143f
00000060: f86a 21be 0416 8a3f 7afa 8fbe 5232 393f
00000070: b86b 74bf 8f73 d43d eab1 3ac0 154c bebe
00000080: 8f09 18c0 e266 d53f ef1a d5be c6a7 10c0
00000090: f52c 1540 890d ef3e d7e4 2e3f c29f 2ebf
000000a0: 955a f53f dba2 3bbb 5af4 2140 e509 c1bf
000000b0: ee49 fabf b370 1bbf 8dc2 0bbf 4a22 8c3e
000000c0: 0378 3a3f b35f 643f 60bc 7dbf 5632 4cbe
000000d0: 332f 10bf 8729 593d e0f7 aa3e ba74 65bf
000000e0: 267e 763e 06b2 c73c a56e e43e 087a 15bf
000000f0: 5f4c 853e 2f90 063f d523 8ebe d2b8 1240
00000100: 2f77 593f 30d5 86be a346 b4bf 0100 c7bd
00000110: 61a9 f2be af82 80bf dd78 7440 5f8a 17bf
00000120: f57c 5dbf 2db5 233f b3bd 6b3f 210d cfbe
00000130: 67c6 f23b 691b 293e 8868 87bc 3e17 5d3f
00000140: 83bd 993e 638e 693f 1e91 80be d729 ddbe
00000150: 2524 abbf 2cdc e5be e765 25bf 97aa 6ebf
00000160: e101 b0be d312 96be 22c4 cd3d 052f 6cbf
00000170: b3cd f1bf 7030 febe b589 11bd 1cd9 de3f
00000180: 0486 f53e e5f8 773f 8267 c73c 40e0 fd3e
00000190: 8a6d 06bf add5 983d 4775 ea3f 2d49 ea3e
000001a0: bc45 51c0 5938 753f a1fa e7bd 5e7b 0a40
000001b0: 172f 0ebe 0275 ba3f 4c3f 863f f242 23c0
000001c0: a922 f13e 2d2b 693f 8f0b e8bf 1151 3a3f
000001d0: 1c2e ff3f f261 9d3e ee4c 94be 6cb9 193f
000001e0: 3bbb 693e 6704 273f 8c6c c73d a8c0 90ba
000001f0: 39f7 f43e 2085 0f3e a520 1abf 9717 39be
00000200: 2e25 873f 56e8 44bf 6197 91bf ecac ddbe
00000210: 1045 493d 1a91 b43f a01e 1ec0 d802 e83e
00000220: cf92 183f 14e5 4abf 03fb 22bf f161 65bf
00000230: bffb 463e 9b9c 03c0 9986 d73e 87b5 493f
00000240: bd43 d2bd 816a bd3e e255 173e 7966 95be
00000250: 69a5 4d3e a734 9f3d 2d6e b8bb e8d2 f53d
00000260: a4b2 25bf cd2c 8abf da77 913f c072 65bf
00000270: 9b28 4ebe 6f03 913f 91c1 e73e 406a 2dbe
00000280: b59b d3be b68b a0be cb34 4c3e 12ee a3bc
00000290: 7ff0 b3bb 2a52 8b3e 8ebd 85be e729 0cbf
000002a0: 181d 19bf 5c0f 75bf f80c 6ebf 6679 293f
000002b0: 523c 7b3e fac1 3ebf f725 82be 6acd 3f3e
000002c0: fce8 0ebe 0d69 e03e acd9 a43d bfee 53bf
000002d0: 656a c33e f899 d7bd cce8 81be 1770 99bf
000002e0: ca46 d63e c7d1 a63d f483 e93e 3519 053f
000002f0: 259b e8be c68f 1ebd 6903 a9be 0cee f1bd
00000300: 8151 3f3f 38d8 62bd 78c0 f9be edad c13e
00000310: 99c0 223e 74f7 ee3d 6e8b 26bf a16f a03f
00000320: 043c ce3e c0e4 893f ebb7 6dbe 9fba 4f3f
00000330: 0d5d bebd c736 a43e 4fd1 ec3e 72b6 123f
00000340: e898 793f 5d54 fa3e 2141 23bd 1e57 dbbf
00000350: 3459 eb3f 05bd 82bf 6c47 4c3f 5702 543f
00000360: 7397 e53d 1a3c f53e e670 92be 2768 8cbe
00000370: b5ff 9f3e 43a5 5dbd 9045 213d 1308 0ec0
00000380: c656 10c0 d05f 503f dc02 76bf d386 b0bf
00000390: 6574 ce3e a0d8 9abf 69d8 8e3f d2bc 3440
000003a0: 0e07 cc3f a6b3 743f 5456 283f 4f2d cdbf
000003b0: 15d8 4abe c9b2 13bf fdc3 29bf 1856 c3bf
000003c0: bbd4 abbf e13a fe3f 50f4 de3d 4a14 8f3e
000003d0: 2cb5 f1be 9c6f ba3c 15e6 4bbf 7914 1d3d
000003e0: ed4b 173d 6680 3cbf f53d 423e cc7b 32c0
000003f0: f5ee 883f 4b15 fabc 7e9b 9dbf 4724 9f3f
0.9924567 0.32458952 -1.2822901 0.1573057 -0.2608847 0.41814604 -0.87721753 0.37648863
-0.02827001 0.00016986077 -0.030051483 0.12018387 0.3397763 0.025737533 -0.14813769 -1.0323062
1.0054729 0.025614355 0.13864137 -0.26881868 -0.19728711 0.24339768 -0.041896112 0.5803348
-0.15763462 1.0787969 -0.28120786 0.7234241 -0.95476866 0.103736036 -2.917109 -0.3716742
-2.3755834 1.6672022 -0.4162211 -2.26024 2.330869 0.46690014 0.6831793 -0.6821252
1.9168268 -0.0028631005 2.530539 -1.5081145 -1.9553812 -0.6071884 -0.54593736 0.2736991
0.72839373 0.89208525 -0.9911556 -0.19941077 -0.5632202 0.05301812 0.3339224 -0.89631236
0.2407156 0.02437688 0.44615665 -0.5838933 0.2603483 0.52563757 -0.27761713 2.2925305
0.84947485 -0.26334524 -1.4084057 -0.097167976 -0.4739485 -1.0039881 3.819877 -0.5919551
-0.86518794 0.6394833 0.92086333 -0.40439704 0.0074089053 0.16514362 -0.016529337 0.8636359
0.30027398 0.9123289 -0.25110716 -0.43195984 -1.3370405 -0.4489454 -0.64608616 -0.9322905
-0.34376433 -0.29311237 0.10047175 -0.92259246 -1.88909 -0.4964633 -0.03553172 1.7410007
0.47953808 0.9686416 0.024341349 0.49585152 -0.52510893 0.074626304 1.831704 0.45758954
-3.2698812 0.95789105 -0.113271005 2.1637797 -0.13885151 1.4566958 1.0488067 -2.550961
0.47096756 0.91081506 -1.8128527 0.7277995 1.9935946 0.3073879 -0.28964943 0.60048556
0.22825329 0.6524109 0.097375005 -0.0011043744 0.47844866 0.14015627 -0.6020606 -0.18075405
1.0558221 -0.76917017 -1.1374322 -0.4329599 0.04913813 1.4106781 -2.4706192 0.4531467
0.5959901 -0.79255795 -0.63664263 -0.8960257 0.19431971 -2.0564334 0.42094877 0.78792614
-0.10266826 0.3699532 0.14778855 -0.29179743 0.2008263 0.077737145 -0.0056283684 0.12003118
-0.6472571 -1.0794922 1.1364701 -0.8962822 -0.20132677 1.1329173 0.45264867 -0.16935062
-0.41329733 -0.3135659 0.19942014 -0.020010982 -0.005491316 0.27211124 -0.2612118 -0.5475144
-0.5981002 -0.9572656 -0.9298854 0.66200864 0.24534729 -0.74514735 -0.2541959 0.18730703
-0.13956064 0.43830147 0.0804933 -0.8278617 0.3816711 -0.10527414 -0.25372922 -1.1987332
0.41850883 0.081454806 0.45608485 0.5199159 -0.45430866 -0.03871133 -0.33010414 -0.11812982
0.7473374 -0.055381984 -0.48779655 0.37828007 0.15893783 0.11668292 -0.650565 1.2534066
0.40280163 1.0772934 -0.2321469 0.81144136 -0.09295092 0.32073042 0.4625344 0.5730964
0.9749894 0.4889249 -0.039857034 -1.7135961 1.8386598 -1.0213934 0.7979648 0.8281607
0.11210527 0.47897416 -0.2860176 -0.27423212 0.31249776 -0.054112684 0.03937298 -2.2192428
-2.2552962 0.813962 -0.96098113 -1.3791145 0.40323177 -1.2097359 1.1159793 2.8240247
1.5939653 0.9558662 0.65756726 -1.6029452 -0.19808991 -0.5769468 -0.6631468 -1.5260649
-1.3424295 1.9861718 0.10886443 0.27945167 -0.47208536 0.022758298 -0.7964795 0.038349602
0.036937643 -0.7363342 0.18968947 -2.788806 1.0697924 -0.030527731 -1.2313077 1.2432946

layers.0.bias f4 [32]
00000000: e23a 683f f7c4 033f 82e1 2fbf b999 2abf
00000010: 3372 d7bf c1dc 093f e81b 30be 7299 c1be
00000020: 50cf f03e f06c 5cbf 681e bebf ea0a 08be
00000030: 52b6 bebe c49b babf b816 e53f 1ba0 c3be
00000040: 3072 12bf ce55 093f 6e21 473e b7ef e2bf
00000050: 7e51 d3bd 71d3 27bf 829b b43e 8cd1 0b3f
00000060: 40d7 59be 2b7c c4bf c32b aebf 5aa1 833d
00000070: 1f1e 413f bfa5 c3be 56de ddbe 6fa3 57be
0.9071485 0.5147242 -0.6870347 -0.6664081 -1.6831726 0.5385247 -0.17198145 -0.37812382
0.47033167 -0.86103725 -1.4853029 -0.13285413 -0.37248474 -1.4578786 1.7897558 -0.38208088
-0.57205486 0.5364655 0.19446346 -1.7729405 -0.10318278 -0.6555701 0.35274893 0.5461662
-0.21273518 -1.5350393 -1.3607105 0.0642726 0.75436586 -0.38212392 -0.4333369 -0.21058439

layers.2.weight f4 [32, 32]
00000000: 63a2 b3bf 01bc a7c0 eae2 84c0 61bf 32c0
00000010: 3651 9cc0 0255 0c40 b859 71bf 44dd 52be
00000020: beae d0be 9279 8d3f d9a2 c13f 4be7 3fbf
00000030: 61c3 dbbf dbe1 ebc0 b378 54c0 2613 c3bd
00000040: cd6d 1cbf d2a9 adbe 2e70 f7bf fb9f 3fc0
00000050: d8cc 90c0 0bae b8c0 60ff 613e d875 6abe
00000060: 234c 1fbf 921e 8a3e f3c9 e0c0 27e0 863e
00000070: 9ff9 8d3e 8af5 67c0 6604 a6bd bd63 b3be
00000080: 09e8 9cbe 6ecd 8ebe 16ec 313e 761f 1dbf
00000090: 7a35 313e 0164 493c 00c9 fbbe bd52 e33e
000000a0: 50b3 3fbd 0c76 f9be b014 e23c 3c03 5ebf
000000b0: f85f 313e a858 53be a05d 043c d7a4 3fbf
000000c0: 5ba4 82be 3a84 4dbf 13e5 3e3f 7cc6 793d
000000d0: e35a 9a3e 5d13 0a3f 326a 2abf 07af 163e
000000e0: c897 acbd b59f a7be 47e7 a93e d6d2 89be
000000f0: 1990 e8bd e56e ad3c 0984 c03e d231 5abf
00000100: 0e97 25bf 74cb a6bd 2d6a bfbe b36d 123e
00000110: 77fc 15be 6d96 58be 627c f7be 154f 013e
00000120: 3662 17be 5b4d 0cbe 076e 373e 7afc 5cbe
00000130: 47f7 213d 5b03 afbd 2cd1 36be 3c6d cdbe
00000140: d9ec febd 1a69 67be b0d8 183e d9aa 8abf
00000150: 5439 293d e29e 3bbe 3518 f93d 0f2a 3bbd
00000160: c2f7 e0be 77ea 00bf 774c 483e b4d6 e2be
00000170: 46b2 97be ff7e d4bd 74a7 373d 6814 eebc
00000180: 0938 b53e d51e e03d 9d82 423e 3bc9 f53e
00000190: 8aad 943e f1b1 34bd fc65 4c3d d5a8 0bbe
000001a0: d119 c2be 5a51 3abd 229c 6fbe 94f6 67bf
000001b0: 8b43 7b3d 8d8a 823e 12ea c3bb 83e8 4e3e
000001c0: fa23 60be b6be 283e 41d3 adbd 934c c3be
000001d0: 3485 053f 73d0 863e d1f6 603e 418b 4a3e
000001e0: 0780 3e3e 7944 c13c 271e 093d 263d 823f
000001f0: 8308 303f f343 3e3f a894 96be bf62 acbe
00000200: 96fb d33c 8b60 26bf 6923 97bf d47b 60bd
00000210: 3f10 05c0 1d39 6b3e 165a b1be ba2c 0abe
00000220: b557 5dbc 8600 473d 2dc7 05bf 4e43 313c
00000230: 532f ed3d 9b4f 02bf 3256 bebf b299 7fbf
00000240: d7d6 b63d f58e 95be 0ee6 6abf 7e2c 77be
00000250: 112a ab3b 54aa 15c1 22a8 1dbe 57d1 27bf
00000260: 2fa7 89bf 186f e5bf ee96 c2bf 187f 903e
00000270: e8c7 093f f081 6bc0 9a71 ccbe e5b4 5abe
00000280: 265b 48bf 2cf4 63bf 66fb 05bf 9a7a 7dbf
00000290: b048 dcbf 1da8 a1c0 5689 9fbf be12 13bf
000002a0: 6aac d3bf 842a a13e 59ec 793e 41f8 65be
000002b0: bfc2 9a3f 7fd0 cdc0 fc03 46c0 328f 8bbf
000002c0: d93b 823f da1c 07bf cc9b 9cbd 7417 55c0
000002d0: 5235 6cbf 7296 afc0 71f0 8abf 2931 5dbf
000002e0: 79cc 733f 4051 623e 6373 52c0 b942 183f
000002f0: 59f4 ce3e 16d8 bebe e390 e23e f183 003f
00000300: d858 1fbf eddc 303e cba1 983e 427b 5ebe
00000310: 0a96 983e ace5 bdbc 1ad9 34be 44b2 d2be
00000320: 47da 1abf c416 8abe 63e0 653d 41e8 ca3e
00000330: b52f e1bd 181d 7c3d d1b4 9abe 2f39 d53e
00000340: d5c5 c43e f251 9ebe 3e3e 9d3d 4cf6 103f
00000350: b3b2 043f c5c3 9d3e d19c e43e 7197 553d
00000360: 2622 51be 3122 cdbe 3ed8 433f e532 32bd
00000370: 8aab 843f 2808 383f 82bd a8bc 3b48 a2be
00000380: 2b4b 943e b247 593d a868 ae3c a24d 8ebe
00000390: 1906 0fbd a2fe a63d 79db 143e 0fed c8bc
000003a0: 146c 3e3b b52a 383e d6e6 1b3e 20ed 913d
000003b0: 23d3 95bd 585b 453c 6f7e 22bc 44cd bdbc
000003c0: 73cc 983d e9c3 8abd de52 3bbe 1d32 b33d
000003d0: 85e6 a0be 95a5 e93e dda5 3c3e b080 e7be
000003e0: 1816 91bd 9ac1 863d b8b8 7d3d d41d 3cbe
000003f0: 15bb 0dbf 554b 143e f9b7 1cbe 0f1c b8be
-1.4033931 -5.2416997 -4.1526995 -2.7929308 -4.8849134 2.1926885 -0.94277525 -0.20592219
-0.40758318 1.1052725 1.5127822 -0.749623 -1.7169 -7.3713202 -3.319867 -0.09525137
-0.6110504 -0.33918625 -1.933111 -2.9941394 -4.5250053 -5.7712455 0.22070074 -0.22896516
-0.6222555 0.26976448 -7.024652 0.2634289 0.27729508 -3.6243615 -0.08106308 -0.35037032
-0.3064578 -0.27891105 0.17375216 -0.6137613 0.17305556 0.012291909 -0.49176788 0.44399062
-0.046801865 -0.48722875 0.027597755 -0.86723685 0.17321765 -0.20639288 0.008078963 -0.748609
-0.25516018 -0.80279887 0.7456829 0.060980305 0.30147466 0.53935796 -0.6656829 0.14715205
-0.084273875 -0.32739034 0.33184263 -0.26918668 -0.113556094 0.021171043 0.37600735 -0.8523227
-0.64683616 -0.08144274 -0.37385693 0.1429966 -0.14647089 -0.21151133 -0.48337084 0.12627824
-0.14783558 -0.13701384 0.17913066 -0.21580687 0.039542463 -0.08545562 -0.1785323 -0.40122402
-0.12447519 -0.22598687 0.1492641 -1.0833389 0.041314438 -0.18322328 0.1216282 -0.045694407
-0.43939024 -0.50357765 0.19560419 -0.4430443 -0.296282 -0.10375785 0.04483743 -0.029062465
0.35394314 0.10943381 0.18995138 0.4800509 0.2903865 -0.04411501 0.049901947 -0.13638623
-0.3791032 -0.04548774 -0.23399404 -0.90610623 0.06134371 0.2549633 -0.005978831 0.20205884
-0.21888724 0.16479 -0.08487559 -0.3814436 0.52156377 0.2633091 0.21969153 0.19779684
0.18603526 0.02359222 0.03347602 1.0174911 0.6876299 0.7432243 -0.2941029 -0.33669087
0.025876801 -0.6499106 -1.1807681 -0.05480559 -2.0791166 0.22971006 -0.34639043 -0.13493624
-0.0135096805 0.048584484 -0.52257043 0.010819269 0.11581292 -0.5090272 -1.4870055 -0.99843895
0.08927696 -0.2921063 -0.91757286 -0.24138066 0.0052235206 -9.354084 -0.15396169 -0.655538
-1.0754145 -1.7924528 -1.520231 0.28221965 0.5382066 -3.6798058 -0.3993042 -0.21358068
-0.7826408 -0.8904445 -0.5233673 -0.990152 -1.7209682 -5.0517716 -1.2463787 -0.57450473
-1.6536992 0.3147775 0.24406566 -0.22457983 1.2090682 -6.431701 -3.0939932 -1.0903075
1.0174514 -0.527784 -0.076469034 -3.3295565 -0.9226886 -5.487115 -1.0854627 -0.8640314
0.95233876 0.22101307 -3.2882926 0.5947681 0.40420797 -0.37274235 0.44251165 0.50201327
-0.6224494 0.17271776 0.29810938 -0.21726707 0.2980197 -0.023180805 -0.17660943 -0.4115163
-0.60489315 -0.26970494 0.056122195 0.3963032 -0.109954275 0.061551183 -0.30216077 0.4164519
0.38432184 -0.30921894 0.076778874 0.5662582 0.51835173 0.30813423 0.4465089 0.05214638
-0.20423183 -0.40065148 0.76501834 -0.043505568 1.036485 0.71887445 -0.020598177 -0.31695732
0.289636 0.05304689 0.021290138 -0.27793604 -0.034917925 0.08154036 0.14536847 -0.0245271
0.0029056119 0.17985041 0.15224776 0.07125306 -0.07315662 0.012045704 -0.009917839 -0.023169167
0.074608706 -0.06775648 -0.1829333 0.08749793 -0.31425872 0.45634142 0.18422647 -0.45215368
-0.07084292 0.06579895 0.06194374 -0.18370754 -0.5536359 0.14481862 -0.15304555 -0.35958907

layers.2.bias f4 [32]
00000000: 1202 c73e b1a1 883e 84da 353f 6621 bfbf
00000010: 45dd 123f fea9 0c3f d357 68c0 081a f43f
00000020: c2f8 e33f 36c3 4b3f 6add 993f d31d ae3f
00000030: 7a37 37bf 74ee f4bf 6baf 1740 01e0 d53e
00000040: f263 89c0 be3b 0340 7308 813f 81c9 1ac0
00000050: 06ec f03f 9457 fd3f 7827 233f f096 0bc0
00000060: 2b63 a1be c7df 98bf 03a7 9c3f ebd4 fb3f
00000070: 23fa 783f 9119 183f 88fd 72bf b3e4 13c0
0.38868767 0.2668586 0.71036553 -1.4932067 0.5736888 0.5494689 -3.6303604 1.9070444
1.781029 0.79594743 1.2020695 1.3602852 -0.71569026 -1.913527 2.3700817 0.41772464
-4.2934504 2.0505214 1.0080703 -2.4185488 1.8822029 1.9792352 0.637321 -2.1810875
-0.31520972 -1.1943291 1.2238468 1.9674352 0.9725668 0.5941401 -0.9491811 -2.3108337

layers.4.weight f4 [21, 32]
00000000: 263d 15be 0fb7 1d3f b87f 4fbf 913e 423e
00000010: 1fba 04bf 5395 82bf 5b9a 15bf 377a 343e
00000020: 4ea2 60be 043b 56bd 7a9a 943f 5c63 8b3c
00000030: 3db0 ea3d 003c 8ebe e6bd c83d 5082 7fbe
00000040: a996 6cbe 65bd ae3e 5aad b03e 612c d5ba
00000050: b5be e2bc 08ba 293f cacc 863e ab7c eabd
00000060: 22e7 86be 5d9e c33d 513c 92be e1fb 3cbc
00000070: 9504 b53d b4a0 92be 2ab0 483e 04c6 113e
00000080: 7397 003c b615 3ebf 4d9b 2c3e b28e 40be
00000090: f606 d03e fd70 623f c428 0c3f c5e2 193e
000000a0: ac0b 0c3f 1167 b1bd 8e3d 1fbf 82cd 703e
000000b0: c382 afbd 98f9 743e da7c 1bbe 47d3 803f
000000c0: 0440 21bf b723 563e f747 033e 35d3 7bbe
000000d0: 67a4 033e 51a7 f4be c569 aebe 50aa b03e
000000e0: 23e5 b43c 1793 72be 2831 8c3d 5da9 cd3d
000000f0: 866e 9f3e 090f 863f ba3a aa3d caf5 ffbb
00000100: 5c34 5e3f 9f26 b53e b14a db3d 212a 48bf
00000110: 7cd5 90bf b579 69bf c828 4abd 28a0 7c3f
00000120: 60b4 d83e be28 283f bcef 163f 73a2 02ba
00000130: 7ff8 3ebf 63bf b9be 5305 15bf b45e 8b3e
00000140: 8e44 a13e 3605 5c3f 4836 693f 205a b6bc
00000150: d09d 0b40 4af2 0b3f 8729 4ebe a92e 6abe
00000160: 7f5e bebc e54c 49bf d0cd 7abe 7565 563f
00000170: 57a1 0ebd 1a15 87bf 957d 34bf cf93 213f
00000180: 6ae4 8e3e 3339 cf3e 73c1 34be 4a12 45bd
00000190: b516 a6bc 6a5c 8c3d ed14 b5bd d783 b5bc
000001a0: 0b8f 70bf 6668 023f 7b54 63bf cbdb 8cbf
000001b0: 8065 7bbe d8ab af3d efae 003e fb15 2fbf
000001c0: 22f8 cebd ced5 dd3e 46dd 77bd 1cea 51bd
000001d0: 1c7c 603e 5a47 34bf 344d 8f3c c6a6 e7be
000001e0: d3da 67bc 8129 adbe 497a a03e 6d45 8c3e
000001f0: c3fc 1abe 0c3e c63d 82df 73bf 7b35 a8be
00000200: 9490 363f c5eb b33e 5bf6 29c0 7fb2 1b3f
00000210: 40c7 e8bf 80f4 d0bd 9369 28bf 3c8a cfbf
00000220: 71ca 15bf 67b9 c63e d50b c3bf 0b97 f5bf
00000230: 0589 c63e d6a1 8b3f 0c55 ca3e ff34 c73c
00000240: 95ed cd3e 6fc8 b8be 0193 1bbf 23cc 46bf
00000250: 7c65 f8bf 63f1 bdbf 4617 fcbf 9524 5b3c
00000260: d669 b4bf fd20 e3bc 33d7 103f b0f7 993e
00000270: 6986 4cbd b873 4740 de28 8dbd 1180 8abe
00000280: b8e6 67bf d341 89bf c89a 5f3f 3221 313f
00000290: 9655 1040 a784 69be 3b2e 17bd 91df 923d
000002a0: ef6a 863f d669 debf ae42 d03f 6763 be3f
000002b0: 0029 d43f b186 3d3f d86b cabd 150b 19bd
000002c0: 4182 95be 4609 eabf 9a51 33be a940 233f
000002d0: 0aa2 c0bf ab1c bf3f 4f61 1b40 139c 503f
000002e0: a6be 24c0 5664 2c3f 57f0 78bf d939 21bf
000002f0: b39a 62be 6e11 2fbf ec1d 913f 7a65 893f
00000300: e82f 303f aa38 913f 94cd f03d c646 ddba
00000310: c6cc b8be 0245 6d3d 97ba 28bf dafa 0940
00000320: eeb4 d8be a4be 963f 9495 1b3f 9509 bbbe
00000330: 7398 5ebf 4b85 2f3e ba6c 33c0 1385 3e3f
00000340: e306 963d c2c0 0540 5031 d63d 90fc fcbe
00000350: 19dc 293f e91c c23f 60af 3ebf 9ad7 2cbf
00000360: 1277 8e3e 3a5b 9fbe e52f f23f f26b 9ebf
00000370: 5ded a9bd 83ad 9b40 b4cf 1f3e 7953 0abe
00000380: ece3 20bf cfc2 173f 0217 a5be 2b99 a8bf
00000390: fba9 223f 85c6 02c0 332d 2d3f 1520 0440
000003a0: 30c8 c93e 42f1 0d40 f014 8bbf 9b19 20c0
000003b0: 927d 85bf 7a88 aabe af42 23bd 8dbc 203f
000003c0: 36d0 0b3f 6af8 6f3f 2374 3abe a360 52bf
000003d0: 0ba2 c33f 5c1a 0540 7a5d d5be 9202 8cbf
000003e0: d8d6 4d3f b017 20bd 60e1 2540 c95e 16bf
000003f0: 8b4e 8ebe b08a 0a3f d3c3 363f 763a 0c40
-0.14574108 0.6160745 -0.8105426 0.1896918 -0.518465 -1.020182 -0.5843865 0.17624746
-0.21936914 -0.052302375 1.1609643 0.017015152 0.11459396 -0.2778015 0.09801845 -0.24952054
-0.23104347 0.34128872 0.34507257 -0.0016263836 -0.027678827 0.66299486 0.26328117 -0.1144956
-0.26348215 0.0955169 -0.28561643 -0.011534662 0.088387646 -0.28638232 0.19598451 0.14235693
0.007848608 -0.7425188 0.16856118 -0.18804434 0.4063031 0.88453656 0.54749703 0.15027912
0.5470531 -0.086622365 -0.622033 0.23515895 -0.08569863 0.23923337 -0.15184346 1.0064477
-0.62988305 0.20912062 0.12820421 -0.24592288 0.12855683 -0.47783902 -0.3406507 0.34504938
0.022081917 -0.23688923 0.06845313 0.10042069 0.3113901 1.0473338 0.083119825 -0.0078112828
0.86798644 0.35381028 0.10707606 -0.78189284 -1.131515 -0.91201335 -0.0493553 0.9868188
0.42325115 0.6568717 0.58959556 -0.0004983313 -0.74597925 -0.3627883 -0.5821125 0.2722069
0.31497616 0.8594545 0.9109845 -0.022259772 2.181507 0.5466658 -0.20133029 -0.22869362
-0.023238419 -0.78632957 -0.24492574 0.8374856 -0.034821834 -1.0553315 -0.7050412 0.63116163
0.2790864 0.40473327 -0.1765192 -0.048113145 -0.0202745 0.06853564 -0.08841882 -0.022157593
-0.93968266 0.5094055 -0.8880078 -1.1004575 -0.24550438 0.085776985 0.12566732 -0.68392915
-0.10105921 0.43327183 -0.060513757 -0.051248655 0.21922344 -0.70421374 0.017492868 -0.45244426
-0.014151293 -0.33820727 0.31343296 0.27396718 -0.15135483 0.09679803 -0.9526292 -0.32853302
0.7131436 0.35140815 -2.6556613 0.6081924 -1.8185806 -0.10202885 -0.65786093 -1.6214061
-0.58512026 0.38813326 -1.5237986 -1.918672 0.38776413 1.0908763 0.3951801 0.024317263
0.40220323 -0.3609042 -0.60771185 -0.7765524 -1.940597 -1.483929 -1.9694602 0.013375421
-1.4094799 -0.027725691 0.5657837 0.30071783 -0.04993287 3.116438 -0.068925604 -0.27050832
-0.90586424 -1.0723213 0.8734555 0.6919128 2.2552238 -0.22804509 -0.036909323 0.07171548
1.0501384 -1.7376049 1.6270349 1.4874085 1.6575012 0.7403365 -0.09883851 -0.037364084
-0.29200938 -1.828408 -0.17511597 0.6377054 -1.504945 1.4930624 2.4278142 0.8148815
-2.5741363 0.673406 -0.9724173 -0.62978894 -0.22129326 -0.6838597 1.1337256 1.0734093
0.688231 1.1345417 0.11757961 -0.0016882054 -0.3609373 0.05792714 -0.65909714 2.1559358
-0.42325538 1.1776929 0.60775113 -0.36530748 -0.8695137 0.17140691 -2.8035111 0.74421805
0.07325532 2.08989 0.10458624 -0.4941144 0.6635147 1.5165073 -0.7448635 -0.6751648
0.27825218 -0.31124288 1.8920866 -1.2376692 -0.082972266 4.8649306 0.15606576 -0.13508405
-0.6284778 0.5928163 -0.32244116 -1.3171743 0.6354062 -2.0433667 0.67647094 2.0644581
0.39410543 2.2178502 -1.0865765 -2.5015628 -1.0428946 -0.33307248 -0.039858516 0.62787706
0.5461458 0.93738425 -0.18208365 -0.82178706 1.5283827 2.0797338 -0.4167288 -1.0938284
0.8040595 -0.03908509 2.5918808 -0.5873838 -0.277943 0.5411787 0.71392554 2.1910682

layers.4.bias f4 [21]
00000000: f653 6d40 e8ad 7440 42ce 37be 103a 7740
00000010: 6606 22c0 b0d4 5bc0 efdb 053f 3f8e 8d3e
00000020: 0a2c f3bf 98ee 68c0 f9dd 07bf a435 333f
00000030: d639 dd3d 10a4 31c0 c433 88c0 86aa e6bf
00000040: a2ad 1cbf 834c 903d 0401 50bf 6e73 c23f
00000050: 8b64 5340
3.7082496 3.8231144 -0.17949775 3.8629189 -2.5316405 -3.4348564 0.5228872 0.27647588
-1.8997815 -3.6395626 -0.5307308 0.70003724 0.10802047 -2.7756386 -4.256319 -1.802079
-0.6120244 0.070458435 -0.8125155 1.5191476 3.3030117

exp_avg f4 [24]
00000000: 457e 8ac9 85a1 74c8 58df 8949 eaf7 0c49
00000010: 0c69 c1c8 63f1 7648 2da7 ac47 c202 5047
00000020: af1f f547 fc74 0348 442b 8ec7 38bb 23c8
00000030: 10fc 06c7 5725 dec7 6194 d7c6 1b7b 5448
00000040: d56c 7047 e04f 3d47 ec1b fb47 8980 3646
00000050: 4c1f dd46 a35b cd47 1726 88c7 c6cb ad45
-1.1345366e+06 -250502.08 1.129451e+06 577406.6 -396104.38 252869.55 88398.35 53250.758
125503.37 134611.94 -72790.53 -167660.88 -34556.062 -113738.68 -27594.19 217580.42
61548.832 48463.875 128567.84 11680.134 28303.648 105143.27 -69708.18 5561.4717

exp_avg_sq f4 [24]
00000000: 77d5 8755 4f10 9d55 2211 d655 decf 4555
00000010: 094d de55 f902 5654 a1da 3a55 393d 4055
00000020: fbd5 3455 ab97 1a55 93d0 e354 47e4 8055
00000030: 07a8 1755 52d1 0e55 a283 3355 a90d cb55
00000040: af0d 2055 dc87 3654 e5aa bb54 73a0 a554
00000050: 642b 3555 6afd f954 025b 3755 db60 9a54
1.8668862e+13 2.1586671e+13 2.9421134e+13 1.3593536e+13 3.0552806e+13 3.6766915e+12 1.284051e+13 1.3210574e+13
1.2426946e+13 1.0623512e+13 7.827655e+12 1.7714742e+13 1.0421745e+13 9.814355e+12 1.2336121e+13 2.7907441e+13
1.0998789e+13 3.1358536e+12 6.448208e+12 5.690892e+12 1.2449873e+13 8.5895875e+12 1.2600094e+13 5.3043994e+12

exp_avg f4 [24]
00000000: 4431 6649 c4e8 90c8 7ad6 d2c8 39a5 3149
00000010: 82c5 2249 9ef0 5648 946a 0147 caa7 36c8
00000020: 304e 19c7 3e55 bdc8 d7c4 02c7 fc6c f048
00000030: 3ddf 57c8 0de9 95c8 7985 b847 39fe 1ec7
00000040: 2823 eb47 4a24 5a48 c94a f1c7 29a3 c847
00000050: 7cbe 1f48 8fc3 14c8 6955 eac7 758c 7a47
942868.25 -296774.12 -431795.8 727635.56 666712.1 220098.47 33130.58 -187039.16
-39246.188 -387753.94 -33476.84 492391.88 -221052.95 -307016.4 94474.945 -40702.223
120390.31 223377.16 -123541.57 102726.32 163577.94 -152334.23 -119978.82 64140.457

exp_avg_sq f4 [24]
00000000: f472 2355 01ed 8f55 7363 d755 342e 9f55
00000010: 1b5b f955 3ced 3554 bece 8954 efd6 5a54
00000020: 2790 3e54 2001 6454 8168 f353 af1e c354
00000030: 0e8b 5154 bae5 2e54 64dd 6f54 0301 2c55
00000040: b16b 7d54 6efe 1254 9159 f553 26c9 5254
00000050: 71d1 7754 3061 3754 98a6 8654 7240 8754
1.1232132e+13 1.978101e+13 2.9602766e+13 2.1877599e+13 3.4271211e+13 3.1254769e+12 4.7350326e+12 3.7596354e+12
3.273849e+12 3.9170857e+12 2.0908607e+12 6.7042673e+12 3.5999245e+12 3.004714e+12 4.120846e+12 1.1820022e+13
4.353734e+12 2.5253354e+12 2.1075393e+12 3.6212714e+12 4.257483e+12 3.1504382e+12 4.626565e+12 4.6472144e+12

exp_avg f4 [32, 24]
00000000: 00af 0cc8 28ca 8fc7 f301 58c7 1ed4 ff46
00000010: f537 a446 2f22 8a46 f55e fdc5 0f55 ef44
00000020: 4cf5 da46 d157 b144 45db e0c5 9f1c a146
00000030: ba07 e9c6 186a 6245 6e22 5c47 1c69 7dc5
00000040: d1ee 7c45 1c22 9e46 917d 80c6 1602 0247
00000050: 2827 1946 386e 9e47 9da6 4446 2070 8fc6
00000060: c417 f344 5238 1c45 a317 1446 4bf0 2d46
00000070: facd 43c5 2fb0 40c5 b059 36c5 2832 0f44
00000080: af40 1fc4 436b 6d44 de55 74c4 9e5c 3545
00000090: d1e8 e7c4 bd9a 97c4 6fd9 b745 edda 1ec3
000000a0: 6d87 d544 be1e 9144 ba3c 9744 2556 2c45
000000b0: 66a2 b144 5a32 e445 9e97 8fc3 fba4 b3c4
000000c0: cd3a 44c6 2bb2 3cc6 ac46 f0c5 12e3 aa44
000000d0: 45f6 abc4 5587 9445 f1d7 7343 dfe1 03c4
000000e0: b04e b1c4 a5a9 ac43 d2be 0d44 7c15 30c4
000000f0: cc0e 2844 a67f 8d43 8651 13c5 437c 1c43
00000100: 1a31 e3c3 0e16 27c4 548b 4044 9870 8bc4
00000110: 0eea 9dc0 9171 1dc5 959f 4643 9612 4644
00000120: 8b08 df45 5ed6 1645 150f 9843 9751 2045
00000130: 60fa 1cc5 e03a 98c5 8591 ce45 4966 b0c5
00000140: 58d5 05c6 cb27 5145 1cce 48c5 1da2 93c5
00000150: 295d 9b45 8241 7ac5 71cb 8745 772a 00c5
00000160: 8442 9f45 e925 82c4 6448 0046 d7f3 2d44
00000170: 06a1 86c5 3ca6 4445 2807 f1c5 9088 ce44
00000180: 185a acc6 47de e4c6 0aa4 77c6 8211 1645
00000190: d2c7 a8c5 5d15 bf45 3fbc dbc4 3dd0 f143
000001a0: 09bb 90c5 967e 00c4 5f38 3a45 594d 19c5
000001b0: b27d 6245 a90a acc3 490b 6ac5 389b 0344
000001c0: 6bdb 8fc2 4d0b 2ac5 2ce5 9f45 466a 69c5
000001d0: c09c 6ec4 1412 17c6 663f 3241 8ca6 2f45
000001e0: 5740 8dc6 1476 97c6 faa4 84c6 5d0a 4743
000001f0: c01a 25c6 9a27 3046 3fee 61c5 878d 5dc5
00000200: ca51 a9c5 3df8 cec3 4016 2b44 f7eb a4c5
00000210: 0bea b545 f3b6 1343 a6da f4c5 2b6c 93c4
00000220: 7444 fe44 2291 1cc5 b1be ba45 9db0 62c5
00000230: 8b05 cbc4 caf9 f0c5 52a9 bfc5 49b6 3f45
00000240: 1578 0ec6 ef9a 72c6 b142 40c6 26ae 0446
00000250: 026f e5c5 daaf 9545 11eb af45 1230 f8c5
00000260: 388a 40c6 c202 7d44 5ae5 38c5 cd59 d4c5
00000270: 643a 1746 8dbe 1cc5 decd cfc4 889e bec4
00000280: 33d7 3a45 1cf5 4cc5 18a4 3446 6dcd 49c5
00000290: e61e 94c5 478d afc5 cb70 1dc6 d47d 6e45
000002a0: f7e9 8246 9b74 5a46 7a65 8446 853a c2c5
000002b0: b319 80c6 5abd c3c5 bff0 0fc6 70e9 df45
000002c0: 24ee fcc3 0a35 84c5 3267 2b45 459c cec3
000002d0: fc2d 2c46 ba37 d443 c13c 7ec6 f392 2c45
000002e0: af34 1d45 3bc0 cac5 ee4c 1f46 acd1 07c6
000002f0: 9848 aac3 6507 41c6 b82c 07c6 dcae 6945
00000300: 9fc2 d645 6738 9445 9aa6 93c6 df2e a1c6
00000310: 10a5 00c6 9ac7 1546 da81 ecc5 ec6d d545
00000320: 375b cc44 6996 86c3 3f72 2545 0c28 9f44
00000330: 76cd 0c44 edfb c345 0079 5ec6 a907 5c44
00000340: 63eb a4c3 14a9 c0c4 cf3a fc45 6c35 70c5
00000350: b3bb 6dc5 1798 90c5 14a2 b2c3 1f93 5345
00000360: e8b2 0b45 a035 1745 8b9d 5c44 79cf 60c4
00000370: bf58 53c5 392d 03c5 b48b e1c5 2965 2ac5
00000380: cdb5 d7c5 d16e de44 f399 16c5 6362 9ac4
00000390: 0f4d 3145 9579 1044 68e8 b2c5 0cf3 60c4
000003a0: 0af1 95c4 64d4 03c4 cadf b145 fb6a 81c2
000003b0: bb44 df44 3511 fec3 a82c 7bc5 eda6 7244
000003c0: 9bf5 2343 8e3b 9c43 7090 5342 06f7 bac2
000003d0: 1d06 9b42 9af9 13c3 7516 f642 eea4 2c43
000003e0: 01dc 12c4 0e16 5b43 d85c 9fc3 b1c7 dcc0
000003f0: f88d 42c3 33a3 c342 e7c6 e9c3 aadf dd41
-144060.0 -73620.31 -55297.95 32746.059 21019.979 17681.092 -8107.8696 1914.6581
28026.648 1418.7443 -7195.4087 20622.31 -29827.863 3622.6309 56354.43 -4054.5693
4046.926 20241.055 -16446.783 33282.086 9801.789 81116.44 12585.653 -18360.062
1944.7427 2499.52 9477.909 11132.073 -3132.8735 -3083.0115 -2917.6055 572.7837
-637.0107 949.67596 -977.3417 2901.7886 -1855.2755 -1212.8356 5883.179 -158.85518
1708.232 1160.9607 1209.8977 2757.384 1421.075 7302.294 -287.1845 -1437.1556
-12558.7 -12076.542 -7688.834 1367.096 -1375.6959 4752.9165 243.84352 -527.52924
-1418.459 345.32535 566.98157 -704.3357 672.2312 282.99725 -2357.0952 156.4854
-454.3836 -668.3446 770.177 -1115.5186 -4.934821 -2519.098 198.62337 792.2904
7137.068 2413.398 304.11783 2565.0994 -2511.6484 -4871.3594 6610.19 -5644.7856
-8565.336 3346.487 -3212.8818 -4724.264 4971.645 -4004.0942 4345.43 -2050.654
5096.3145 -1041.1847 8210.098 695.81 -4308.128 3146.3896 -7712.8945 1652.2676
-22061.047 -29295.139 -15849.01 2401.0942 -5400.9775 6114.6704 -1757.8827 483.62686
-4631.3794 -513.9779 2979.5232 -2452.8342 3623.856 -344.08328 -3744.7053 526.4253
-71.92855 -2720.7063 5116.6465 -3734.642 -954.4492 -9668.52 11.140478 2810.4092
-18080.17 -19387.04 -16978.488 199.04048 -10566.6875 11273.9 -3614.8904 -3544.8455
-5418.2236 -413.93936 684.34766 -5277.4956 5821.2554 147.71465 -7835.331 -1179.3802
2034.1392 -2505.0708 5975.8364 -3627.0383 -1624.1732 -7711.2236 -6133.165 3067.3928
-9118.0205 -15526.733 -12304.673 8491.537 -7341.876 4789.9814 5629.3833 -7942.009
-12322.555 1012.0431 -2958.3345 -6795.225 9678.598 -2507.9094 -1662.4333 -1524.9541
2989.45 -3279.3193 11561.023 -3228.839 -4739.8623 -5617.6597 -10076.198 3815.8643
16756.982 13981.151 16946.738 -6215.315 -16396.85 -6263.669 -9212.187 7165.1797
-505.86047 -4230.63 2742.4497 -413.22086 11019.496 424.43536 -16271.188 2761.1843
2515.2927 -6488.029 10195.232 -8692.418 -340.56714 -12353.849 -8651.18 3738.9287
6872.3276 4743.0503 -18899.3 -20631.436 -8233.266 9585.9 -7568.2314 6829.74
1634.8505 -269.17508 2647.1404 1273.2515 563.2103 6271.4907 -14238.25 880.1197
-329.83896 -1541.2837 8071.351 -3843.3389 -3803.7312 -4627.011 -357.26624 3385.195
2235.1816 2419.3516 882.4616 -899.24176 -3381.5466 -2098.8264 -7217.463 -2726.3225
-6902.725 1779.463 -2409.6218 -1235.0746 2836.8162 577.8997 -5725.051 -899.7976
-1199.5325 -527.3186 5691.9736 -64.70895 1786.1478 -508.13443 -4018.791 970.6082
163.9594 312.46527 52.891052 -93.48247 77.51194 -147.975 123.04386 172.64426
-587.43756 219.08615 -318.72534 -6.8993764 -194.55457 97.81875 -467.55392 27.734211

exp_avg_sq f4 [32, 24]
00000000: 27bf d752 5487 1152 53d9 0e52 4ce8 cf51
00000010: 3013 9151 d322 b150 21d2 be51 31ed af51
00000020: 2544 1f52 6353 fc50 a188 5151 f398 3851
00000030: d7fb 5351 ab38 1451 753d 2352 01c6 eb50
00000040: 9142 d650 ec10 8d50 95a3 0e52 221c a451
00000050: 2564 1d51 36c5 8052 9159 c351 2b68 c450
00000060: d33d 6f51 73a5 f450 5c88 9c50 7756 4550
00000070: 1cf1 684f fd24 0c4f 8eb3 9450 2e2a 7450
00000080: fbbb 8350 18ab c04f 34ef 1950 d7d9 774f
00000090: a053 e14f fbc9 e54f 1953 0f51 4997 a84f
000000a0: 6895 5e4f 8fb9 a44f e619 4150 6d72 7950
000000b0: 56d8 bb4f 5cdb 9b50 331e 8750 cdb1 0e4f
000000c0: ea45 bc52 9f4d 8151 2d33 0651 2727 0c51
000000d0: d62c a750 f80a e44f a83c 2c51 5f26 1f51
000000e0: 414f 1a51 6f25 3050 eb27 5e50 edd4 0050
000000f0: 840c 7250 bf7a 7b50 1742 ba50 b855 3150
00000100: 37de 2f50 c4ab 9a4f d7a2 ac51 f15c 1251
00000110: 007e b950 fcf6 0b51 089e 7f51 743a ca4f
00000120: 6167 dd51 57f0 1e50 d82c ab50 596b 9c50
00000130: 6466 fa4f 7211 6d4f 9b7b 9850 3795 8e50
00000140: 1cc4 ea50 d37c d44f 1022 4150 35bd 0450
00000150: cb02 7350 3557 0750 aaf0 0a50 431f af4f
00000160: aa1c 864f 4b4a 1f4f fc20 b150 5164 1b50
00000170: 8b4f b14f ffb9 e950 5803 7d50 9fdb 644f
00000180: 96b7 9551 199e 4251 b3aa 3b51 bcf4 8150
00000190: a114 5f50 849e de4f 1a9d 2a50 ad0b 1c50
000001a0: 8a17 d74f b908 5f4f 24b4 0b50 d6a7 0d50
000001b0: 6034 1d50 f28c 8e4f 8379 9550 bdc2 214f
000001c0: 94b8 424f 644d 584f 63a2 9250 323f 1950
000001d0: 90da 844f a000 0151 7e8e 4750 eff2 b74e
000001e0: a29a 0452 defe 7050 e4d3 8850 3c18 7950
000001f0: 7513 5250 54fa d74e 15d2 9d50 3a9c 8850
00000200: a484 3151 b116 d54f 14c5 8150 e5f5 d04f
00000210: 0b39 5650 da30 1a50 c997 294f bc68 9b4f
00000220: 52ae 924f b4f9 ea4e 9349 5e50 10af 6c50
00000230: fcf3 f44f 594c 6450 ab57 9050 dbe2 a84f
00000240: 07c5 e351 4ad3 0551 467a c950 9a40 6650
00000250: 8191 1950 24ca 6f4f e50a ec50 94a8 d750
00000260: d9c0 bb50 5dbe 1950 0182 1150 db98 2d50
00000270: 5688 5050 732f 5550 5e30 5d51 ea0d 1650
00000280: 9539 d24f 20c7 ae4f b905 fa50 51bd 8f50
00000290: 5150 4350 83b3 4e51 3e4b c550 a954 9f4f
000002a0: 8ebd 5b52 b64a 3651 4bd5 0e51 f6a5 a450
000002b0: 34c0 ac50 4702 b94f f107 0251 5c67 ea50
000002c0: 18df f850 07b8 2f50 1d9c 9450 ae02 5050
000002d0: b705 8650 880c 5d50 1a82 2b51 21f1 1250
000002e0: 5d06 1150 ddae a84f 0987 2951 7542 a250
000002f0: 730b 5850 bcf0 6e51 c8e6 0151 4d5c 994f
00000300: 1302 8d51 30ca 1a51 04e8 1551 dc52 a350
00000310: 2402 5650 8ff4 974f bcba 2d50 167b 1850
00000320: f16a c150 1cd4 824f ea6a fa4f 7ef5 ec4f
00000330: 49b7 2350 c39b 904f e5f6 e550 e713 484f
00000340: bc2a 394f d33e 834f 4f73 8650 3d70 0050
00000350: 78cd 9f4f 877f 0c51 52c6 3050 0e61 434f
00000360: 0271 5851 53d8 2150 1512 0c50 eab5 ad4f
00000370: 9664 7f4f cc06 8a4e 21b7 6c50 7dc2 5950
00000380: 6f53 6a50 55e3 da4f c61a f54f 936d 604f
00000390: 3a29 1250 8181 0a50 0130 c150 ca07 a64f
000003a0: 2831 9d4f 43ec 374f 99e4 6b50 b4ff 1d50
000003b0: c5f4 d64f 31f0 2050 15f1 0c50 bfd5 214f
000003c0: 76a6 4751 8a40 2250 f984 0650 d8cd a24f
000003d0: 5fc7 434f 042a ac4e 8553 2c50 a4da 1850
000003e0: f818 2d50 afca 854f 8521 c34f 9bd5 014f
000003f0: 5010 864f e277 c14f b7a8 0c50 0d2e 884f
4.633125e+11 1.5626017e+11 1.5338286e+11 1.1161944e+11 7.788652e+10 2.3774796e+10 1.02446146e+11 9.444984e+10
1.7101077e+11 3.3866586e+10 5.6246276e+10 4.9552503e+10 5.6903954e+10 3.978787e+10 1.7527769e+11 3.1644977e+10
2.8757494e+10 1.8933572e+10 1.5315745e+11 8.810583e+10 4.2249376e+10 2.7653223e+11 1.0487766e+11 2.6361289e+10
6.42209e+10 3.2835869e+10 2.1009457e+10 1.3243112e+10 3.9081155e+09 2.3512343e+09 1.9958362e+10 1.638562e+10
1.7681078e+10 6.4648765e+09 1.0330362e+10 4.1582487e+09 7.560708e+09 7.710439e+09 3.8473404e+10 5.656974e+09
3.7343334e+09 5.5272484e+09 1.29588e+10 1.6740103e+10 6.3030344e+09 2.0918755e+10 1.8135226e+10 2.394017e+09
4.043134e+11 6.941913e+10 3.6024013e+10 3.762202e+10 2.2437868e+10 7.651848e+09 4.62345e+10 4.2721473e+10
4.1422164e+10 1.1820973e+10 1.4908632e+10 8.645752e+09 1.6243626e+10 1.6876502e+10 2.4999148e+10 1.190074e+10
1.1802303e+10 5.189896e+09 9.26833e+10 3.9289033e+10 2.489634e+10 3.757151e+10 6.861675e+10 6.785657e+09
1.1886527e+11 1.0666204e+10 2.2974743e+10 2.0994247e+10 8.4020285e+09 3.9773435e+09 2.04659e+10 1.9137149e+10
3.1509766e+10 7.1299005e+09 1.296094e+10 8.90797e+09 1.6308186e+10 9.082557e+09 9.324112e+09 5.876123e+09
4.500051e+09 2.6724462e+09 2.3773831e+10 1.0428171e+10 5.9495603e+09 3.1370246e+10 1.6979419e+10 3.8395983e+09
8.037877e+10 5.2242256e+10 5.037642e+10 1.7442398e+10 1.4970684e+10 7.469861e+09 1.144969e+10 1.0472044e+10
7.217288e+09 3.7418908e+09 9.375355e+09 9.506347e+09 1.0549821e+10 4.7832033e+09 2.0062149e+10 2.7138941e+09
3.2668764e+09 3.6289505e+09 1.9680926e+10 1.0284222e+10 4.4578324e+09 3.462883e+10 1.3392017e+10 1.5430757e+09
1.423825e+11 1.6172939e+10 1.8364703e+10 1.671646e+10 1.4097962e+10 1.8117535e+09 2.1182327e+10 1.8335519e+10
4.765216e+10 7.150068e+09 1.7417413e+10 7.0115517e+09 1.437625e+10 1.0347571e+10 2.845297e+09 5.2146647e+09
4.9217956e+09 1.9711165e+09 1.4917455e+10 1.5883583e+10 8.219261e+09 1.5320835e+10 1.9373316e+10 5.666879e+09
1.2228289e+11 3.592347e+10 2.704187e+10 1.5451974e+10 1.0305799e+10 4.023002e+09 3.1681096e+10 2.8945195e+10
2.5199823e+10 1.0317559e+10 9.764865e+09 1.1649904e+10 1.3994383e+10 1.4306627e+10 5.9374952e+10 1.0069977e+10
7.053978e+09 5.864571e+09 3.3557432e+10 1.9292391e+10 1.3107283e+10 5.5485936e+10 2.648034e+10 5.3462513e+09
2.3594451e+11 4.8933593e+10 3.834149e+10 2.2098719e+10 2.318622e+10 6.2078684e+09 3.4904936e+10 3.1461138e+10
3.3402962e+10 1.1792293e+10 1.9946072e+10 1.3959346e+10 1.7988172e+10 1.4834344e+10 4.6038884e+10 9.861105e+09
9.732453e+09 5.6600643e+09 4.5507187e+10 2.1778115e+10 1.4498516e+10 6.4140067e+10 3.4870166e+10 5.145926e+09
7.570315e+10 4.155107e+10 4.024017e+10 2.1920932e+10 1.4361858e+10 5.098774e+09 1.1658785e+10 1.0232814e+10
2.596009e+10 4.389878e+09 8.4026214e+09 7.951023e+09 1.0986792e+10 4.852254e+09 3.0865304e+10 3.3567475e+09
3.1065856e+09 4.403865e+09 1.804563e+10 8.619357e+09 5.362086e+09 3.7714686e+10 1.1863149e+10 3.2779177e+09
5.8100556e+10 1.0861235e+10 9.399981e+09 5.8287606e+09 4.284782e+09 1.1578506e+09 1.5885698e+10 1.4613607e+10
1.5725346e+10 7.344663e+09 8.224345e+09 3.7652774e+09 9.808701e+09 9.294972e+09 2.592919e+10 5.5710566e+09
5.274489e+09 3.0857142e+09 1.5830509e+10 1.0603123e+10 7.212731e+09 1.0800383e+10 9.458439e+09 2.7151398e+09
5.3593203e+10 1.0888554e+10 9.027446e+09 5.4627983e+09 3.284623e+09 1.4442173e+09 1.1564619e+10 1.0257863e+10
1.1616379e+10 4.4893056e+09 6.5475077e+09 2.1782597e+09 4.498432e+09 6.4917187e+09 9.439469e+09 4.5694387e+09

exp_avg f4 [32]
00000000: 2fc4 2448 fab6 7946 173b b7c5 8e40 e3c5
00000010: 4c90 a2c6 cbe4 90c6 5ce1 dec6 04f0 fcc6
00000020: 2091 8fc6 beab 4045 20c3 cac2 80bf 81c7
00000030: 4eea 3747 8a04 e0c3 2e28 22c5 0281 5044
00000040: ad8d 17c8 80fd 29c7 df63 1248 fdb8 9dc4
00000050: 221b 09c7 0043 18c7 d9a2 0ac8 b136 a448
00000060: c8b3 3a44 8a36 bf45 93eb 1fc6 d338 aec6
00000070: a5fb a748 89d3 7cc6 2eda 10c7 97c9 9947
168720.73 15981.744 -5863.386 -7272.0693 -20808.148 -18546.396 -28528.68 -32376.008
-18376.562 3082.734 -101.3811 -66431.0 47082.305 -448.03546 -2594.5112 834.01575
-155190.7 -43517.5 149903.48 -1261.7809 -35099.133 -38979.0 -141963.39 336309.53
746.8091 6118.8174 -10234.894 -22300.412 344029.16 -16180.884 -37082.18 78739.18

exp_avg_sq f4 [32]
00000000: 8857 6e53 d041 0d52 5a3a ae52 049a f051
00000010: 23bd e551 cc9f 2552 4ba9 0f52 363a 4552
00000020: 60a1 3752 80bb 3f51 65f2 1e51 1531 2953
00000030: 359a 2053 1325 1951 1e83 f451 4194 1152
00000040: ac12 6053 bb6e ae52 3637 2552 e005 fa51
00000050: 8b13 0252 d278 7052 aed7 5054 8afe b553
00000060: f5d5 0052 b19e ff51 6eb8 c250 75a1 2553
00000070: 27fa 7854 95b9 1d53 e0d9 2152 2298 0953
1.02367075e+12 1.5167363e+11 3.7415164e+11 1.2917201e+11 1.2334009e+11 1.7783764e+11 1.5425515e+11 2.117713e+11
1.9717161e+11 5.146778e+10 4.266697e+10 7.2667293e+11 6.897819e+11 4.11095e+10 1.31271475e+11 1.5631439e+11
9.6238594e+11 3.7459103e+11 1.7739897e+11 1.3423005e+11 1.396684e+11 2.582048e+11 3.5878868e+12 1.5633191e+12
1.3833635e+11 1.3723488e+11 2.6134934e+10 7.113784e+11 4.277395e+12 6.774234e+11 1.7378627e+11 5.909629e+11

exp_avg f4 [32, 32]
00000000: bcac 0f44 7768 09ba a978 b6c2 d948 e83f
00000010: 82fe b03a 8f77 2fc0 f424 6dc3 6ae3 10c7
00000020: 031a 9c44 089c 5c40 271d 1839 d3f4 74c4
00000030: 4b59 84c5 1b3c 41ba c47f a13f 6e49 7742
00000040: 9ca6 eec5 db65 bd41 fc13 91c2 6c71 8bbe
00000050: 5883 5140 88e0 9741 ef49 8cc7 7224 32c6
00000060: 50f0 ac3a 7f4b e237 a825 38ba 87ec aec5
00000070: 379a 65c6 e524 d1c1 bc85 71c1 1723 2bc5
00000080: 1517 2ac6 5190 6744 635a 4e47 6ffe 9d44
00000090: 98fe 6cc6 95f4 be47 e941 25c5 95f9 1246
000000a0: 318f 4547 3238 05c3 c6cf 6bc2 0536 9e46
000000b0: 10a3 8844 393f 7746 63cc d546 3be5 0045
000000c0: 890f 1946 97f4 8443 0b23 2547 8b03 0ec6
000000d0: c224 af44 ac0d 3fc6 3ca5 5347 2d08 84c6
000000e0: 186a 0ec6 c508 8845 f80c 9147 18d9 43c5
000000f0: af77 31c6 4af0 2ac6 68c5 91c6 7d66 a1c2
00000100: 2333 00c7 c1a9 6645 15a9 ecc3 5a51 60c2
00000110: 235b bbc5 0d9e f544 3ea0 68c5 40ef 1cc8
00000120: 6906 19c4 c81d c040 3628 e940 a2c3 c0c6
00000130: ccff dd46 8247 ecc4 2485 22c4 82eb ddc5
00000140: 2b75 72c7 1c14 8545 a887 c446 c8ed 41c2
00000150: 38fb fcc4 000d 8ac5 d913 4dc8 d561 10c8
00000160: 6303 dac3 cd47 2bc1 f473 7db7 5db2 6ec7
00000170: 9bf5 31c8 03ca ff46 8196 1a44 9285 3347
00000180: d5ab 3cc7 ab57 c544 4ed7 15c6 9aff 0cc4
00000190: 0400 e8c6 336b 19c7 cafd 79c5 9261 05c6
000001a0: e508 2bc7 ab1b 4244 1b9c fa43 9b94 dcc6
000001b0: 3322 d743 4c22 68c6 8944 97c6 726a 8ec5
000001c0: 4369 da45 d87b 92c6 6088 bac7 ab27 9ec6
000001d0: 79f6 6ec6 d787 83c7 3832 7a45 5640 93c7
000001e0: 7bc9 90c6 0e12 0ac6 ebdf c7c6 d986 60c7
000001f0: 71db c7c7 e172 d8c7 c388 5fc7 bf52 10c7
00000200: 9326 4946 384a 9e43 fe1a c145 96cd 1a3c
00000210: c82c c042 88c2 cf42 745b 8943 25a5 fd46
00000220: ad61 dc45 732c 52bf da65 0641 40aa b345
00000230: 6004 1445 4f96 ec3c d7d7 dac2 352d 6641
00000240: 4b8d 71c7 525b 6243 58bb 3f43 b8b0 b942
00000250: e9e6 9440 c8aa 03c0 080b 8847 f3e5 4346
00000260: 72b0 033e cef3 3bb9 6868 1fb9 c9bf 4f46
00000270: fe73 b447 582a d1c4 fec6 1e45 b1c5 5545
00000280: 7ad6 5ec5 2bba b7c3 7c7e 32c4 2186 fa40
00000290: e6fa 29c1 7d48 6641 585d 40c0 8feb 02c6
000002a0: 2c10 bcc2 c8f4 733a b7ce d741 8315 88c5
000002b0: 4a55 05c6 669a 28ba 8cdd 7cb9 f26f 1cc2
000002c0: 98e6 1ac7 7b18 0cc5 ec91 0dc2 341f 3bba
000002d0: 2c7f 5841 687e 15c3 8d55 cbc6 db3c abc6
000002e0: c90a 2fc2 6921 b937 bb66 acb9 3ca7 b6c5
000002f0: 4d6a 83c6 357e 7ec5 d8ff 90c3 e0d0 0ac6
00000300: f96f 29c6 e2b0 0d45 55f1 09c7 2085 9d43
00000310: 5ff6 d2c5 cbbe 28c7 d266 ddc4 a2a8 1043
00000320: f53c 01c7 4c7f 0444 0a0e 3c44 0cc2 09c6
00000330: 7083 ef44 27bb 4fc5 1f1a 3bc6 ad2e 2444
00000340: f469 90c5 22e3 9bc5 d99b bec6 770c e3c5
00000350: c432 4cc5 3131 d4c5 9184 fbc6 94c2 fcc4
00000360: dd9b b6c5 745a f7c4 5d8b 37c7 f66c d1c6
00000370: 777d 86c6 8e60 5dc6 0af6 54c6 9f1b c8c4
00000380: 8d0a 62c7 208b 7348 a32f b2c7 65e6 1bc5
00000390: 8a44 99c6 7710 77c7 0c70 34c5 0c7d cdc7
000003a0: 7f02 e5c7 4f56 cd47 e9a9 c7c4 89c6 d944
000003b0: 0810 8e46 783c 8247 91a6 0348 ae3f af46
000003c0: 0f20 f8c7 c8b4 3946 f002 8bc7 be5b 8cc6
000003d0: c417 84c5 9fae 09c7 c69a 6ec8 90f6 adc8
000003e0: cd95 7ac6 e248 53c4 82c0 bbc7 69b3 68c7
000003f0: 56a7 bdc8 65a5 a6c7 8fca 18c7 ae34 2fc7
574.699 -0.0005241702 -91.235664 1.8147231 0.0013503584 -2.7416723 -237.14435 -37091.414
1248.8129 3.4470234 0.0001450671 -979.8254 -4235.1616 -0.0007371322 1.2617116 61.82171
-7636.826 23.674734 -72.53903 -0.27234972 3.2736416 18.984634 -71827.87 -11401.111
0.0013194177 2.6976455e-05 -0.0007024654 -5597.566 -14694.554 -26.143015 -15.09515 -2738.193
-10885.7705 926.25494 52826.387 1263.951 -15167.648 97769.164 -2644.1194 9406.3955
50575.19 -133.21951 -58.952904 20251.01 1093.0957 15823.806 27366.193 2062.327
9795.884 265.91086 42275.043 -9088.886 1401.1487 -12227.418 54181.234 -16900.088
-9114.523 4353.096 74265.94 -3133.5684 -11357.921 -10940.072 -18658.703 -80.70017
-32819.137 3690.6096 -473.32095 -56.079445 -5995.392 1964.9391 -3722.0151 -160701.0
-612.10016 6.0036354 7.2861586 -24673.816 28415.898 -1890.2346 -650.0803 -7101.4385
-62069.168 4258.5137 25155.828 -48.48221 -2023.8506 -4417.625 -209999.39 -147847.33
-436.02646 -10.7050295 -1.5106973e-05 -61106.363 -182230.42 32741.006 618.3516 45957.57
-48299.832 1578.7396 -9589.826 -563.9938 -29696.008 -39275.2 -3999.8618 -8536.393
-43784.895 776.4323 501.21957 -28234.303 430.26718 -14856.574 -19362.268 -4557.3057
6989.1577 -18749.922 -95504.75 -20243.834 -15293.618 -67343.68 4003.1387 -75392.67
-18532.74 -8836.514 -25583.959 -57478.848 -102326.88 -110821.76 -57224.76 -36946.746
12873.644 316.57983 6179.374 0.00944843 96.08746 103.879944 274.71448 32466.572
7052.2095 -0.82099074 8.399866 5749.2812 2368.2734 0.028880266 -109.42156 14.386037
-61837.293 226.35672 191.73181 92.84515 4.6531873 -2.0572987 69654.06 12537.487
0.12860277 -0.00017924534 -0.00015202316 13295.946 92391.984 -1673.3232 2540.437 3420.3557
-3565.4048 -367.45444 -713.9763 7.828873 -10.6237545 14.392697 -3.0056973 -8378.89
-94.031586 0.00093061896 26.975935 -4354.689 -8533.322 -0.00064316986 -0.00024115125 -39.10932
-39654.594 -2241.53 -35.3925 -0.00071381335 13.531048 -149.49377 -26026.775 -21918.428
-43.760532 2.2069276e-05 -0.00032882937 -5844.9043 -16821.15 -4071.888 -289.99878 -8884.219
-10843.993 2267.0552 -35313.332 315.04004 -6750.7964 -43198.793 -1771.2131 144.65872
-33084.957 529.989 752.21936 -8816.512 1916.1074 -3323.697 -11974.53 656.7293
-4621.244 -4988.3916 -24397.924 -7265.558 -3267.1729 -6790.149 -32194.283 -2022.0806
-5843.483 -1978.8267 -46987.363 -26806.48 -17214.732 -14168.139 -13629.51 -1600.8632
-57866.55 249388.5 -91231.27 -2494.3997 -19618.27 -63248.465 -2887.003 -105210.09
-117252.99 105132.62 -1597.3097 1742.2042 18184.016 66680.94 134810.27 22431.84
-127040.12 11885.195 -71173.875 -17965.871 -4226.9707 -35246.62 -244331.1 -356276.5
-16037.45 -845.1388 -96129.016 -59571.41 -388410.7 -85322.79 -39114.56 -44852.68
