quadrotor/data/pre_train/32_32_best.pt (torch, 38306 bytes, 18 tensors)

layers.0.weight f4 [32, 24]
00000000: f907 07bd efe7 543c ac5e 21bd 5356 42bd
00000010: 0485 c6bd 05c2 013c 06d5 78bc 6149 29bc
00000020: 76f8 bbbd d639 c6bc a31c 21bd b7c4 89bc
00000030: 3720 abbc 0ff2 fabc 2fca 973d 2f5a 743d
00000040: b6b9 073a 4aa3 c7bc 287f 743e d4ef ccbc
00000050: 9871 673e 5ef8 1abe 0722 52bc 56fb cebc
00000060: 48a0 55bd 185f 733f 2e25 673f 8a43 203f
00000070: b3f8 1f3d e7db 7a3e 3d59 1fbf 58b0 0cbf
00000080: 65f6 db3d 7116 383c 4f36 b8bd 264d c2be
00000090: b359 593e 7c47 29be e85a 0e3e d265 53c0
000000a0: ba73 36c0 3cbd 0fbf 1480 223f 8e16 c2be
000000b0: 676c c6c0 4fb3 d83f c8a6 d6bf 0aac 54bf
000000c0: d7ac 813f 41b3 ab3d 9df9 a9bf 9500 3a3f
000000d0: 23d7 3c3e a8c5 c1be 5b91 b3be 7d31 9a3d
000000e0: d53a d53c a48d bfbf 978a 10be bde8 1540
000000f0: 6efa 9c3d a1b1 c43d a021 37bc 4810 78bf
00000100: 6e33 113f 89cf bbbf 0e5b 34c1 9035 99be
00000110: 434b 7541 aa25 723f 32c4 be3e edea 65bf
00000120: 6b96 c5bc 715e e4bc 01e4 fdbc dfa0 05bc
00000130: 4bb5 e5bc 97e7 fabc 4cb6 fdbc bc14 febc
00000140: efb4 fa3c 48c4 00bd c4ed f63c 1ff1 00bd
00000150: 6d29 01bd d16a 01bd 01a2 e8bc d0ad 60bc
00000160: 6963 babb 1aca f1bc fabe 49ba aed8 f1bc
00000170: 46ce fc3b 6059 7e3c ce90 5fbb 31c5 f1bc
00000180: 5e32 3c3b 2c2c eb3c f380 8fbc 2c03 e3bc
00000190: 1fe0 c3bc f537 14bd 5962 e0bc d104 91bc
000001a0: f93b 133d 1c26 9dbc 53e3 7c38 19c5 8fbc
000001b0: be4d 96bc 35e4 96bc b62e f9bc 755a 343c
000001c0: 5a8b 253d d1b5 96bc b481 2b3d 5594 96bc
000001d0: d88e 0cbd 76df f13c c497 55bc 3001 96bc
000001e0: 5212 b9bf 6920 083e 82ca 1c3f 9ff1 1bbf
000001f0: 2721 bdbd 6096 813e aafe c13f 4ac4 eebd
00000200: ef73 c4bf 3187 d7be 1aeb d33d c40b b7bd
00000210: 1145 47be 4f99 0dbe 1192 79be 9126 51c0
00000220: d01b 8541 e9d9 40be e15e 0b40 8e52 d2be
00000230: 70b4 fc3f 7fd7 63c0 a637 e23d 2c6f 0fbe
00000240: be95 1880 ea1a 2280 44db 1693 a8ec 1980
00000250: cb48 1980 0235 1e80 04e1 3880 6c71 1d80
00000260: eb9c 0c00 60e4 1c80 e934 3400 74cb 2280
00000270: 315a 1d80 0fd5 1f80 8c58 1f80 8e31 1780
00000280: b9aa 1a80 8a64 2080 51ce 1e00 aaf0 2080
00000290: f6ab 1c00 20d8 3880 4523 2a80 2330 1e80
000002a0: 887d c73f 3e91 a7bf 80fc 8ebf f5fb 523f
000002b0: b62d 0cbf b9c6 65be 803f 29c0 1de3 5e3f
000002c0: 19d3 b63f 271c ad3d 2684 c4bd a027 583e
000002d0: 70a4 553e 48eb 03bc 85f5 3bbe 0a54 8840
000002e0: dfea 02c1 ccab 843f bd86 54bf 544a d73e
000002f0: bb97 983f cc01 ffbf 4599 0f3f ef8b 193f
00000300: 0339 3cb9 36f3 b0ba fe20 19bd eed8 2f00
00000310: c8f9 853a 932d c1bb 4841 c6bb 545e 4fbc
00000320: 156c 023b c2ef a6bc 7d2e e8ba 4898 a2bc
00000330: 55cc d5bc 79ed cbbc c9e2 a136 a5f4 0d17
00000340: 3970 1e2f 0b85 bbb9 a3f4 d794 6223 d0b9
00000350: 2939 0398 8a2e 8f8a eb7e 3200 6d55 d4b9
00000360: b60f eabc c1d7 e9bc c40b eabc 6fe3 e9bc
00000370: 61f4 e9bc 99c1 e9bc 98a7 e9bc 7fc9 e9bc
00000380: 73f8 e93c 5103 eabc 5aab 0d3d e409 eabc
00000390: 5110 eabc ab13 eabc 7ec4 e93c a92d e1bc
000003a0: e6cf 0cbd e7a1 e9bc 9c88 0a3d 0ba3 e9bc
000003b0: d304 e33c 8f07 e43c 1693 e1bc 9fa3 e9bc
000003c0: 4e41 bf3f 40ca ab3f 5fd1 62bf 44eb 79bf
000003d0: d998 b7be 5cf6 b3bc fa2d 9a3e 3ef7 88bd
000003e0: 3e8a 4ebd 0205 51bf 60eb d4bd a869 a83e
000003f0: 99fd f63e c962 563e 3f49 1abe a2c9 2ebd
-0.032966588 0.01299475 -0.039396927 -0.047445606 -0.096933395 0.007919793 -0.0151875075 -0.010332436
-0.091782495 -0.0241975 -0.03933395 -0.016817434 -0.020889385 -0.030633 0.0741161 0.05965632
0.00051775144 -0.024369854 0.23876631 -0.025016703 0.22601926 -0.15133807 -0.012825496 -0.02526633
-0.05215481 0.95066977 0.90291107 0.62603056 0.039055537 0.24497949 -0.6224554 -0.5495658
0.107403554 0.011235819 -0.089947335 -0.37949485 0.21225624 -0.16531175 0.13901865 -3.3030896
-2.8508134 -0.56148124 0.6347668 -0.37907833 -6.2007327 1.6929721 -1.6769648 -0.8307501
1.0130872 0.08383799 -1.3279301 0.7265714 0.18441443 -0.37846112 -0.35071835 0.075289704
0.02602903 -1.49651 -0.14115368 2.3423302 0.07664953 0.096041925 -0.01117745 -0.96899843
0.567191 -1.467271 -11.27223 -0.29923677 15.330874 0.9458872 0.3725906 -0.89811593
-0.024119576 -0.027877064 -0.03099251 -0.00815603 -0.028040549 -0.030628009 -0.030970715 -0.031015746
0.030603854 -0.03143719 0.030142672 -0.03147995 -0.031533647 -0.03159601 -0.028397562 -0.013713315
-0.00568812 -0.029515315 -0.0007695999 -0.029522266 0.0077150194 0.015524238 -0.003411341 -0.029512974
0.0028716545 0.028707586 -0.017517542 -0.027711473 -0.02391058 -0.036186177 -0.027390646 -0.017702492
0.035945866 -0.019183211 6.0293194e-05 -0.017550038 -0.018347617 -0.018419364 -0.030417781 0.011007895
0.0404161 -0.018397244 0.04187174 -0.018381277 -0.034315914 0.0295255 -0.013036672 -0.018311113
-1.4458716 0.13293613 0.612465 -0.6091556 -0.09234839 0.2531004 1.5155842 -0.11658533
-1.534788 -0.4209533 0.103475764 -0.08937791 -0.1945994 -0.13828014 -0.24372126 -3.267979
16.63858 -0.18833126 2.177666 -0.4107861 1.9742565 -3.5600278 0.1104577 -0.14007252
-2.257769e-39 -3.132062e-39 -1.9040768e-27 -2.380784e-39 -2.322e-39 -2.77408e-39 -5.223508e-39 -2.703917e-39
1.158318e-39 -2.65332e-39 4.794426e-39 -3.195392e-39 -2.695584e-39 -2.923331e-39 -2.878665e-39 -2.129993e-39
-2.448967e-39 -2.974802e-39 2.829077e-39 -3.02507e-39 2.633082e-39 -5.220319e-39 -3.869743e-39 -2.772333e-39
1.5585184 -1.3091199 -1.1170807 0.82415706 -0.5475725 -0.22439088 -2.6445007 0.870653
1.4283172 0.08452635 -0.09595518 0.21108866 0.20863509 -0.008051701 -0.18355377 4.2602587
-8.182342 1.0364928 -0.83018094 0.42048895 1.1921304 -1.9922423 0.56093246 0.59979147
-0.00017950316 -0.0013500217 -0.03738498 4.394088e-39 0.0010221535 -0.0058953254 -0.0060502626 -0.012656767
0.0019900848 -0.020377997 -0.001771405 -0.019848004 -0.02609841 -0.02489351 4.824575e-06 4.586834e-25
1.4409886e-10 -0.00035766544 -2.1805944e-26 -0.00039699214 -1.6960212e-24 -1.3787905e-32 4.637304e-39 -0.00040499438
-0.028571945 -0.028545262 -0.028570063 -0.028550832 -0.028558912 -0.028534697 -0.028522298 -0.028538464
0.028560853 -0.028566035 0.03458724 -0.02856917 -0.028572233 -0.028573832 0.028536078 -0.027487593
-0.034377955 -0.028519584 0.033821687 -0.028520128 0.027712261 0.027835635 -0.027535956 -0.028520403
1.4941804 1.3421097 -0.88600725 -0.9762461 -0.358588 -0.02196806 0.30113202 -0.06687783
-0.050424807 -0.81648266 -0.10396457 0.3289311 0.48240355 0.20936121 -0.15067004 -0.04267276

layers.0.bias f4 [32]
00000000: 358c cabc a8d7 15bf c0da aabf a0df f1bc
00000010: 5b9f 96bc 1d90 0abe 8a04 1e80 0106 313f
00000020: 1416 d9b9 48a4 e9bc b4bf d3bf 5cd3 5b3f
00000030: b9b4 083f b95b 3980 0519 d8bf 43d6 6abc
00000040: 6e06 c6bf c8b8 72bc 92b7 8a3f 7695 28bc
00000050: df47 29bd 32a0 12bd 43ba 2cbd 8c5c c2be
00000060: de20 9f3e bd16 a33d 3e8c 3c80 522f dbbc
00000070: a628 acbd c4ac 8c40 ba36 163f 0be9 013c
-0.024725059 -0.5853219 -1.3348007 -0.029525578 -0.018386533 -0.13531537 -2.756693e-39 0.69149786
-0.00041405915 -0.028520718 -1.6542878 0.85869384 0.5340076 -5.267527e-39 -1.6882635 -0.014333311
-1.5470712 -0.014814563 1.0837271 -0.0102895405 -0.041328307 -0.035797305 -0.04216982 -0.37961233
0.31079763 0.07963321 -5.560439e-39 -0.026755963 -0.084061906 4.3960896 0.58677256 0.007929097

layers.2.weight f4 [32, 32]
00000000: 9839 593d a2cc 99be d2e1 353f a716 4300
00000010: 8fb4 763d 2e8b 00be 7c9e 1e80 f332 213d
00000020: 984e 1c00 c07f 6b81 66d0 393e f734 07bf
00000030: 7b88 b83e d8d1 092e 67e5 d53d e47c acbc
00000040: 0d17 a83e 385c f73c 77ad efbe af6a 3a3c
00000050: 95b1 9abc 66ea 1f80 d224 c30e 83a3 28bf
00000060: dbf4 98be 822c 433d 1b23 1e00 86f3 683c
00000070: 6e32 dc3e 279c 3fbe 8431 3e3c ced6 3a3d
00000080: d785 123d c622 3abe e018 103d e43d 3a00
00000090: c2d9 ecbc 0a10 153f e8da 1d80 8895 8ebd
000000a0: 51ae 1580 6d0c 3800 dce8 093d e6db 88bd
000000b0: db86 b53e 5bc5 1b00 d5c4 163b f6dd 723d
000000c0: c53f bbbf cab1 593d e311 d2bf d568 c1b9
000000d0: 059f 70bc 1872 ed80 6c04 558b f8d9 dcbd
000000e0: 4f2c 8ebd bd7e e9bd 6c66 2880 17e6 f5bb
000000f0: e352 07c1 546c 313e 3a95 c83e 2d3e 033a
00000100: 5d0f 643d 9dee 13c0 45d6 a4bf 3392 3b00
00000110: a78c 3b00 f280 99bf 83fd 2a80 4814 66c0
00000120: e420 3d80 7394 e2bc d021 8a3f 24b2 0680
00000130: 9f75 3d00 ea87 8002 474d 90c0 2b87 fbbc
00000140: 4c10 2dc0 1e9f 07bd c474 403b 59a2 2300
00000150: a442 d9bc 07a0 3780 b5ca 2480 c1a4 113f
00000160: 7de1 b33c 326c acbf 9a96 3900 17e5 3900
00000170: c830 0ac0 27c1 ebbf ad58 ee3e 7029 3b3d
00000180: 0b2f 8ebb 5282 643e 0e46 9fbe ce16 2100
00000190: 9cc8 d63a 1220 51bc 8324 1900 4f6e 0abe
000001a0: e669 0a00 d225 eabc be46 803e 15db df3d
000001b0: d2f4 003d 8c0f d304 7257 cd3d 9bd7 fb3c
000001c0: e55d 89be 8c6d c3ba f2b9 d2bd f73f 4b3b
000001d0: 8843 233e c610 29bd d147 0e3d 9e7e 05be
000001e0: a525 b8bc 8689 9abd 254b 3c80 01bd 073d
000001f0: 9509 09bd a3e3 8dbd d564 313e 3a50 56bc
00000200: 5e93 27bd 5e2a ddbe 276e fa3d ee9a 3180
00000210: e088 3780 9f40 4e3e 8de6 2180 a68c 45be
00000220: ff25 2780 df60 2000 ace3 8ebf ddbc d73d
00000230: 732f 313e 010c 2880 7b71 5bbe c7fc a73d
00000240: 3a60 823e 5386 973d 3f9a 1f3f 0293 3c80
00000250: 6923 f33d dd1c 02bd f7aa 0700 ce5b 8fc0
00000260: cfd3 e1bc 3e51 1dbf b746 3080 603a 7802
00000270: f5a8 c5bf 7481 dabe 0624 2e3f 2ea9 f5bc
00000280: fd0a 8d3d 458f 13be bee0 81bd 1fe0 3880
00000290: 302d 1700 b7c0 633f 4938 2700 e8ce 6d3f
000002a0: f3e0 2800 c23a 4b00 d8cd 373e 7105 a3bf
000002b0: 2439 51bf 960d 1f80 9baf c4bf fe10 32bd
000002c0: 7671 ecbf 4d54 52bd ce13 71bf f2fb 2080
000002d0: ec89 cdbd 61d1 0e82 006c 2380 282d 19bf
000002e0: 32eb 10be 6c5c 08c1 f1d5 2100 5cd5 08bd
000002f0: f2b9 33be 532a d3c0 0a3b c6bf e78c 01bd
00000300: c477 cbbd aabf 453d d3c2 aebc 0d89 3c80
00000310: c001 4280 a0a7 8fbd 07d8 3d80 1147 8fbe
00000320: 6e1c 3f00 0327 0f3d 113c bcbf 3751 913e
00000330: 2966 293e 3034 2780 0f8b 36be db15 203d
00000340: bd70 b23d 5cb9 e83c 9ea9 9e3d 27d3 1cbd
00000350: b539 8cbc c23e 20bd 0222 913b 3754 553b
00000360: 7e53 d83e 8e14 163e f70a 4080 324c 59bc
00000370: 984a dcc0 949c 5cbf ad57 1ebd 3f98 e6bd
00000380: d1dc a43b ef22 9b3e fcac 42be c7e4 3e80
00000390: b4d7 bd3c fed4 7a3d 9210 1c80 1ea7 a13d
000003a0: 0047 0480 6cf9 e4bc cf1b b8be c565 bcbe
000003b0: 79e0 5b3d b064 2780 0786 873d 8660 b43d
000003c0: a3d6 843e e595 e23d 7156 9e3d 77f8 5ebd
000003d0: a8bd 223d 2c88 89bb 9e14 65bc cb49 993e
000003e0: 90bc 94be 3c3e 173e b525 0500 9c1e 63bc
000003f0: 19c0 07c0 a6a4 4abd ec50 14bf 266f b1bd
0.05303344 -0.30038935 0.710477 6.161104e-39 0.060230788 -0.12553093 -2.811918e-39 0.03935523
2.599588e-39 -4.325434e-38 0.18145904 -0.5281519 0.36041626 3.1336572e-11 0.10444146 -0.021055646
0.32830086 0.03019534 -0.4681203 0.011377974 -0.018883506 -2.930987e-39 4.8106668e-30 -0.658745
-0.2987431 0.047649868 2.767658e-39 0.014218217 0.43007225 -0.18711911 0.011608485 0.04561501
0.03577217 -0.18177328 0.035179973 5.348661e-39 -0.028912429 0.582276 -2.741758e-39 -0.069621146
-1.991078e-39 5.147245e-39 0.033669338 -0.06682567 0.3545445 2.550356e-39 0.0023005505 0.05929371
-1.4628836 0.05314807 -1.6411709 -0.00036889935 -0.014686351 -2.1805942e-38 -4.1025634e-32 -0.10783762
-0.06942045 -0.114011265 -3.710162e-39 -0.0075042355 -8.457736 0.1732648 0.3917635 0.00050065183
0.055678714 -2.3114388 -1.287789 5.47074e-39 5.468751e-39 -1.1992476 -3.948034e-39 -3.5949879
-5.613764e-39 -0.027658677 1.0791569 -6.14918e-40 5.64416e-39 1.888592e-37 -4.5094333 -0.030704102
-2.7041197 -0.03311073 0.0029366473 3.272482e-39 -0.026521035 -5.108359e-39 -3.378795e-39 0.5689202
0.021958107 -1.3470519 5.288649e-39 5.316805e-39 -2.1592274 -1.841832 0.4655203 0.045693815
-0.004339104 0.22315338 -0.31108135 3.038752e-39 0.001638669 -0.012763994 2.308985e-39 -0.13518642
9.56344e-40 -0.028582487 0.25053972 0.109304585 0.03148348 4.962014e-36 0.100264445 0.030742457
-0.26829448 -0.0014909967 -0.102893725 0.0031013468 0.1594373 -0.041275762 0.03473646 -0.13036582
-0.022478888 -0.07545762 -5.537087e-39 0.033139233 -0.033456404 -0.06928184 0.1732362 -0.013080651
-0.040912025 -0.43196386 0.12228041 -4.555518e-39 -5.100054e-39 0.20141838 -3.113277e-39 -0.19291934
-3.595215e-39 2.973487e-39 -1.116323 0.1053407 0.17303257 -3.677726e-39 -0.21430008 0.0820251
0.2546404 0.07398667 0.62344736 -5.562866e-39 0.11871988 -0.031765807 7.04179e-40 -4.4799566
-0.027566819 -0.6145209 -4.433472e-39 1.8236915e-37 -1.5442187 -0.4267689 0.6802372 -0.029987898
0.068868615 -0.14410122 -0.06341694 -5.223187e-39 2.128427e-39 0.88965935 3.601776e-39 0.9289384
3.754116e-39 6.90874e-39 0.17949617 -1.2736036 -0.81727815 -2.851774e-39 -1.536609 -0.043473236
-1.8472126 -0.051349927 -0.94170845 -3.029117e-39 -0.10036072 -1.0492601e-37 -3.252985e-39 -0.5983453
-0.1415222 -8.522564 3.107319e-39 -0.0334066 -0.17551401 -6.5989165 -1.5486767 -0.031628516
-0.09934953 0.04827849 -0.021333134 -5.559294e-39 -6.06177e-39 -0.07014394 -5.679461e-39 -0.27983907
5.795835e-39 0.034949314 -1.4705831 0.28382275 0.16542877 -3.600306e-39 -0.17826484 0.039083343
0.08712909 0.028408699 0.07747196 -0.038287308 -0.01711736 -0.03912235 0.004429103 0.0032551417
0.422512 0.14656278 -5.881405e-39 -0.013262795 -6.8841057 -0.8617642 -0.038657833 -0.112595074
0.005031206 0.3030009 -0.19011301 -5.77587e-39 0.023174144 0.06123828 -2.577338e-39 0.07893203
-3.92812e-40 -0.027950965 -0.35958716 -0.36796394 0.05368087 -3.617704e-39 0.066173606 0.08807473
0.25945005 0.11063746 0.07731331 -0.054436173 0.03973165 -0.004197141 -0.013981966 0.29939112
-0.29050112 0.14769834 4.72704e-40 -0.013862278 -2.1210997 -0.049473427 -0.57935977 -0.08663778

layers.2.bias f4 [32]
00000000: 2abe 38c0 1fa2 fabe 1a6a 43bf a44b e63d
00000010: ad10 29bf 9c5b a63f e9ed 2bbf 8332 83bf
00000020: 08a1 0e3f b0b4 e83e 6d8b 11bd ca96 7e40
00000030: 7382 21c0 1d47 4bbd 8cf0 40c0 fca9 b43e
00000040: 92bd 873e 512e b9c0 c233 bdbf bb71 02be
00000050: e74b 1d3f ca35 4bc1 f7af aabf 7562 2dc0
00000060: c699 d4bf 63ba f1be d970 d43f 0101 823f
00000070: 526f 4dc0 fd62 16bf 1fce 673f 2f02 2ebf
-2.8866067 -0.48951814 -0.76333773 0.11244896 -0.6604107 1.2996707 -0.671599 -1.024979
0.55714464 0.45450354 -0.035533357 3.9779534 -2.523587 -0.049628366 -3.0146818 0.35285938
0.26511818 -5.786904 -1.478142 -0.12738697 0.6144394 -12.700632 -1.333495 -2.7091343
-1.6609428 -0.47212514 1.6596938 1.0156556 -3.2099195 -0.58744794 0.9054889 -0.6797208

layers.4.weight f4 [21, 32]
00000000: c2c0 0a3d 7688 47bf 4a24 583e 600e ae3e
00000010: 0cc7 60be 2942 47bd 6abf f53d f6da 053d
00000020: a05a 46bd d270 12be 7222 8ebe 8ebe a1be
00000030: 1773 733c 153a 0fbf d8c7 51be 1277 b93c
00000040: eaa1 773d 8f4c 623f cf53 52be c7b2 083f
00000050: da8f 32be fc22 0ebe a56c 90be 7a65 323e
00000060: d898 073c 633b 32bb 94a6 703f cf8a 9ebc
00000070: 5558 593d 1d57 493d b990 a2be 9c0e 0e3d
00000080: 5e9d c23c e59b f13e 0550 b63e 3c7a 31bd
00000090: a73e b03b be1e b83c 6e2e 7ebd 7de9 ddbe
000000a0: c425 a73c 378c 06bd a057 cc3e 01ca 64be
000000b0: e6d6 443e ba01 da3e a49a a93c 5e8d da3d
000000c0: 640e 753e 4af1 6cbf 4260 57bd e55f 1abe
000000d0: 7fa3 1f3e dd34 143f 3801 be3e 7a64 983d
000000e0: 680f bf3c 53c9 943d bb00 5dbf 015e bb3e
000000f0: 897f eebc 3788 d9be 819a 8b3e c4eb ba3e
00000100: 8225 fa3c f970 4abe b852 35bf 91e3 a2be
00000110: e12f 8c3f dcf8 053f de18 87bf e8b1 e33d
00000120: d59e 51be c258 29bd 0ec7 563f 398a 70bf
00000130: d2a2 5f3e d8f6 1fbf 083a 8f3e d72f 283f
00000140: 805c cebc 7c11 b13e b6e7 e3bc 52cb 9d3e
00000150: a2c8 b2be 1002 da3d d708 37be 70b2 3bbf
00000160: a4ac 3cbe 2a35 16bd bb63 a53d ef47 a4bf
00000170: 6b13 953b ce15 fdbc fca2 65bf 60d4 113f
00000180: 5189 a03d 3fa4 033f d0c9 c8be 7595 f4bd
00000190: 7859 5a3f edda 833d 9641 a1be c3d6 f23e
000001a0: 8c04 67bf f9ca 8c3e 5c4e 853e 662a 8cbc
000001b0: befb 9cbe 487e 08bd 916f 043f f97c b73e
000001c0: c61c d9be 1753 6c3d dad8 af3e aad2 e6bd
000001d0: 5b5e aabd 2206 353e a952 91be 3de2 e8bd
000001e0: f224 a1be 54e8 973e f037 573d dcd0 aabd
000001f0: 2aa1 513e c7b1 543e b10f a23e 67ba a73c
00000200: a215 253d c93a adbe 25d2 64be b9f8 713d
00000210: 2e6d 273f 6d42 103e b77c a3bf b223 89bf
00000220: 6ff7 933e 2b17 0dbe ddb8 cebe c605 19bf
00000230: 466f aa3d 7f9a 503e 8a21 873e 3ae2 17bf
00000240: fd4f 8fbe 5d51 b1be e2cf 513e 416c 0e3e
00000250: 48a9 1cbe 2e3f 4dbb 89df a63c 64cc b4be
00000260: dd6b 143e 6d36 c0be c6ef 453f 2165 1d40
00000270: 178e f1bd 588c 2ebe e1d0 8cbf 1299 26be
00000280: 06bb c03e 390b bb3f 04c6 57bf c307 753f
00000290: b322 513f ac2c 28bf b1c4 4bbf 46ac 053e
000002a0: b47b 3ebf 72d2 18be 053f c53f 2794 083d
000002b0: c079 3b3e 5ff4 0cbf 1f53 26be e08e e33e
000002c0: 0ba7 163f e23e 90be 7e9d 273f 8672 e93e
000002d0: ec09 b1be a42d 893c bf8e bcbe 4b15 0a3f
000002e0: 9786 cc3e d40e b93f 011c bf3f 9657 9fbe
000002f0: a07f b5bb 3f4b 8abf 9870 e43f 2272 293f
00000300: 666c 7dbe 5d06 0f3e 6848 fe3e 0b77 f73e
00000310: 7eb4 1140 c109 1ebf 60ae f8be 868a 31bf
00000320: 7124 9ebf c6ee 963f 7d98 3a3e 62bd 6cbe
00000330: c554 253f db42 95bf 3db8 1240 397d 12be
00000340: 7dff 8e3e a877 043f 3c35 5e3f 03fa b1bf
00000350: 4968 b03f be67 233e 26ea 583f 7f5e 053e
00000360: f75c 86bd 5ebc 4f3f 8a9b 103f 559f 3bbf
00000370: 9fde 5fbe 0e01 6ebe 3645 d43f 76cc 423d
00000380: cea0 e33f a1eb ddbf 1adf b4c0 50aa e7be
00000390: 4792 82bf cd93 a83e 8442 09c0 cb3a 6bbe
000003a0: 41ea 1ac0 0637 0bbe 061c 653f e145 0cbf
000003b0: a5ba 9a3f febd bd3f 1f6e 9ebf 07aa bdbd
000003c0: e673 2ebf d9ac 393f c118 2d3e 00ce bebf
000003d0: fbbd 12c0 838e 9a3e a650 9dbf 362f 7ec0
000003e0: 659b 1c3f 5923 20bc 2bd2 843e 79c3 7cbf
000003f0: e550 92bd 3172 c83e 9222 55c0 ef61 b8be
0.033875234 -0.779426 0.21107593 0.33995342 -0.2195093 -0.04864708 0.119994 0.03267952
-0.04842627 -0.1430085 -0.27760655 -0.31590694 0.0148589825 -0.55948 -0.2048639 0.022639785
0.060457148 0.8839807 -0.20539783 0.5339779 -0.17437688 -0.13880533 -0.2820789 0.17421523
0.008276187 -0.0027196042 0.9400418 -0.019353298 0.053062756 0.049155343 -0.3175104 0.0346819
0.02375668 0.4718925 0.35607925 -0.043329462 0.0053785625 0.022475597 -0.062055998 -0.433422
0.02040375 -0.032848563 0.39910603 -0.22342683 0.19222602 0.42579442 0.020703621 0.10671495
0.23931271 -0.9255568 -0.052582033 -0.15075643 0.15589713 0.5789316 0.37110305 0.074410394
0.023322776 0.07264962 -0.8632924 0.36595157 -0.029113548 -0.42486736 0.27266315 0.36508
0.030535463 -0.19769658 -0.70829344 -0.31814244 1.0952111 0.52332854 -1.0554464 0.11117917
-0.20470746 -0.04134441 0.83897483 -0.9396091 0.21839455 -0.6248603 0.27973962 0.65698
-0.025190592 0.34583652 -0.02782045 0.30819184 -0.34918696 0.10644925 -0.17874466 -0.7331915
-0.18425232 -0.036671795 0.08075663 -1.2834452 0.004549434 -0.030894186 -0.8970182 0.56964684
0.07838691 0.51422495 -0.3921647 -0.11942569 0.8529277 0.06438241 -0.3149535 0.47429475
-0.90241313 0.27498606 0.26036346 -0.01711006 -0.30660814 -0.033323556 0.51732737 0.35837534
-0.42404765 0.05769643 0.34345132 -0.1127065 -0.08318778 0.1767812 -0.28383377 -0.113712765
-0.314735 0.2966944 0.05254358 -0.08340618 0.20471635 0.20770942 0.31652597 0.020474626
0.040303834 -0.33833912 -0.22345789 0.05907509 0.6540097 0.1408784 -1.2772435 -1.0714018
0.28899714 -0.13778369 -0.40375414 -0.59774435 0.08322005 0.20371436 0.26392776 -0.5932957
-0.27990714 -0.34632388 0.20489457 0.13908483 -0.1529895 -0.0031318176 0.020370262 -0.35312188
0.14494272 -0.37541524 0.7731899 2.4592974 -0.117946796 -0.17045724 -1.1001245 -0.16269329
0.37642688 1.46128 -0.8428652 0.9571497 0.8169357 -0.65693164 -0.79597 0.13053998
-0.74407506 -0.14924029 1.5409857 0.033344414 0.18308163 -0.5506038 -0.16242646 0.44444942
0.5884864 -0.28172976 0.6547469 0.45595187 -0.34577882 0.016745396 -0.36827657 0.5393874
0.39946434 1.445765 1.4930421 -0.3112151 -0.0055388957 -1.0804213 1.7846861 0.6618978
-0.24748382 0.13967271 0.49664617 0.4833301 2.2766414 -0.61733633 -0.48570538 -0.69351995
-1.2354871 1.1791618 0.18222232 -0.23119119 0.64582473 -1.1661028 2.292495 -0.14305581
0.27929297 0.5174508 0.8679998 -1.3904423 1.3781825 0.15957543 0.8473228 0.13024329
-0.065607004 0.811468 0.56487334 -0.73289996 -0.21862267 -0.2324259 1.6583622 0.04755827
1.7783449 -1.7337533 -5.652234 -0.45247126 -1.020089 0.32925263 -2.1446848 -0.22971646
-2.4205477 -0.13595209 0.89495885 -0.54794127 1.2088209 1.4823606 -1.2377356 -0.09260946
-0.68145597 0.7252937 0.16903974 -1.4906616 -2.2928455 0.30186853 -1.2290237 -3.9716315
0.61174613 -0.009774053 0.25941595 -0.9873577 -0.07144336 0.3914962 -3.330235 -0.36012217

layers.4.bias f4 [21]
00000000: 4917 89c0 3999 8ec0 31eb 0340 657d 90c0
00000010: 7edd b83f 7f39 71c0 1674 3dc0 b5d1 ed3f
00000020: 0644 2cbf c36b 64c0 159c 60c0 e200 6f40
00000030: f2b7 6540 478d c7c0 0329 6cc0 df3f f43f
00000040: 7cb0 d43f 5429 b8c0 90ab 9840 b87c 09bf
00000050: fce8 033e
-4.2840924 -4.456204 2.06123 -4.515307 1.4442594 -3.7691343 -2.9602103 1.8579623
-0.67291296 -3.5690773 -3.5095265 3.734429 3.5893521 -6.235996 -3.6900032 1.9081992
1.6616359 -5.755045 4.7709427 -0.5370593 0.12881845

exp_avg f4 [32, 24]
00000000: 2e3c 5db6 a369 ae35 b031 84b6 7b33 9fb6
00000010: 8fa0 22b7 6b98 5435 ddd7 cbb5 f7ad 8ab5
00000020: 44fc 19b7 f962 22b6 97fb 83b6 3bb8 e1b5
00000030: ac2f 0cb6 1493 4db6 43b1 f836 5f2c c836
00000040: 635f 5e33 138b 23b6 a94a c837 5ae2 27b6
00000050: 4099 bd37 30e7 7db7 0d24 acb5 358f 29b6
00000060: c654 1fc7 3ccb 08c7 76bb b0c7 9ee5 94c5
00000070: 407d 60c6 f3aa 7ac6 b02c 84c6 ddf7 0ac7
00000080: 06ec bc44 2e47 bdc7 3e84 1245 e006 bbc7
00000090: 61c1 d8c7 e9ee f6c7 d339 36c6 faef 4644
000000a0: e2b3 d2c4 ef96 2ac6 e370 84c4 e971 2bc6
000000b0: 653e 81c4 4b48 2fc4 95d8 0bc4 6e82 2ac6
000000c0: 8fc4 a747 2ea5 8847 3fd6 ee47 d830 a546
000000d0: 6210 1d47 526e 1446 5f90 d5c6 12df 3347
000000e0: 8d0f 80c5 edfd eb47 0328 06c7 a3ed e247
000000f0: b325 8747 fe46 8547 8ad9 2647 3cab 25c5
00000100: 2ef0 11c4 0d4d fc45 919a ce44 f183 e045
00000110: 75f1 1b44 4355 fdc4 4484 ba44 acd1 e145
00000120: 7317 22b6 5f34 3bb6 6b03 50b6 7478 5cb5
00000130: fb4b 3cb6 4f94 4db6 29de 4fb6 242b 50b6
00000140: 046b 4d36 8cfb 52b6 9356 4a36 9f44 53b6
00000150: 6ea0 53b6 fe0a 54b6 8fae 3eb6 c4d9 b8b5
00000160: c80b 1ab5 f225 46b6 667e a8b3 d431 46b6
00000170: f69b 5035 be20 d135 9043 b9b4 f021 46b6
00000180: bc2b 9a34 3ea7 4036 cd1d ebb5 eff7 39b6
00000190: 0c76 20b6 5dd7 72b6 c1d0 37b6 4899 edb5
000001a0: 833a 7136 7dbc 00b6 782a cf31 748d ebb5
000001b0: ea41 f6b5 7038 f7b5 5521 4cb6 dbbe 9335
000001c0: 2f9d 8736 6eec f6b5 927f 8c36 92b5 f6b5
000001d0: 594a 66b6 6824 4636 aff9 aeb5 7dc4 f5b5
000001e0: 0f70 a245 c4c7 cb44 2d93 ad46 bbdb ad46
000001f0: 0b63 8246 0fe3 5a47 cf62 e746 28f5 9c46
00000200: 52f2 08c6 6615 8147 c3d0 8545 0c5d 6e47
00000210: a664 e147 aa54 fc47 723a cac5 b93e a043
00000220: 8bc5 0245 d814 1746 7909 8244 1f43 1b46
00000230: 4285 5cc4 087e e441 402e d543 fd7e 1c46
00000240: a500 0080 e400 0080 80f9 c08c ae00 0080
00000250: aa00 0080 ca00 0080 7901 0080 c500 0080
00000260: 4f00 0000 c100 0080 5a01 0000 e800 0080
00000270: c400 0080 d500 0080 d100 0080 9c00 0080
00000280: b300 0080 d800 0080 ce00 0000 dc00 0080
00000290: c000 0000 7901 0080 1801 0080 ca00 0080
000002a0: f8ea 8ec5 4138 08c6 46db 2245 2592 4445
000002b0: 13bd 08c6 55f6 dd45 b7ba 3246 3874 7a45
000002c0: a3c7 24c5 0b22 8145 44c5 cb45 1309 a646
000002d0: 2e9b b546 f37a d446 17a4 b844 d5ad 2743
000002e0: fa50 1dc3 abea e944 7431 16c4 de38 e844
000002f0: 8930 2444 fd43 c344 1a38 38c2 c044 e344
00000300: 4912 9eb2 ce36 11b4 021e 7bb6 3601 0000
00000310: 31dd dc33 a496 1fb5 82f8 23b5 d5c7 aab5
00000320: 9a70 5834 511a 09b6 c0f7 40b4 a39c 05b6
00000330: 2d76 2fb6 3165 27b6 c342 0b30 56de ac10
00000340: 138b 9028 3044 1db3 1e70 848e 0575 2eb3
00000350: a03a 9b91 5fde 8284 4f01 0000 8cf4 31b3
00000360: 67be 3fb6 ba90 3fb6 17bb 3fb6 439a 3fb6
00000370: 1da8 3fb6 737e 3fb6 4569 3fb6 eb84 3fb6
00000380: 8aab 3f36 21b4 3fb6 bf1f 6836 84b9 3fb6
00000390: bebe 3fb6 7dc1 3fb6 fe80 3f36 0f80 38b6
000003a0: bdb9 66b6 c664 3fb6 e802 6336 b365 3fb6
000003b0: ca00 3a36 81d3 3a36 59d3 38b6 2b66 3fb6
000003c0: 0ab5 b846 1abf 8846 64b4 a145 a50d 9245
000003d0: 6f31 d6c4 9968 95c5 5896 3fc5 e3d8 14c5
000003e0: 4962 d0c2 7088 b8c4 8f62 9045 b977 bfc4
000003f0: d9fe a4c5 ea1d 45c5 7c4c a0c5 717b 5ac3
-3.2966595e-06 1.2994755e-06 -3.939691e-06 -4.7445624e-06 -9.693335e-06 7.919795e-07 -1.5187503e-06 -1.0332432e-06
-9.178246e-06 -2.419749e-06 -3.933393e-06 -1.6817424e-06 -2.0889374e-06 -3.0632991e-06 7.411612e-06 5.96563e-06
5.1775157e-08 -2.4369845e-06 2.3876624e-05 -2.5016693e-06 2.2601918e-05 -1.5133803e-05 -1.2825491e-06 -2.526632e-06
-40788.773 -35019.234 -90486.92 -4764.702 -14367.3125 -16042.737 -16918.344 -35575.863
1511.3757 -96910.36 2344.2651 -95757.75 -110978.76 -126429.82 -11662.456 795.74963
-1685.6213 -10917.733 -1059.5277 -10972.478 -1033.9498 -701.1296 -559.3841 -10912.607
85897.12 69962.36 122284.49 21144.422 40208.383 9499.58 -27336.186 46047.07
-4097.944 120827.85 -34344.01 116187.27 69195.4 68237.984 42713.54 -2650.7021
-583.7528 8073.6313 1652.8302 7184.4927 623.77277 -2026.6644 1492.1333 7226.209
-2.415353e-06 -2.7895655e-06 -3.0996405e-06 -8.213167e-07 -2.805841e-06 -3.0633707e-06 -3.0974718e-06 -3.1019526e-06
3.0609672e-06 -3.1438858e-06 3.0150738e-06 -3.1481393e-06 -3.1534832e-06 -3.159686e-06 -2.8413813e-06 -1.3772446e-06
-5.7386615e-07 -2.9526386e-06 -7.8461014e-08 -2.9533303e-06 7.771299e-07 1.5581243e-06 -3.4508093e-07 -2.9524053e-06
2.8716556e-07 2.8707577e-06 -1.7517538e-06 -2.7711465e-06 -2.391057e-06 -3.6186168e-06 -2.7390636e-06 -1.7702487e-06
3.5945857e-06 -1.91832e-06 6.029321e-09 -1.7550033e-06 -1.8347612e-06 -1.841936e-06 -3.041777e-06 1.10079e-06
4.041612e-06 -1.8397238e-06 4.1871763e-06 -1.8381272e-06 -3.4315947e-06 2.952549e-06 -1.3036678e-06 -1.8311108e-06
5198.0073 1630.2427 22217.588 22253.865 16689.521 56035.06 29617.404 20090.578
-8764.58 66090.8 4282.095 61021.047 115401.3 129193.33 -6471.3057 320.49002
2092.3464 9669.211 1040.296 9936.78 -882.08215 28.561539 426.36133 10015.747
-2.31e-43 -3.2e-43 -2.9732446e-31 -2.44e-43 -2.38e-43 -2.83e-43 -5.28e-43 -2.76e-43
1.11e-43 -2.7e-43 4.85e-43 -3.25e-43 -2.75e-43 -2.98e-43 -2.93e-43 -2.19e-43
-2.51e-43 -3.03e-43 2.89e-43 -3.08e-43 2.69e-43 -5.28e-43 -3.92e-43 -2.83e-43
-4573.371 -8718.063 2605.7046 3145.134 -8751.269 7102.7915 11438.679 4007.2637
-2636.4773 4132.2554 6520.658 21252.537 23245.59 27197.475 1477.1278 167.67903
-157.31631 1871.3334 -600.7727 1857.7771 656.75836 1562.1246 -46.054787 1818.1484
-1.8401936e-08 -1.3524115e-07 -3.7419381e-06 4.34e-43 1.0284783e-07 -5.9451327e-07 -6.108386e-07 -1.2724146e-06
2.0157532e-07 -2.042991e-06 -1.7971524e-07 -1.990972e-06 -2.614582e-06 -2.494384e-06 5.066278e-10 6.81846e-29
1.6047525e-14 -3.6616427e-08 -3.2648477e-30 -4.061896e-08 -2.4490819e-28 -3.076707e-36 4.7e-43 -4.1433438e-08
-2.8572047e-06 -2.854546e-06 -2.8570119e-06 -2.855101e-06 -2.8559073e-06 -2.853482e-06 -2.8522493e-06 -2.8538586e-06
2.8561067e-06 -2.8566067e-06 3.4589173e-06 -2.8569202e-06 -2.8572244e-06 -2.8573843e-06 2.8536301e-06 -2.7492677e-06
-3.4380785e-06 -2.8519876e-06 3.3827328e-06 -2.8520415e-06 2.771662e-06 2.7839271e-06 -2.7541157e-06 -2.8520687e-06
23642.52 17503.55 5174.549 4673.7056 -1713.5448 -4781.0747 -3065.3965 -2381.5554
-104.19196 -1476.2637 4620.32 -1531.7413 -5279.856 -3153.8696 -5129.5605 -218.4822

exp_avg_sq f4 [32, 24]
00000000: dc9e 674f c02b 364f 791b 4f51 d124 724f
00000010: 2184 634f e0de e750 d821 9a50 2ea6 a650
00000020: 6f38 ff4e 1e6e 4c52 9407 844f 4fa0 7952
00000030: 9ad4 e752 2e40 d252 b9a8 1650 c435 674c
00000040: 348b 944b aceb 524f 6133 b24b 1031 554f
00000050: 8667 8f4b 5ca9 7f4b 497b 034c 8b9f 544f
00000060: 5b4a bb52 f92f ce53 8e55 8754 f468 1152
00000070: 0d5c 8253 1786 9155 0ca9 0753 3d57 b253
00000080: 4143 0e52 12f1 e454 3a2c 1152 2272 9c54
00000090: 118b 6f55 77bd 3055 533b 0a51 7bfc db4e
000000a0: cd2a 864f 52a7 ac51 2faa 284e a5aa b551
000000b0: f7fe 3d4e c45b 8b4e c971 a34d 99a6 b551
000000c0: d6c0 e452 b66c 9a52 cd02 da53 cbb7 9752
000000d0: 3703 7652 04d5 db52 ced3 9252 6e4b 4153
000000e0: 4069 7951 b30c 6954 051b 7251 56e7 8e54
000000f0: 2c1b 0855 65cf 0555 6662 9351 6ce5 074e
00000100: e37c 164e 39d8 7151 f9fd 144e b603 7251
00000110: 34b6 fe4d 6f98 0d4e db4b 2a4e e56e 7151
00000120: 74f2 0635 c9e7 1536 8b70 8338 d714 b232
00000130: ce47 2436 0605 f037 5b74 7838 6cd4 8b38
00000140: 60fc e537 0957 b839 9237 6837 0ec3 f339
00000150: 122b 393a fdb3 ae3a 2673 4b36 aba9 6833
00000160: 94f2 5e32 a4a6 ec36 7f88 4031 002b ee36
00000170: 3a69 a432 8507 a033 67d1 0432 0025 ec36
00000180: 95c6 7045 1aad 9045 52a0 2646 b4e3 ab45
00000190: baba a044 e221 c345 731f 3c45 c064 e945
000001a0: e549 5644 96f7 4b47 2842 8742 cdb9 3b47
000001b0: b0fa b547 a119 aa47 9b8a 0144 ae20 9c40
000001c0: 512b bf3f 1444 2f44 6b85 393f 98d9 2f44
000001d0: e83f 5440 2a6c 4d41 3c75 5040 39ed 2c44
000001e0: 75db 8150 a842 6653 a1ad a354 148a 4f51
000001f0: d288 2a52 2558 ee51 c75b ba51 904a 2052
00000200: fe00 ef50 1299 5b53 8552 ab50 f7d3 3753
00000210: 7e07 f653 434a cd53 63a0 f14f 355c 164d
00000220: 3e3d d44d dc61 4750 5326 314d 67b6 4b50
00000230: bdb3 f24c 343f e44c ebac c14c 8b11 4d50
00000240: e15c d928 1c18 a52c 8113 952d 84c9 fe26
00000250: 347d 882a b4c6 ab2a 020a 302a 5c27 0d2b
00000260: 8cbe c529 8d86 182c d5ab 9c29 fc18 cd2b
00000270: b78a 952c 50a0 712c 7c75 f027 f988 9825
00000280: ad7d e926 43c0 f228 0790 9525 b1cf fe28
00000290: 7adc a325 eaa1 4e25 0972 0425 0386 0029
000002a0: 7ec0 ec50 bfe0 9850 6260 2953 f1de 8951
000002b0: 2521 8751 b904 fd52 515c 6952 e9a0 1953
000002c0: a81e 4952 994e 8354 b7ef 3551 56ed 7854
000002d0: 28e2 2355 df28 1655 5ace 2d51 1560 1e4e
000002e0: d680 124f d56f 7551 a4db b44d 79d8 7c51
000002f0: ed78 354e 538d 7a4e 52b9 fe4d 772c 7b51
00000300: 2547 ec30 f9e3 aa34 8296 9d35 cf41 782b
00000310: 3992 e332 6432 7632 753e 3f32 0339 1933
00000320: 6bcc d631 118c 2534 ef2c aa31 65b3 de33
00000330: 4c52 a234 ac24 8334 b27b 0230 ebf2 a42d
00000340: 9239 fd2e f6c3 0331 d342 a22d ca4e 0a31
00000350: 1b7a b12d dc81 602d 31d9 0f2d 6a86 0b31
00000360: 2496 883d d8b3 933c 22fc 913e d6f5 d03c
00000370: 4937 033d 8553 2b3d a84e 9d3c cac3 523d
00000380: 28f3 8b3c f4b7 083f 4e20 a539 aa9e 113f
00000390: d105 ac3f 110e cf3f 800a 753c 9c07 f337
000003a0: 6a03 1939 18f9 1a3c 396f 1538 1956 1e3c
000003b0: deee 2738 c974 7338 e0ef e837 71bd 1f3c
000003c0: 177a 1352 198f 1c52 841f 3052 20d5 c44f
000003d0: 30db 2550 642d 1d50 9002 7b50 e506 1751
000003e0: f95c 6e4f 9f94 3f52 d8df 214f 84cc 6952
000003f0: 0198 d452 c006 d752 b946 694f 9b00 bc4b
3.885948e+09 3.0563205e+09 5.5594947e+10 4.062499e+09 3.8170872e+09 3.1121146e+10 2.0687274e+10 2.2367269e+10
2.1409443e+09 2.195052e+11 4.4301783e+09 2.680341e+11 4.9785215e+11 4.5150994e+11 1.0110559e+10 6.061032e+07
1.9469928e+07 3.5386604e+09 2.3357122e+07 3.5767624e+09 1.87963e+07 1.6755036e+07 3.4467108e+07 3.5672256e+09
4.0220318e+11 1.7711362e+12 4.6500476e+12 1.5613277e+11 1.1197802e+12 2.0000637e+13 5.826567e+11 1.5319356e+12
1.5275342e+11 7.866376e+12 1.5587806e+11 5.375438e+12 1.6461285e+13 1.2145487e+13 3.71063e+10 1.8453784e+09
4.501904e+09 9.269269e+10 7.0743136e+08 9.75315e+10 7.969008e+08 1.1690235e+09 3.427679e+08 9.7523016e+10
4.912439e+11 3.316244e+11 1.8726997e+12 3.258118e+11 2.6415397e+11 4.7208582e+11 3.1530936e+11 8.301942e+11
6.695079e+10 4.0037618e+12 6.4989712e+10 4.910132e+12 9.353143e+12 9.195362e+12 7.912638e+10 5.699899e+08
6.3119174e+08 6.491967e+10 6.249181e+08 6.496527e+10 5.341692e+08 5.9389434e+08 7.142745e+08 6.4809226e+10
5.0271706e-07 2.2337647e-06 6.2675295e-05 2.0731404e-08 2.44797e-06 2.8612569e-05 5.9236172e-05 6.667603e-05
2.7416449e-05 0.0003516006 1.3841216e-05 0.000464939 0.0007063608 0.0013328787 3.0316382e-06 5.417102e-08
1.2977257e-08 7.0527476e-06 2.8017266e-09 7.0979586e-06 1.9139964e-08 7.4519484e-08 7.731024e-09 7.0376555e-06
3852.4114 4629.6377 10664.08 5500.463 1285.8352 6244.2354 3009.9656 7468.5938
857.1546 52215.586 67.62921 48057.8 93173.375 87091.26 518.1657 4.878989
1.4935094 701.0637 0.72469205 703.3999 3.3164005 12.838907 3.2571554 691.7066
1.7429146e+10 9.889608e+11 5.6239414e+12 5.5710925e+10 1.8310998e+11 1.2796013e+11 1.0005046e+11 1.7211143e+11
3.2078557e+10 9.431659e+11 2.2994495e+10 7.895352e+11 2.1133753e+12 1.7634284e+12 8.1076403e+09 1.5766408e+08
4.4509792e+08 1.3380317e+10 1.8575493e+08 1.3670915e+10 1.272458e+08 1.196671e+08 1.0154172e+08 1.3761916e+10
2.413212e-14 4.6922587e-12 1.6948e-11 1.7679411e-15 2.424533e-13 3.051358e-13 1.5635412e-13 5.0147885e-13
8.781612e-14 2.167519e-12 6.9576e-14 1.4573061e-12 4.250235e-12 3.4337151e-12 6.674076e-15 2.6460613e-16
1.6201687e-15 2.6950777e-14 2.5944977e-16 2.8289737e-14 2.8425393e-16 1.792251e-16 1.1487812e-16 2.8537946e-14
3.1776305e+10 2.0518926e+10 7.274665e+11 7.401886e+10 7.254708e+10 5.4335298e+11 2.5056905e+11 6.598296e+11
2.1595069e+11 4.511675e+12 4.8838177e+10 4.276535e+12 1.1261983e+13 1.0318893e+13 4.665571e+10 6.6427424e+08
2.457917e+09 6.588395e+10 3.7928666e+08 6.7872723e+10 7.611503e+08 1.05089146e+09 5.3419475e+08 6.7423924e+10
1.719148e-09 3.183084e-07 1.1741215e-06 8.8198627e-13 2.6492772e-08 1.4330542e-08 1.1131864e-08 3.567494e-08
6.2514594e-09 1.5417778e-07 4.9527595e-09 1.0370312e-07 3.023473e-07 2.4427334e-07 4.7469506e-10 1.8752519e-11
1.15153345e-10 1.91744e-09 1.8446944e-11 2.012643e-09 2.0176796e-11 1.276176e-11 8.176835e-12 2.0303568e-09
0.06669262 0.018030092 0.28512675 0.025507849 0.032035146 0.041827697 0.019202545 0.05145625
0.01708372 0.5340569 0.0003149532 0.5688273 1.3439275 1.6176168 0.014956117 2.89714e-05
0.00014592489 0.009458803 3.5627952e-05 0.009664082 4.0038365e-05 5.804448e-05 2.7768256e-05 0.009749756
1.5835213e+11 1.6810392e+11 1.8911075e+11 6.6046034e+09 1.1130421e+10 1.0547991e+10 1.6844997e+10 4.0540983e+10
3.9990705e+09 2.0570805e+11 2.7158016e+09 2.5103965e+11 4.5654163e+11 4.617656e+11 3.9137262e+09 2.4641846e+07

exp_avg f4 [32]
00000000: 50ed 25b6 03f6 2cc6 f238 ed45 7d37 46b6
00000010: a1c7 f6b5 2d96 1c46 c900 0080 4713 e844
00000020: 9dea 35b3 b466 3fb6 98e7 06c4 1159 7338
00000030: 8924 87c2 7c01 0080 f482 5a43 dd60 c0b5
00000040: 9f70 0946 77d6 c6b5 7d4e 1dc7 931a 8ab5
00000050: bbac 8ab6 493b 70b6 957f 8db6 da90 47c5
00000060: 69a6 06c5 26c6 d747 9101 0080 608e 33b6
00000070: befc d346 91c5 0845 5d33 1cc6 c1cc 8145
-2.472505e-06 -11069.503 7591.118 -2.9536598e-06 -1.8386528e-06 10021.544 -2.82e-43 1856.6024
-4.2355726e-08 -2.8521e-06 -539.61865 5.8018664e-05 -67.57136 -5.32e-43 218.51154 -1.4333306e-06
8796.155 -1.4814567e-06 -40270.49 -1.0289535e-06 -4.132829e-06 -3.5797295e-06 -4.21698e-06 -3193.0532
-2154.4006 110476.3 -5.62e-43 -2.6755952e-06 27134.371 2188.348 -9996.841 4153.594

exp_avg_sq f4 [32]
00000000: d1b0 574f 9277 b851 0f56 7651 9be7 ee36
00000010: 40de 3044 995c 5050 7bd9 0129 ad8b 8051
00000020: 41f6 0c31 dd3c 213c b4a1 464f b52f 804e
00000030: 45e3 554e 85f2 9f2c 233d 1950 7370 b546
00000040: e577 2c53 dcd0 cb47 efe7 f751 9ccb 9c4b
00000050: dbf4 124f 6f7d 9643 989c 1344 6302 e451
00000060: 0a97 1350 936c 8053 8d15 be2a 833d d744
00000070: 5305 8752 4edd 8051 a675 1b51 f2d6 dc50
3.6186893e+09 9.9035005e+10 6.612536e+10 7.119915e-06 707.47266 1.3982918e+10 2.8832388e-14 6.90124e+10
2.051266e-09 0.009841171 3.3324861e+09 1.0753051e+09 8.9711034e+08 4.545977e-12 1.0283683e+10 23224.225
7.407459e+11 104353.72 1.33093515e+11 2.055148e+07 2.4655204e+09 300.97995 590.4468 1.2241157e+11
9.904597e+09 1.1031548e+12 3.3765734e-13 1721.9222 2.8995496e+11 6.918359e+10 4.173086e+10 2.9640593e+10

exp_avg f4 [32, 32]
00000000: 5df3 b136 2a3c 84c6 163e 36c7 b401 0000
00000010: d619 ca36 2e60 2542 cd00 0080 4869 ee46
00000020: be00 0000 d800 0080 379e d4c6 dd85 5db8
00000030: 834c 1938 957d 7e27 bbc8 0b46 4f4d 0db6
00000040: a9fa 4bc4 37a3 4a36 3e07 0cc6 70b6 9835
00000050: 3773 fdb5 cd00 0080 6780 7007 b844 98c6
00000060: c7b9 71c4 9407 c246 ca00 0000 6fd5 be35
00000070: c268 00c7 3496 0946 cf17 7ec6 2d78 bbc5
00000080: 1b10 7036 9124 7ac5 609f a0c6 8201 0000
00000090: 2807 42b6 5d25 8740 c000 0080 2d9c e243
000000a0: 8a00 0080 7301 0000 bd6f 17c6 33c4 e2b6
000000b0: e9b4 1438 ba00 0000 e347 1bc5 e4f4 c636
000000c0: 3da2 cdc2 d455 b236 f2a0 b0bd e570 1eb3
000000d0: ef1d c5b5 8305 0080 06e8 2a85 f6ff a3c3
000000e0: 9608 a5c5 13ae 73c5 0d01 0080 b270 49b5
000000f0: 9a7c 4fba 7679 a2c3 a227 11c6 a10f bac3
00000100: a2d3 ba36 325f 72b9 b9df c93a 8a01 0000
00000110: 8a01 0000 1980 fbb8 1e01 0080 207b bcb9
00000120: 9501 0080 16be 39b6 cf50 e238 3000 0080
00000130: 9701 0000 3000 0080 926c ecb9 420d 4eb6
00000140: 18c6 8db9 d133 5eb6 fea8 9d34 ee00 0000
00000150: 20fb 31b6 6901 0080 ed00 0080 8951 f93d
00000160: b95b 1336 02b5 133c 7d01 0000 7f01 0000
00000170: 0811 9d3c 4921 41b9 62b5 003d 816e b03c
00000180: 35f4 e8b4 c9eb a6c7 7b01 b3c6 dd00 0000
00000190: 68f3 2f34 c786 29c6 a900 0000 85de 09c5
000001a0: 4000 0000 79d0 3fb6 bf9e 57c7 f261 3737
000001b0: fd05 e1bb 5214 3700 edf3 cfc6 1f4f 4e36
000001c0: 59ad b1c4 3018 20b4 3841 a0c3 9a80 a634
000001d0: eabe 8537 987f 8ab6 c31c 6936 a48f f2c6
000001e0: 8b9f e0c7 b4d6 a5c7 8f01 0080 c864 5e36
000001f0: a3a6 91c7 e68f 4dc6 90ab b346 1e94 50c5
00000200: 2547 89b6 c02d 35b8 9e22 d945 4901 0080
00000210: 6801 0080 77e1 58c2 e200 0080 19d5 a1b7
00000220: 0501 0080 d800 0000 1e1c eab8 80bb 3037
00000230: 7a26 9137 0a01 0080 9bc4 b3b7 879d 0937
00000240: f83b a740 1542 f836 05fa 3fc4 9101 0080
00000250: d22d 4737 392d 55b6 3600 0000 74fb 6340
00000260: 74ff 38b6 451b a344 3801 0080 cb02 0080
00000270: 901b 6bbf 1b92 77c3 ca29 3345 55dc 5d42
00000280: ac15 e736 c4fe 2b41 5a87 cc41 7901 0080
00000290: 9c00 0000 130f bb38 fd00 0000 0ce4 f445
000002a0: 1001 0000 e901 0000 f9ee 0441 2b8c 05b9
000002b0: aa57 abb8 d000 0080 63e3 753d 3edf 91b6
000002c0: aabf 41b9 3c4d acb6 626a c5b8 dc00 0080
000002d0: 9f60 28b7 9203 0000 5f03 0000 fb97 9645
000002e0: fade 9e40 f0e5 4242 e200 0000 3c30 60b6
000002f0: 1d9c 2845 9ffc 2cba f563 22b9 8a91 9d43
00000300: 50ae 26b7 5f79 8bc4 020d 49c7 9101 0080
00000310: ad01 0080 b618 51c5 9901 0080 60b8 9dc3
00000320: a201 0000 858a 6a36 1a21 c4c1 7c16 ee37
00000330: 41c8 80c1 0501 0080 624e dcc2 5a24 8336
00000340: c7f4 55c1 caa5 3e36 5abb 0f46 8878 80b6
00000350: d1be e5b5 d445 83b6 1cc9 ed34 636f 7745
00000360: 497d 8542 e2d4 61c7 a001 0080 9a02 b2b5
00000370: c9d3 13ba 0b1b 8744 5596 4fc5 8e50 b9c5
00000380: 2b0e 0735 4269 e146 5718 f8c5 a001 0080
00000390: dc84 1b36 993a 1b46 bc00 0080 d84b 50c5
000003a0: 1800 0080 7c93 3bb6 5883 68c4 d055 1ab8
000003b0: a99e b336 fe00 0080 30fa ed44 d3c3 1337
000003c0: 9c62 3ec3 719e 3937 44c5 e346 4da8 b6b6
000003d0: 3651 8536 1555 e1b4 a7a9 bbb5 588a 94c6
000003e0: 94a5 8c43 38c5 f346 1e00 0000 690e bab5
000003f0: 208d f643 23e7 9946 0a8a 33c3 d80c 4a45
5.3033423e-06 -16926.082 -46654.086 6.11e-43 6.023077e-06 41.343925 -2.87e-43 30516.64
2.66e-43 -3.03e-43 -27215.107 -5.2815176e-05 3.65493e-05 3.531766e-15 8946.183 -2.1055637e-06
-815.91656 3.019535e-06 -8961.811 1.1377979e-06 -1.8883501e-06 -2.87e-43 1.8093327e-34 -19490.36
-966.9028 24835.79 2.83e-43 1.421822e-06 -32872.758 8805.551 -16261.952 -5999.022
3.5772161e-06 -4002.2854 -20559.688 5.41e-43 -2.8912418e-06 4.223311 -2.69e-43 453.22012
-1.93e-43 5.2e-43 -9691.935 -6.7581655e-06 3.5454435e-05 2.6e-43 -2484.493 5.929369e-06
-102.81687 5.314805e-06 -0.08624448 -3.688992e-08 -1.4686356e-06 -1.977e-42 -8.0359776e-36 -327.9997
-5281.073 -3898.8796 -3.77e-43 -7.504233e-07 -0.00079149904 -324.9489 -9289.908 -372.1221
5.5678693e-06 -0.00023114381 0.0015401758 5.52e-43 5.52e-43 -0.00011992473 -4.01e-43 -0.0003594989
-5.68e-43 -2.7677793e-06 0.000107915715 -6.7e-44 5.7e-43 -6.7e-44 -0.0004509432 -3.070411e-06
-0.00027041207 -3.311074e-06 2.9366487e-07 3.34e-43 -2.652123e-06 -5.06e-43 -3.32e-43 0.12173755
2.1958097e-06 0.009015324 5.34e-43 5.37e-43 0.01917316 -0.00018418314 0.03142298 0.021537067
-4.3391051e-07 -85463.57 -22912.74 3.1e-43 1.6386696e-07 -10849.694 2.37e-43 -2205.9075
9e-44 -2.8582565e-06 -55198.746 1.0930455e-05 -0.006867169 5.058242e-39 -26617.963 3.0742447e-06
-1421.4171 -1.490996e-07 -320.50952 3.101348e-07 1.5943737e-05 -4.1275744e-06 3.4736447e-06 -31047.82
-115007.086 -84909.41 -5.59e-43 3.313924e-06 -74573.27 -13155.975 22997.781 -3337.2573
-4.0912005e-06 -4.319637e-05 6948.327 -4.61e-43 -5.04e-43 -54.22018 -3.17e-43 -1.9291927e-05
-3.66e-43 3.03e-43 -0.00011163227 1.0534073e-05 1.7303264e-05 -3.73e-43 -2.1430014e-05 8.2025135e-06
5.2260704 7.398669e-06 -767.90656 -5.62e-43 1.1871993e-05 -3.1765796e-06 7.6e-44 3.5622225
-2.756683e-06 1304.8522 -4.37e-43 -1.002e-42 -0.9183893 -247.57072 2866.6118 55.465168
6.8868594e-06 10.749699 25.56609 -5.28e-43 2.19e-43 8.919663e-05 3.55e-43 7836.506
3.81e-43 6.85e-43 8.308343 -0.00012736085 -8.170244e-05 -2.91e-43 0.060031306 -4.3473256e-06
-0.00018477315 -5.1349907e-06 -9.413507e-05 -3.08e-43 -1.0036077e-05 1.281e-42 1.21e-42 4818.9976
4.964719 48.72455 3.17e-43 -3.3406677e-06 2697.757 -0.0006598923 -0.00015486761 315.13702
-9.934956e-06 -1115.7928 -51469.008 -5.62e-43 -6.01e-43 -3345.5444 -5.73e-43 -315.44043
5.86e-43 3.4949346e-06 -24.516163 2.8382281e-05 -16.09778 -3.66e-43 -110.15309 3.908336e-06
-13.37226 2.8408708e-06 9198.838 -3.828729e-06 -1.7117364e-06 -3.9122333e-06 4.4291016e-07 3958.9617
66.7447 -57812.883 -5.83e-43 -1.3262791e-06 -0.00056391634 1080.8451 -3321.3958 -5930.0693
5.0312036e-07 28852.629 -7939.0425 -5.83e-43 2.3174134e-06 9934.649 -2.63e-43 -3332.7402
-3.4e-44 -2.7951019e-06 -930.05225 -3.679638e-05 5.353086e-06 -3.56e-43 1903.8184 8.807477e-06
-190.3852 1.1063749e-05 29154.633 -5.4436155e-06 3.973163e-06 -4.197142e-07 -1.3981961e-06 -19013.172
281.29358 31202.61 4.2e-44 -1.3862274e-06 493.10254 19699.568 -179.53922 3232.8027

exp_avg_sq f4 [32, 32]
00000000: 1531 3f50 0659 c352 4f59 ee53 acf3 4c21
00000010: f57c 1c45 dd4a a751 c704 bc12 617b 6753
00000020: e233 e228 c22f a115 3780 da52 0c6a 6448
00000030: 7440 d752 f301 d42e c588 0e52 e9dd 4547
00000040: 9e9e 2853 0994 2149 bdd6 3e50 e29e 944a
00000050: d501 cd4b b000 c527 628a ff2b e3b5 7f51
00000060: 8d75 8351 abaf 6854 5646 101b faf0 dd46
00000070: 8488 ed51 d537 0a53 c84f ce51 dde3 4451
00000080: 85e7 824e 7741 1751 e613 a852 f71c ce1f
00000090: b870 3a43 e852 db4e 4624 0111 353b 4850
000000a0: 0c52 d424 b8ad 2f16 202a e751 62cc 0a32
000000b0: 4421 954b e8b7 852a ceb6 8551 e3b3 2b46
000000c0: 13d2 9b49 9131 8148 75ae bb47 1bc7 0a47
000000d0: ba3e 923f f401 0000 fc6f 8b26 dac5 5750
000000e0: ea1c e850 dbe3 8851 b1d8 471a 8666 fc45
000000f0: 7a95 1147 23e0 f051 f650 6751 45d6 0b50
00000100: b3ea f14c 4a9a be4c ffda 034c f401 0000
00000110: f401 0000 ef0f a446 b06b 8a03 84d9 2e4a
00000120: 2c9a 2f24 5e8c 0b36 dc9f 304b 791f bc1b
00000130: f401 0000 f401 0000 7f8f 3249 c60a dc47
00000140: 5e23 684a b3b7 4746 428c 3f40 f401 0000
00000150: 89d1 883c f401 0000 f401 0000 fcb4 2651
00000160: 3ecd 804d d2f1 564f 818f 8e12 f401 0000
00000170: 7ce4 0a4d 70d6 7949 7d00 c34c 4f9d 2f4f
00000180: 16b1 0c50 15d3 5853 bb7e 9951 8c2d 7a25
00000190: 1aab 8644 ba55 a951 8ac3 431e 6563 5a51
000001a0: 863c 4829 c2b9 ef3d eb20 9e52 b8a5 c34e
000001b0: 80d8 7a4e 7ad8 512d f813 2052 8c70 c247
000001c0: 0b2c 764f fd39 8348 7b5e fe4f 7d51 534a
000001d0: b7e6 1642 7571 5746 299e 3e47 7de2 c751
000001e0: f96f bf52 2450 5a53 6ade 461b 2e58 2e46
000001f0: 77af 7e52 e97b b751 ad95 a450 435a 4551
00000200: 37b5 164d ebc9 8144 d4b6 7350 f401 0000
00000210: f401 0000 5c7b 3f4d 59ed 4512 876e a24d
00000220: ec06 8026 f401 0000 32be b142 5179 c448
00000230: 6645 f448 282d 922b 0b9e 2a48 ed15 fc44
00000240: 784a ed4b a6f7 eb46 f349 d651 25cd 612a
00000250: 9c20 d03f e7f5 9944 f401 0000 e17f 5448
00000260: 772e 6540 8b60 3b51 510a d717 f401 0000
00000270: 11cb 334c 2012 ce4c ba35 ae4d 998c 8a4f
00000280: 861a 1f4f 6288 244f 87f6 2851 f401 0000
00000290: e5fa f101 21c8 ea50 9046 5d0f ea6f 4a53
000002a0: 984b 0727 f401 0000 0834 9c4f e456 aa3d
000002b0: 4cbf 8248 9d86 9f29 6fec bd4b 4073 4c46
000002c0: f1a6 c34c 6c7a 8e46 02fe 0c52 f401 0000
000002d0: 959c 923f f401 0000 2172 2f01 c846 ba52
000002e0: feaf 0f4f 0006 514b 6568 c31b 9d49 a73e
000002f0: f502 e352 2a44 f247 2f1d 174d 17e5 b450
00000300: 52b4 6250 47c9 8353 e36e fd50 5f5e 9425
00000310: bc72 361d 3889 de54 96d7 612c c57d d24f
00000320: 138d 482c 6ff7 e43f fc0e 1b49 f20c c853
00000330: e023 e652 9c96 ee2c 0a38 3f4d 5bae d046
00000340: 72f1 1b55 76e9 5d46 bf50 af51 848e 4b4f
00000350: aa07 4a51 20ed fc46 3ae8 6947 50f5 5454
00000360: 71b3 0753 a3e5 6656 f8f9 5a19 bd82 1246
00000370: 9474 4a4b 1428 3e4e 5c8e fb4e 71a3 3251
00000380: 5459 884f d9db 9153 aa30 9650 ab02 d527
00000390: 1d17 b542 2c68 0b54 8f78 be29 d32c bd53
000003a0: a38e fa2a 8292 993e 5757 f44e 7b86 9651
000003b0: 03d4 9a50 0de9 c12b 2ba8 9753 3477 6148
000003c0: ffd4 9a54 d227 8848 b14b 0450 2b5b 1d4c
000003d0: 67e9 974f 4838 1346 994d 3a49 190a d653
000003e0: 5958 d850 3519 d555 d4b1 121b 0b75 a145
000003f0: 3b34 334b 8ef0 be51 04c2 9b51 0278 2851
1.283066e+10 4.195061e+11 2.0474011e+12 6.9440386e-19 2503.8098 8.981444e+10 1.1865646e-27 9.942074e+11
2.5113541e-14 6.510273e-26 4.6922698e+11 233896.19 4.6224966e+11 9.64099e-11 1.53045e+11 50653.91
7.2421566e+11 661824.56 1.2806977e+10 4.870001e+06 2.6870698e+07 5.467923e-15 1.8157249e-12 6.8641763e+10
7.057661e+10 3.9975185e+12 1.1934128e-22 28408.488 1.275247e+11 5.936422e+11 1.1076272e+11 5.285228e+10
1.0981055e+09 4.06024e+10 3.6094417e+11 8.729231e-20 186.4403 1.8398218e+09 1.0187483e-28 1.3437294e+10
9.207934e-17 1.4191203e-25 1.2410552e+11 8.0791285e-09 1.954676e+07 2.3753157e-13 7.17872e+10 10988.972
1.2764824e+06 264588.53 96092.914 35527.105 1.1425393 7e-43 9.675416e-16 1.4480271e+10
3.1153672e+10 7.349229e+10 4.1327277e-23 8076.8154 37269.477 1.2931907e+11 6.2093484e+10 9.384302e+09
1.2683407e+08 9.99307e+07 3.4565116e+07 7e-43 7e-43 20999.967 8.135635e-37 2.864737e+06
3.8077665e-17 2.0794319e-06 1.157526e+07 3.112233e-22 7e-43 7e-43 731383.94 112661.55
3.8033515e+06 12781.925 2.9929357 7e-43 0.016701477 7e-43 7e-43 4.475006e+10
2.701168e+08 3.6061722e+09 8.996836e-28 7e-43 1.4563936e+08 1.023335e+06 1.0223716e+08 2.9463222e+09
9.441663e+09 9.312543e+11 8.240702e+10 2.1699475e-16 1077.3469 9.0910966e+10 1.03636506e-20 5.8623152e+10
4.4461417e-14 0.11705352 3.3957855e+11 1.6412088e+09 1.05212314e+09 1.1928342e-11 1.7188245e+11 99553.09
4.1300815e+09 268751.9 8.5352095e+09 3.4622392e+06 37.725307 13788.364 48798.16 1.0731229e+11
4.1110867e+11 9.376474e+11 1.6450042e-22 11158.045 2.7346638e+11 9.8507235e+10 2.209018e+10 5.297643e+10
1.5802866e+08 1038.3099 1.6355381e+10 7e-43 7e-43 2.007833e+08 6.2454793e-28 3.4064406e+08
8.88366e-16 7e-43 88.871475 402378.53 500267.2 1.0386457e-12 174712.17 2016.6852
3.1102192e+07 30203.824 1.1504546e+11 2.0055188e-13 1.6259952 1231.6844 7e-43 217599.52
3.580961 5.0298663e+10 1.3896654e-24 7e-43 4.7131716e+07 1.0804045e+08 3.6534458e+08 4.64894e+09
2.6693156e+09 2.7604014e+09 4.535566e+10 7e-43 8.8889434e-38 3.1511874e+10 1.0909731e-29 8.69461e+11
1.8775993e-15 7e-43 5.241311e+09 0.08317354 267770.38 7.08437e-14 2.4893662e+07 13084.8125
1.02578056e+08 18237.21 1.5138924e+11 7e-43 1.1454035 7e-43 3.2224307e-38 4.000257e+11
2.4106757e+09 1.369856e+07 3.2327507e-22 0.3267335 4.875036e+11 124040.33 1.5845451e+08 2.42793e+10
1.5213873e+10 1.1320352e+12 3.4015222e+10 2.5737856e-16 2.4146816e-21 7.646279e+12 3.2094097e-12 7.0629156e+09
2.8500021e-12 1.7888011 635119.75 1.7184213e+12 4.9422218e+11 6.781088e-12 2.0050755e+08 26711.178
1.0716331e+13 14202.365 9.412175e+10 3.4151148e+09 5.4232e+10 32374.562 59880.227 3.658595e+12
5.828311e+11 6.346849e+13 1.1320817e-23 9376.685 1.3268116e+07 7.975744e+08 2.1102054e+09 4.795289e+10
4.575111e+09 1.2529174e+12 2.0158173e+10 5.912227e-15 90.54514 2.3949927e+12 8.4586086e-14 1.6250017e+12
4.4507895e-13 0.2999459 2.0496823e+09 8.081266e+10 2.0780685e+10 1.3778159e-12 1.3027229e+12 230876.81
5.3199876e+12 278846.56 8.878212e+09 4.1249964e+07 5.0973117e+09 9422.07 763097.56 1.8385848e+12
2.9037349e+10 2.928803e+13 1.2134296e-22 5166.6304 1.1744315e+07 1.0250995e+11 8.362187e+10 4.5222994e+10

exp_avg f4 [32]
00000000: 8e90 09c6 6cf2 68c5 f5d6 d03c a577 d0c6
00000010: ff10 9744 4b63 9644 b04d b1c5 0152 cb45
00000020: d045 62c5 e865 c042 21ce 83c4 4ea7 c6c7
00000030: 4619 88c3 64ca 5b45 ed2e 5c3b 6598 a446
00000040: cc0b 27c6 3e62 e744 0c31 a7c4 3b27 bb43
00000050: 7bdb 8038 bf4e 1e45 36a3 0ab9 d11f 0dc5
00000060: 2bb6 4045 5bfa d647 da17 bbc5 89d6 d346
00000070: aae8 3546 1c4f c142 afe9 32c5 3e89 7446
-8804.139 -3727.1514 0.025493124 -26683.822 1208.5311 1203.1029 -5673.711 6506.2505
-3620.3633 96.199036 -1054.4415 -101710.61 -272.19745 3516.6494 0.0033597306 21068.197
-10690.949 1851.0701 -1337.5327 374.3065 6.144397e-05 2532.9216 -0.00013221506 -2257.9885
3083.3855 110068.71 -5986.9814 27115.268 11642.166 96.65451 -2862.6052 15650.311

exp_avg_sq f4 [32]
00000000: 7fbf 4f51 cf90 b44f e557 d44e b535 3f51
00000010: e9d8 6c4f c1ea ba50 13ee c351 f51c d851
00000020: 8da5 e24f 3dfa b751 2dd2 6051 3273 ca53
00000030: f674 9b51 d2ce 5d51 4606 0e4f 4405 4851
00000040: 4511 5750 8d77 294f 5deb e74f 8ed2 f750
00000050: 8ccb 7b4d 188a 924e 962b 2950 90cb bf50
00000060: e98a 1f50 48a9 7153 f9c0 3951 6fed 2153
00000070: 8409 ab4f 461d 2351 5b53 c750 b754 9552
5.5766938e+10 6.058778e+09 1.781265e+09 5.132749e+10 3.9736384e+09 2.5087576e+10 1.05189106e+11 1.16024844e+11
7.6050007e+09 9.8772165e+10 6.0349927e+10 1.7390321e+12 8.346028e+10 5.9541103e+10 2.3827758e+09 5.3692613e+10
1.4432933e+10 2.8431844e+09 7.7819233e+09 3.326217e+10 2.640263e+08 1.2292618e+09 1.1352824e+10 2.5742311e+10
1.0706724e+10 1.0379272e+12 4.9862906e+10 6.954732e+11 5.739055e+09 4.3785675e+10 2.675303e+10 3.206857e+11
