quadrotor/data/pre_train/32_32_batchnorm_best.pt (torch, 39423 bytes, 20 tensors)

context_norm.running_mean f4 [24]
000000 26 6c b0 40 a6 8a b6 40 76 1c 04 41 6c cc d3 3f
       5.5132017 5.704425 8.256948 1.654676
000010 98 c3 d5 3f 19 ad be 3f 76 55 02 40 07 e0 35 40
       1.6700315 1.4896575 2.0364661 2.8417985
000020 ea c1 9e 3e e3 b4 fc 40 bb 54 76 be ef ac ff 40
       0.3100732 7.897081 -0.2405576 7.98986
000030 da 46 3a 41 92 96 40 41 00 0a 88 3e c1 c3 8c bb
       11.642298 12.03676 0.2657013 -0.0042957966
000040 ee 76 02 bb 8a d9 7c 3f 80 4e 97 bb 1f ce 7d 3f
       -0.0019907313 0.9876944 -0.004617512 0.9914264
000050 4c 35 88 bc b8 1b 30 bd 22 e1 cb bb 54 3c 7e 3f
       -0.016626976 -0.042995185 -0.0062219063 0.99310803

context_norm.running_var f4 [24]
000000 e6 bb 38 41 6c 1d 4e 41 73 b1 f1 40 9c cd 60 3f
       11.545874 12.882183 7.5529113 0.87813735
000010 c8 b3 7f 3f 92 f3 a7 3f 14 09 a8 3e 9f ed 47 3e
       0.998837 1.3121207 0.32819426 0.19524239
000020 37 87 37 3e af 8b 41 3e 92 3e 34 3e 56 7e 38 3e
       0.17922674 0.18900941 0.17601994 0.18016943
000030 d7 d2 cb 3d 66 e0 55 3e f8 b7 23 3e 7f 1f 42 3b
       0.09952324 0.20886382 0.15988147 0.0029620824
000040 86 64 4b 3b 7c 0e 74 38 8a 49 1e 3b 59 c4 d2 37
       0.0031035258 5.8187623e-05 0.002415272 2.5125382e-05
000050 9a 1c 91 3a 38 6f cf 3a 29 b0 dc 3a a5 31 6a 37
       0.0011071146 0.0015825992 0.0016837168 1.3959046e-05

layers.0.weight f4 [32, 24]
000000 13 be 03 40 05 57 09 3f b3 03 06 bf f8 17 b7 be
       2.0584762 0.53648406 -0.52349395 -0.35760474
000010 03 98 74 3c dc cc a8 3c 04 39 9d be aa 5f 9f 3f
       0.014928821 0.020605497 -0.30707562 1.2451069
000020 3b c8 42 bf ed 27 12 3f 82 69 4a bf 8a 70 1c bf
       -0.7608678 0.5709217 -0.7906724 -0.6110922
000030 be 12 a7 3f ec fc 30 be 8e fe fb 3e 4d 59 ae be
       1.3052595 -0.17283982 0.49217647 -0.34052506
000040 82 de c5 3f f2 b2 a5 be 8f 0b 93 3e 79 e1 98 be
       1.5458529 -0.32363087 0.28719756 -0.29859522
000050 83 8d c8 3e 90 0a 25 3f 53 77 8a bf 5a f7 a5 3f
       0.39170465 0.6446924 -1.0817665 1.2966111
000060 a5 d8 ae 3f 27 8e 0e 40 32 f3 93 be d0 ea 3f 3e
       1.3659865 2.2274263 -0.2889648 0.18741918
000070 0e e2 24 bf b3 c5 83 3e 93 78 43 3f d7 ec 8c be
       -0.6440743 0.2573677 0.76355857 -0.27524444
000080 f7 2f 25 3f c2 41 82 3e 6e b9 fa 3d 77 84 51 bf
       0.64526314 0.25440794 0.12242399 -0.8184275
000090 0e b1 9f be 3a 9c e9 3f b1 f2 0d be 99 bd cb 3e
       -0.3118977 1.8250802 -0.1386211 0.3979309
0000a0 e4 4a 3a 3f 83 bc a6 3f 25 eb d6 3e 9a f4 c7 bd
       0.72770524 1.3026279 0.41976276 -0.09763451
0000b0 75 b0 8f bf f9 4b c4 3f 50 5e 30 be 5f fd 3c 3c
       -1.1225725 1.5335685 -0.17223477 0.011535018
0000c0 f5 64 df 3f 90 c0 1b 3f 25 26 96 3e a0 8c e3 bc
       1.7452685 0.608407 0.29325977 -0.027777016
0000d0 82 ac 20 3d 6b 33 a5 3d 57 fe 8f 3e 46 dd c8 3b
       0.039227016 0.08066448 0.28123733 0.0061298935
0000e0 31 8d fd 3e d3 83 b5 bf f6 83 37 3f 15 15 4e be
       0.49521783 -1.4180855 0.7168573 -0.2012523
0000f0 74 8f a9 3f a5 81 9a be 45 57 05 be 25 b6 d3 bd
       1.3246903 -0.30177036 -0.13021572 -0.10337476
000100 da 5a 70 3c 31 0d 14 bf 45 53 b8 3d 1b a9 85 3f
       0.014670098 -0.5783263 0.090002574 1.0442232
000110 0e 8a 37 3d 5f d0 0b 3e be 97 6d 3f 81 41 0a bf
       0.044809394 0.13653706 0.92809665 -0.540062
000120 50 14 8b bf 5c 26 36 c0 5b 88 0c 40 81 66 90 be
       -1.0865574 -2.8460913 2.1958225 -0.28203204
000130 af 9b d9 bc 06 4e 06 be 36 b8 0f 3c 99 e5 6d be
       -0.026563494 -0.13115701 0.008771947 -0.23232116
000140 ea 55 ba 3c 7b 37 ad 3e 06 0e e7 3c 73 b5 b6 be
       0.022746045 0.3383139 0.02820493 -0.3568531
000150 98 a0 98 3d 41 91 b4 bc 94 15 ff bd 64 70 30 be
       0.07452506 -0.022041919 -0.124552876 -0.17230374
000160 bb 9a b6 bd 13 c2 79 be df 05 af 3d 0d 98 21 bd
       -0.08916231 -0.2439044 0.08546042 -0.039451648
000170 03 67 4a be c5 0f bf 3c 7c 13 d4 3d 24 44 84 3c
       -0.19765858 0.02332295 0.10355279 0.016145773
000180 95 5f 4c bf 49 c3 a0 bf e0 11 b1 bf 87 d9 05 3f
       -0.79833347 -1.2559596 -1.383358 0.52285045
000190 34 cd 2c bf 01 94 20 3b f9 41 85 be f0 bd 5f 3e
       -0.67500615 0.002450228 -0.26026896 0.21849799
0001a0 ec 62 30 3b 40 ce 3a 3e 59 92 b3 3d 3b c7 cf bd
       0.002691443 0.1824274 0.08768148 -0.10145422
0001b0 dc f9 d7 3d 9a eb 50 3c f5 f5 17 3d b8 36 b3 be
       0.10545704 0.012751484 0.037099797 -0.35002685
0001c0 9b 94 07 3e 44 20 41 bc 8b e1 f3 3c 44 a3 86 3c
       0.13240282 -0.011787478 0.029770633 0.016435273
0001d0 87 80 a6 bd e9 83 5a 3c d8 4f 84 bd a5 6e 58 bd
       -0.081299834 0.013337114 -0.064605415 -0.052839894
0001e0 05 af 69 40 fb 55 89 3e 3c d7 e8 bc 4a 95 0e 3e
       3.6513073 0.2682341 -0.028422944 0.13924137
0001f0 b9 6f 26 be 9d 8c 94 bf 87 01 a1 be db 99 cc be
       -0.16253556 -1.1605412 -0.31446478 -0.39961132
000200 d2 0e 8e be 02 7e 96 be d2 03 e4 bd ce f2 78 3d
       -0.27745682 -0.2939301 -0.11133541 0.06077843
000210 55 cb ac 3e 9d 71 aa 3e 84 25 33 3e d3 6c 7d 3e
       0.3374888 0.33289805 0.1749478 0.24748544
000220 8f 11 ed be 93 7f fd 3e 84 5c 16 bf 90 6e 8a be
       -0.4630246 0.49511394 -0.5873492 -0.27037477
000230 10 8e fd 3e 35 5d d6 3e d9 78 05 3f 55 fe 83 3e
       0.49522448 0.41867986 0.52137524 0.25779977
000240 b7 77 6e 3f 86 51 42 40 b9 12 e1 3e 9f 8e 3b 3e
       0.9315142 3.0362258 0.43959597 0.18316124
000250 79 07 a4 be 4b 2e 47 be 8c b0 76 3f 1d db f3 be
       -0.3203695 -0.19451253 0.9636314 -0.47628108
000260 20 df b0 be 24 76 9a bf d3 35 6b 3e 17 0f e0 3f
       -0.3454523 -1.2067304 0.22969751 1.7504605
000270 db 0e 03 3f e1 1f 02 3f b7 6b 59 3e e7 44 bb 3e
       0.5119454 0.50829893 0.21232496 0.36576006
000280 b9 3b 0a 3e ef d1 8d 3f 77 9d 80 be e7 a0 bf bf
       0.13499345 1.1079692 -0.25120136 -1.4970978
000290 4c 79 2a bf fe 6b 4d be f3 de de be 5b 94 5b bf
       -0.66591334 -0.20060727 -0.43529472 -0.8577325
0002a0 53 56 2c 40 cd b8 20 bf b0 69 2e bf 31 5f 14 3f
       2.6927688 -0.62781984 -0.68130016 0.5795775
0002b0 2c 4b 0f bf e8 0c b4 bc e0 f8 af 3d b4 dc fe bd
       -0.5597408 -0.02197881 0.08592391 -0.124444395
0002c0 c5 f5 e5 bd cb 68 24 3e 37 aa bc bd 20 75 51 be
       -0.112285174 0.160556 -0.092121534 -0.20454836
0002d0 78 61 dc 3c b7 f1 e5 bb 31 17 2a bd 97 74 85 be
       0.026901945 -0.00701734 -0.041526023 -0.26065513
0002e0 b9 af cc bc 11 fc 1c bd 86 0c 1e be 48 a9 35 be
       -0.024986135 -0.038326327 -0.15434465 -0.17740357
0002f0 35 5b 0a 3e 83 3b e3 3d 64 f4 97 bc b8 76 00 3e
       0.13511355 0.11095335 -0.018549152 0.12545288
000300 6d 56 ca 3f 5c 54 21 3f a6 b8 8a be e9 4e d9 3e
       1.5807625 0.6301935 -0.27094 0.42443016
000310 f8 82 4d be 1f 8e 47 3b e8 74 8b 3f e1 5c 24 3e
       -0.20069492 0.00304497 1.0895052 0.16051055
000320 88 82 df 3f 48 f1 fd 3c 4e 78 c9 3d 7c 22 88 be
       1.746171 0.03099884 0.098373994 -0.2658881
000330 bd 97 23 3e ac 69 5a 3f 81 4d 86 be 30 4c 32 be
       0.15975852 0.8531749 -0.26231006 -0.17411876
000340 6c d8 1f 3f 18 ae 9a 3e 17 57 ab 3d 0f 3a bf bd
       0.6243961 0.30210948 0.083662204 -0.09337246
000350 f1 2c 34 3f 33 30 1a be 09 bb 2a 3e 4f e5 29 be
       0.70381075 -0.15057449 0.16672911 -0.1659138
000360 44 90 eb 3d 47 a0 de 3f d1 a4 46 3e c9 ed 49 be
       0.11502126 1.7392663 0.1939881 -0.19719614
000370 49 66 be 3c 09 e9 2c be 28 e1 5a be a4 05 5c 3e
       0.023242133 -0.16885771 -0.21374953 0.21486527
000380 b8 27 b7 be d2 bb 97 3f ad 01 99 bc a3 bb 82 be
       -0.3577249 1.1854193 -0.018677557 -0.2553378
000390 b9 e7 df 3d 24 79 33 be f4 c5 8c be b8 b5 a3 bf
       0.109328695 -0.1752668 -0.27494776 -1.2789831
0003a0 f8 18 88 3e 07 1f 2e bf f3 c0 8b be 4e 31 30 3f
       0.2658155 -0.68016094 -0.27295646 0.68825233
0003b0 35 cd 75 bf d7 89 5d bb 1f 81 20 bd 05 ef 64 3f
       -0.96016246 -0.0033804083 -0.03918564 0.89427215
0003c0 17 52 61 3f cc 52 10 c0 67 05 34 40 2e bf 1b 3f
       0.88015884 -2.2550535 2.8128297 0.6083859
0003d0 9a 63 95 3e d8 6b e1 3e 0f 29 3f be 25 a6 84 bb
       0.29177552 0.4402759 -0.18668006 -0.0040481263
0003e0 88 35 87 3d 91 37 3a be 42 21 dd 3c 06 3b 54 3e
       0.06602007 -0.1818526 0.026993398 0.2072564
0003f0 1c 8b 84 bd 03 11 98 bd 5d f6 f8 3c 83 01 85 be
       -0.064718455 -0.0742512 0.030390913 -0.25977716

layers.0.bias f4 [32]
000000 b4 0c 53 c0 c0 09 f5 bf e8 0b 40 bf 17 4d 62 be
       -3.2976503 -1.91436 -0.7501817 -0.2209972
000010 08 94 26 c0 41 dd d5 3f 17 7e 18 bf 0f 44 0d 40
       -2.602785 1.6708146 -0.595674 2.207279
000020 e9 fc cf bf f9 01 f2 bf c3 77 3b 3f 88 df 14 3f
       -1.6249057 -1.8906852 0.73229617 0.5815358
000030 19 2c 21 40 e2 0c 19 bf 98 e1 9b bf b2 2c de bf
       2.5183165 -0.5978528 -1.2178221 -1.735739
000040 b0 42 35 bf 73 30 76 bf 0c 60 2a 3d 0c 3d 03 40
       -0.7080488 -0.9616768 0.041595504 2.050601
000050 de 05 9d 3e 38 c8 3c bf 94 c9 2a c0 d9 9b 1f bf
       0.3066854 -0.7374301 -2.6685534 -0.6234718
000060 a6 d0 e2 3f d7 52 ff bf 88 b7 f8 bf bf bb b7 bf
       1.7719924 -1.9947156 -1.9431009 -1.435417
000070 d3 88 db bf a6 b1 06 3e 89 02 ab bf f2 0a 78 bf
       -1.715113 0.13153705 -1.3360149 -0.968917

layers.2.weight f4 [32, 32]
000000 d1 a1 8d 3b b5 91 95 be 0a 7d 1a bd 0e 27 ce 3e
       0.0043222685 -0.29212728 -0.037716903 0.4026417
000010 52 e1 74 bf 6d 82 f4 3d 63 11 84 3c 34 94 d5 3d
       -0.9565631 0.11938939 0.016121572 0.10428658
000020 2e 5b aa bd d9 1e e2 3d 77 d1 42 bf 0b 2e b1 3d
       -0.083181724 0.1104104 -0.7610087 0.0865136
000030 f3 b3 8f be 9f 27 8b 3b 55 28 54 be 34 5d 18 3d
       -0.28066978 0.0042466666 -0.2071851 0.03719826
000040 c4 2a a1 bd 6b f2 20 be fc 57 f1 3b 0b f3 7f bd
       -0.07869485 -0.15717475 0.007365225 -0.062487643
000050 81 9e 1b be 52 61 3c be f8 0f f2 be aa 50 5d 3d
       -0.15197183 -0.183965 -0.47277808 0.054032005
000060 d5 bc a4 3e d8 06 97 bd 11 f6 9c 3d fc 38 6d bd
       0.32175317 -0.07374352 0.07664121 -0.057915673
000070 da ed de bd 39 e8 5f be df 25 0d be e7 10 6e be
       -0.1088521 -0.2186593 -0.13783978 -0.23248635
000080 d9 69 a2 be e0 20 d2 be a9 18 b1 bd 9d 4b bd be
       -0.3172138 -0.41040707 -0.08647282 -0.3697175
000090 56 18 20 bd aa 82 99 3e 89 b2 51 be 79 4d bf 3d
       -0.03908571 0.299825 -0.20478262 0.093409486
0000a0 a9 e7 1e 3e 78 20 81 bf 34 de aa bf 2c d6 5b 3e
       0.15518059 -1.0088034 -1.3349061 0.21468419
0000b0 ff a7 c2 3e 30 dc b4 be c7 9c 22 bf 95 fb 10 bd
       0.38018796 -0.3532424 -0.63520473 -0.035396177
0000c0 10 49 9f be 61 36 d9 bd c0 a6 00 3f 10 ed f9 be
       -0.3111043 -0.10606075 0.5025444 -0.48813677
0000d0 2e 05 00 be b3 b0 e9 be 34 a2 05 bf 51 fa 97 3d
       -0.12501976 -0.45642623 -0.5220063 0.07420791
0000e0 2b 1e 09 be ae 00 04 bf 17 a3 50 bf 67 5d 3f 3e
       -0.13390414 -0.5156354 -0.81498855 0.18687974
0000f0 62 29 cc bd 8c cf d6 be 74 86 98 3e 62 b1 a4 be
       -0.09968831 -0.4195522 0.2979008 -0.32166582
000100 d0 e1 b2 3c b5 cf bc be 96 06 21 3d 32 af f9 be
       0.021836191 -0.36877218 0.03931292 -0.48766476
000110 6f fe f2 3d 49 9a d3 be 89 cd a4 3c c7 d6 25 3e
       0.118649356 -0.41328648 0.020117538 0.16195212
000120 0f 36 e7 bd 27 ce 88 be 05 d3 15 3f d2 95 67 bd
       -0.11289608 -0.26719782 0.58525115 -0.056539364
000130 74 b8 d8 be 84 fd f0 3d 02 b1 c5 be eb 65 25 bd
       -0.42328227 0.11767104 -0.3861161 -0.0403804
000140 18 51 83 be 69 36 84 bb f8 3c 8b be e5 9d 63 3e
       -0.25647807 -0.0040348065 -0.27194953 0.222282
000150 cd c1 a7 bc 65 4f 97 be d9 8b 3d be c5 c1 c2 bc
       -0.020478154 -0.2955276 -0.18510379 -0.023774037
000160 09 09 bf 3d c1 13 21 be 9b d8 38 bd f0 68 6d bd
       0.09327895 -0.15730192 -0.045128446 -0.057961404
000170 52 83 04 be 5a c6 04 be c1 09 21 3c 96 f1 36 3d
       -0.1294072 -0.1296629 0.009828986 0.044663988
000180 94 9d 5a be 2d 66 e4 3d 47 ae 3f bf c5 46 ed bd
       -0.21349174 0.11152301 -0.748753 -0.11585764
000190 88 0d 46 be 56 fe bf 3e 50 4e 03 be 86 54 34 bf
       -0.193411 0.3749873 -0.12822843 -0.7044147
0001a0 d1 01 20 be bd fc 2d be 81 ec f5 3c b9 82 0e 3e
       -0.15625693 -0.16990943 0.03002 0.13917054
0001b0 8a 32 82 be d6 1a d5 bb f1 ea 9b be ec 08 8f 3e
       -0.25429183 -0.0065034432 -0.30452684 0.27936494
0001c0 b8 f4 80 be bd 86 16 be 84 ec d5 be fe 3e cb be
       -0.25186706 -0.14699836 -0.4178201 -0.39696497
0001d0 65 18 e6 3d 26 c3 85 3d 2e 64 69 bd 9c dc 2b 3d
       0.11235122 0.06531362 -0.056980304 0.041958436
0001e0 c7 5e 37 be bb 1d 21 3e 61 0f 8d bd ed d4 5b be
       -0.17907248 0.15733998 -0.06887699 -0.21467943
0001f0 25 3f bc 3d 1a f6 dd bf 2d 99 50 3e 07 f1 08 bd
       0.09191731 -1.7340729 0.20370932 -0.033432987
000200 5b 0d d3 be 2a d9 a8 3e a3 a5 30 c0 7a 6f 9c 3e
       -0.41221127 0.32978183 -2.7601097 0.305538
000210 b4 de 6a be da 10 7a 3e ee 5f c1 bf da 3b 95 3f
       -0.22936517 0.24420491 -1.51074 1.165889
000220 ca df 01 bf f1 eb 93 bf 02 2a 7b bf f6 53 0b bf
       -0.507321 -1.1556379 -0.98110974 -0.5442499
000230 81 14 0f c0 24 6c 14 3e dd cc 62 3f 0e 8f 84 bf
       -2.2356265 0.14494377 0.88593847 -1.0356157
000240 ed 23 02 bf f7 66 1d c0 9d f8 ca bf a5 45 fa 3e
       -0.5083607 -2.4594095 -1.5857121 0.4888126
000250 c4 3f 1d c0 a3 0c e8 3e b6 7a 56 bf 61 1d 93 3d
       -2.457017 0.4532214 -0.8378099 0.07183338
000260 6b d9 17 c0 1e e9 31 c0 b6 88 e6 3e 88 fd 81 bf
       -2.3726451 -2.7798533 0.45026177 -1.0155497
000270 b2 52 99 be 94 aa ce 3c 27 a9 f2 3e 3c f8 3a bf
       -0.29945904 0.025227822 0.47394678 -0.73035026
000280 7f 04 0e be 60 8c 39 3e 9e 08 a2 3e 52 9c 5a bf
       -0.13868903 0.18119955 0.316472 -0.85394776
000290 76 4c 82 be 24 4a 19 3f 01 20 36 bf b2 ce 38 3f
       -0.2544896 0.59878755 -0.71142584 0.7219039
0002a0 fb bf 0b c0 ff e1 c2 bf 98 2a 9f bf 66 6e 14 c0
       -2.1835926 -1.5225219 -1.2434874 -2.3192382
0002b0 53 81 28 be c2 b9 8f bf 3c fc 18 3e d9 0f be 3e
       -0.16455583 -1.1228564 0.1493997 0.37121466
0002c0 b9 b5 52 be fc 69 10 3f 48 8f 95 3e 79 be 5c bf
       -0.20577134 0.5641172 0.29210877 -0.8622814
0002d0 73 5f 33 3f 42 bf f1 3e 0d 0c 67 be d9 e8 55 3f
       0.7006752 0.4721623 -0.22563191 0.8355842
0002e0 24 32 20 bf 52 ab 30 c0 8b 7f 03 bf 61 d5 09 3f
       -0.6257651 -2.7604566 -0.5136649 0.53841215
0002f0 fb 69 14 3f 2b 9c aa be 8f 81 a2 bf 26 54 3e bf
       0.57974213 -0.33322272 -1.2695788 -0.7434715
000300 30 65 13 bf 18 92 bc c0 b6 9c f8 bf dd 3d 0e bf
       -0.57576275 -5.8928337 -1.9422824 -0.55563146
000310 31 ea 8a bf 25 f9 32 bf e9 60 1e c0 70 f9 03 bf
       -1.085272 -0.69911414 -2.474665 -0.51552486
000320 e0 9a 95 bf b2 3a 27 c0 d8 fc c7 bf e5 f3 ca 3c
       -1.1687889 -2.6129575 -1.5624037 0.024774501
000330 41 50 4d 3f 62 e6 23 c0 2e 07 8d c0 ec 7b 14 3e
       0.8020058 -2.5609365 -4.4071264 0.14500397
000340 90 6e 6d 3e 04 7f 59 be 2a fd e3 3e a1 8e 60 3e
       0.23186707 -0.21239859 0.44529086 0.21929409
000350 a7 54 2f bf bd 9b 2c c0 9c e2 12 c0 d2 60 da 3e
       -0.68488544 -2.6970055 -2.2950811 0.42651993
000360 56 5d 9c bd ea 85 55 3e de d2 e5 c0 14 e0 e1 bf
       -0.0763499 0.20851865 -7.1819906 -1.7646508
000370 07 12 9d bf af 4e bc bf 57 1a 3f 3f 3e 5a 20 bf
       -1.2271127 -1.4711512 0.74649566 -0.626377
000380 f1 31 92 3c 27 c4 07 3d d2 29 71 3d e5 af ac 3c
       0.01784608 0.03314605 0.058877774 0.021079967
000390 3d 2a ad bf 49 72 bc 3e dc 50 19 3e 06 e4 00 3f
       -1.3528515 0.36805943 0.14972252 0.50347936
0003a0 da df 08 3e 76 fe a3 bc c6 8b b9 3e 79 e7 52 ba
       0.13366643 -0.020018797 0.3623945 -0.00080453564
0003b0 41 fa 4f bf 92 03 e9 3d 75 eb a7 3e ba 15 bc 3d
       -0.8124123 0.11377634 0.32796827 0.091838315
0003c0 dc 73 a8 3e 53 30 44 bc 50 6e 27 3e f7 84 87 3f
       0.32900894 -0.011974412 0.16350675 1.0587453
0003d0 da df 59 3d 35 c4 8b 3e 5e 44 16 c0 c7 37 1e 3e
       0.053191997 0.27298132 -2.3479228 0.15450965
0003e0 41 93 9f bd d2 3e 0a bb 40 05 95 3e 8a fc 91 be
       -0.07791758 -0.0021094573 0.29105568 -0.28512985
0003f0 0e 7b 4a 3e 3d 0b 82 3e ed b7 4e bd ef 93 1a 3e
       0.19773504 0.253992 -0.050468374 0.15095495

layers.2.bias f4 [32]
000000 a6 7e ff 3f 5e 3b 48 40 e2 71 e8 3f bb 9d e9 3f
       1.9960525 3.1286235 1.8159754 1.825126
000010 61 b1 fa be 49 db c5 bf 58 6a 60 bf 5f fe 13 c1
       -0.48963454 -1.5457546 -0.8766227 -9.249602
000020 94 9a bf be e2 c7 2c 3f ab e1 37 3f 9f 7b c4 3f
       -0.3742262 0.67492497 0.71828717 1.5350226
000030 ab c1 e9 3f 23 e5 05 40 62 aa 58 3f e8 f2 f1 bf
       1.8262228 2.0921104 0.84634984 -1.8902254
000040 33 70 4a 3f cf b1 a6 3e a9 e3 34 3f fc ed 91 bd
       0.7907745 0.32557532 0.7065988 -0.0712547
000050 6e f6 97 3f 6c 69 f0 3d c0 5c 8f bf ed 32 d6 be
       1.1872079 0.117388576 -1.120018 -0.41835728
000060 25 7f 9b 3f a8 ca 68 3e 15 42 0d 40 41 61 e9 be
       1.2148176 0.22733557 2.2071583 -0.4558201
000070 ff 26 96 3f b8 ba 36 3f 07 28 52 40 03 24 7a bf
       1.1730651 0.7137866 3.283693 -0.977112

layers.4.weight f4 [21, 32]
000000 7a a8 8e be 0a 62 53 be 21 19 42 be 72 7d 0e 3f
       -0.27862912 -0.20642868 -0.18954898 0.55660164
000010 1e 68 02 be c2 48 e7 3c fe c4 94 3e 37 8d c3 3e
       -0.1273503 0.028232936 0.29056543 0.38193676
000020 ae bd 16 3f 3c 93 64 3e f9 c1 a6 3d 44 57 e3 3e
       0.5888318 0.2232179 0.08142466 0.44402516
000030 e9 91 e3 3d ec ec fa bd 69 3b 9a 3e 0b 51 65 be
       0.111118145 -0.122522205 0.3012345 -0.22394197
000040 88 46 bd 3e 54 00 9d 3e b2 4c 46 bf c8 6e fc be
       0.36967874 0.30664313 -0.7746078 -0.4930327
000050 cd a4 23 3f 82 9a c3 be a5 b5 b4 be f9 3f b0 3e
       0.6392334 -0.38203818 -0.35294834 0.34423807
000060 c8 49 87 ba ea 47 bd bd e0 4e c3 3e 83 be e0 3e
       -0.0010321671 -0.09242232 0.38146114 0.4389535
000070 e8 80 fe be f9 02 22 3f 93 d9 a2 be 9f a6 5e 3e
       -0.49707723 0.63285786 -0.3180662 0.21743248
000080 80 40 45 bd 02 da cb be 44 07 76 bd 0b cf 24 bf
       -0.048157215 -0.39814764 -0.060065523 -0.6437842
000090 4f 0d 43 3d 50 ff 58 bd 11 88 56 bf bd 87 12 3e
       0.047620114 -0.05297786 -0.8380137 0.14309593
0000a0 ba 10 91 bd cb 84 a9 bd 1c 03 d5 3d d5 4c 06 bf
       -0.070832685 -0.082772814 0.10400984 -0.52460986
0000b0 21 03 8f be 18 27 98 be cd d3 3e be 0e b6 93 bd
       -0.27932075 -0.29717326 -0.18635483 -0.072124586
0000c0 9b 5e 23 bf 82 04 c4 be 1f a1 88 3e 86 37 da 3e
       -0.6381623 -0.3828469 0.26685426 0.42620486
0000d0 f7 ea 22 bf d8 10 e7 3e 32 86 6b 3e 4b 32 19 bf
       -0.6363978 0.45130038 0.2300041 -0.59842366
0000e0 04 0a b5 3b dd 1f f2 3d 66 02 b1 be 77 37 a8 3e
       0.0055248756 0.11822484 -0.34572142 0.32854816
0000f0 cf bc 7e 3e ae 78 14 bf 38 8b 16 bd 5a bb d9 3d
       0.24876712 -0.5799664 -0.036753863 0.106314376
000100 89 e4 66 3e 41 0b 96 3f ef b8 2c 3e 3d 09 10 bd
       0.22548117 1.1722184 0.16867422 -0.03516506
000110 a9 37 55 3f 1e 93 87 3c a7 d9 00 3f 5f 2f 8a bd
       0.83288056 0.016549643 0.5033211 -0.067473166
000120 9c 90 9d be b3 37 9f 3e 1c 40 88 be 6e 79 5c 3f
       -0.3077439 0.31097183 -0.26611412 0.86122787
000130 7e b7 d1 3e 6b 00 9b 3e 35 3a 96 bf 04 94 af 3e
       0.40960306 0.30273756 -1.1736513 0.34292614
000140 fe 38 5a 3e 39 28 de 3a 49 1f 62 3e 9a ac 05 bf
       0.21310803 0.0016949243 0.22082247 -0.52216494
000150 78 c3 fc bd e6 8d e9 3e 11 47 21 3d 4d fa e1 be
       -0.1234197 0.45616072 0.039374415 -0.44136277
000160 d2 a3 54 be 25 67 8e be 20 b8 63 3d ef 34 1c 3e
       -0.20765617 -0.27813068 0.055595517 0.15254568
000170 aa 0b 29 bf fb a6 92 3d 15 98 8f 3f 31 44 a2 be
       -0.6603342 0.07160755 1.1218287 -0.3169265
000180 a5 37 34 3f 60 ac 63 3e d3 15 93 3e b2 1e bd 3e
       0.70397407 0.22233725 0.28727588 0.3693748
000190 82 98 33 bd ba 5b cd bc 80 b1 a8 3e 7d 8a 67 3e
       -0.043846615 -0.025068153 0.32947922 0.22611423
0001a0 bd 1b 3a bf 10 30 c9 bd 3c 43 57 be 60 9f 9f be
       -0.72698575 -0.0982362 -0.21021742 -0.3117628
0001b0 a6 5c d0 3e fe 8b 4c 3d 7a f0 39 3f b7 e6 d0 3e
       0.40695685 0.049938194 0.72632563 0.4080102
0001c0 1c 5c 82 3e 56 6a b9 be 37 d4 12 3f 92 99 fc 3e
       0.254609 -0.3621394 0.57355064 0.49335915
0001d0 cd 9b 2e bf 9f e9 b3 be 96 df ed 3d 0b 01 f6 3e
       -0.68206483 -0.35139176 0.11614911 0.4804767
0001e0 b6 2b 2e 3d 71 d9 df 3e 26 6f c7 be 94 f5 ce be
       0.042522155 0.43720582 -0.38951987 -0.40421736
0001f0 1a 81 ba 3e c8 0a 62 bf 00 83 c7 3c 83 6b 3f bd
       0.36426622 -0.882977 0.024354458 -0.04673339
000200 e0 97 14 bf 28 7c d7 be 39 6e 6a bf 30 38 45 bf
       -0.5804424 -0.4208691 -0.91574436 -0.7703886
000210 c3 e9 12 bf 3b 46 8d be 86 7a 0c 3f 83 2d b3 3d
       -0.5738794 -0.27592644 0.54874456 0.08748915
000220 24 df a1 3e 8d f9 ec be 61 6d 4f 3f 74 e8 f0 be
       0.31615555 -0.46284142 0.81026274 -0.47052348
000230 5b 8e 24 bf 26 cf 1e 3e 85 c8 56 bf e2 e1 00 be
       -0.6427972 0.15508708 -0.8389972 -0.12586167
000240 6f 76 94 bd 4c c5 6b 3f eb 66 3b be 16 90 78 be
       -0.07249152 0.92097926 -0.18300979 -0.24273714
000250 6a a6 cf 3e d8 be f3 be 1a 33 20 3f 47 89 54 3e
       0.4055665 -0.4760654 0.62577975 0.20755492
000260 27 28 8a 3d 67 e1 08 bf 6e 2e 2b 3f bf 21 68 bf
       0.0674594 -0.53468937 0.6686772 -0.9067649
000270 da 74 ff be f1 85 9c 3e 11 a3 80 bf 2d 12 6e bd
       -0.49893838 0.3057094 -1.0049764 -0.058122803
000280 13 98 9d 3f a3 3f 1b bf 8c 46 8a bf 13 3e 2b bd
       1.2312034 -0.60643977 -1.0802779 -0.041807245
000290 bd ef 1d bf b1 ca 56 3f 0f 10 f2 3e c6 b1 e1 3d
       -0.61693937 0.8390303 0.47277877 0.11020236
0002a0 e9 03 c3 be 85 4a a9 be b4 cb 4d be 09 26 8d bf
       -0.3808892 -0.33064666 -0.20097238 -1.1027232
0002b0 83 a2 30 bf 95 26 83 bf 15 88 6d 3f 35 0c 3f 3f
       -0.68997973 -1.0246149 0.9278577 0.74628
0002c0 7b b9 56 bf af 4e ff bf d0 0e ff be 92 93 96 3f
       -0.8387677 -1.9945887 -0.4981599 1.1763785
0002d0 5c 87 8c 3c 84 2b 13 3e 2a 26 ef 3e a8 1a 2a 3f
       0.017154388 0.14372069 0.46708804 0.66446924
0002e0 20 3b a4 3e 99 42 94 3f 83 c9 d9 be 88 eb 35 bf
       0.3207636 1.1582824 -0.42536554 -0.7106252
0002f0 54 1e 2d 3f 4a b5 b8 bf 67 df bd bf 35 9b 95 3f
       0.676244 -1.4430325 -1.4833802 1.168799
000300 7f 42 23 bd e4 69 c6 be e9 6b 62 be 4b 30 91 3e
       -0.039858337 -0.38752663 -0.22111477 0.28357157
000310 6c 92 70 bf 03 e5 e6 bd 97 56 7e be d0 84 3c 3f
       -0.9397342 -0.11274149 -0.24837719 0.73640156
000320 56 27 a2 3f 69 a4 a4 bd 5e a0 52 bf 9a ec d0 bf
       1.2668254 -0.08039171 -0.8227595 -1.6322205
000330 83 68 13 c0 83 5e 1c bf 79 7e 10 3f a9 36 8f be
       -2.303254 -0.61081713 0.5644298 -0.2797139
000340 d3 4f 6c bf 5b aa e1 bf 31 a7 f7 3e 98 c6 17 be
       -0.923093 -1.7630113 0.48369744 -0.14821851
000350 43 3b dc be 95 90 bb be 03 3e ff be c1 e8 de 3e
       -0.43013963 -0.36633745 -0.49852 0.43536952
000360 49 73 f5 3f ad 6a 3c 3f 5e b5 6f bf 9a 22 a9 bf
       1.9175807 0.73600274 -0.9363612 -1.3213685
000370 4c 84 fc 3e ef eb da bf a8 a7 b2 bf 30 b0 33 3f
       0.49319685 -1.7103251 -1.3957415 0.70190716
000380 cb f5 46 bd c1 71 84 3e 65 5b ab 3e 4c 4e dc bd
       -0.04857425 0.25868037 0.33468166 -0.107571214
000390 3f d7 48 40 b6 fe 04 3f 71 e3 14 3f de 44 d6 3d
       3.1381376 0.5195116 0.5815955 0.10462354
0003a0 03 39 0e c0 86 13 2a bf ea 00 9f 3f ed 0c 31 40
       -2.2222297 -0.6643604 1.2422154 2.766414
0003b0 93 16 47 40 7e d0 60 3f c1 28 f1 bf bf 86 aa 3d
       3.1107528 0.87818134 -1.8840562 0.08326482
0003c0 80 4f 3c bf e6 30 72 3f 2b 18 2e bf 26 c6 aa 3e
       -0.7355881 0.94605863 -0.6800563 0.333543
0003d0 7a 55 bf bf 12 9b d3 3f ec bd 29 3f 02 f4 27 bd
       -1.494796 1.6531699 0.6630542 -0.04100419
0003e0 b8 2e a2 bf 77 3d 7f 3e 7f 1c b3 3f 8c e9 63 3f
       -1.2670507 0.2492579 1.3993071 0.8902824
0003f0 6d 90 53 c0 d5 6d 8f 3f 8e 3f 09 40 8e ef e3 bf
       -3.30569 1.1205393 2.144504 -1.7807481

layers.4.bias f4 [21]
000000 27 71 8e c0 95 ab 7c c0 7d a3 a0 bf 62 04 62 c0
       -4.4513125 -3.9479725 -1.2549893 -3.5315175
000010 e6 4c 51 c0 41 64 90 c0 ee 78 0b c0 d7 e4 7c bf
       -3.2703185 -4.512238 -2.179256 -0.9878668
000020 bb 33 68 c0 42 c0 65 c0 13 bd 16 bf a5 84 ff be
       -3.6281574 -3.5898595 -0.58882254 -0.49905887
000030 20 bd b2 be 37 02 56 c0 f8 0c 2c c0 c1 b0 85 3f
       -0.34909916 -3.3438852 -2.6882915 1.0444566
000040 ff 21 2a c0 a5 d1 da be 6f 5c a0 3f f7 b2 10 40
       -2.658325 -0.4273807 1.2528208 2.2609231
000050 e5 a5 85 3f
       1.0441252

exp_avg f4 [32, 24]
000000 aa e4 b3 c4 0b 26 84 c4 34 c9 4a c4 75 4e 27 c4
       -1439.1458 -1057.1888 -811.1438 -669.2259
000010 80 22 0b c4 27 09 b9 44 c0 58 46 45 a8 1a fc 44
       -556.53906 1480.286 3173.5469 2016.833
000020 a8 4b bd c4 52 22 d0 44 22 6e ec c4 e2 ca 35 45
       -1514.3643 1665.0725 -1891.4417 2908.6802
000030 12 3f ab 44 37 d9 7b c4 08 c3 15 45 b2 30 27 45
       1369.971 -1007.394 2396.1895 2675.0435
000040 34 3f 8b 44 73 d4 07 c4 8b db 28 c5 6b a8 88 44
       1113.9751 -543.3195 -2701.7214 1093.2631
000050 dd b7 02 45 07 e5 0c 45 09 4d d5 c3 51 12 89 44
       2091.4915 2254.3142 -426.60184 1096.5724
000060 33 c2 11 45 af 31 0e 45 7f 08 b7 44 42 41 9b c4
       2332.1375 2275.1052 1464.2655 -1242.0393
000070 5e f8 51 c4 7f e2 58 c4 63 e3 01 c5 b0 68 ba 44
       -839.88074 -867.539 -2078.2117 1491.2715
000080 1c 06 1e 44 c6 86 8c c3 3f 77 a4 44 16 ea 65 c3
       632.09546 -281.05292 1315.7264 -229.9144
000090 d2 1d 85 43 3e b4 32 44 f3 ad 2d 44 74 47 d0 c3
       266.23297 714.8163 694.71796 -416.55823
0000a0 6d 4b e2 44 3e 6d c3 c2 50 96 c0 44 d1 43 a6 c4
       1810.357 -97.71336 1540.6973 -1330.1193
0000b0 82 71 b9 c4 c0 84 dc 44 61 30 f4 c1 f0 a2 1f 44
       -1483.5471 1764.1484 -30.523623 638.5459
0000c0 56 e0 a8 44 64 49 b1 44 0b 6c 9a c3 da 86 5d c4
       1351.0105 1418.2935 -308.8441 -886.10706
0000d0 b8 7f d6 42 02 fe 78 c4 5e bf 63 c4 40 98 d6 44
       107.24945 -995.9689 -910.9901 1716.7578
0000e0 c9 47 3c 42 99 90 e3 c4 8c 20 11 45 1f 13 8e 43
       47.070103 -1820.5187 2322.0342 284.14938
0000f0 12 a2 50 44 cd 84 a0 c4 a9 be 2e 45 aa 39 09 c4
       834.53235 -1284.15 2795.9163 -548.901
000100 34 d7 f9 44 36 e4 a5 c4 4c 06 04 45 3d 6b 32 c4
       1998.7251 -1327.1316 2112.3936 -713.6756
000110 9d 77 e1 c4 5a e1 b1 44 50 98 c8 c3 4c e3 84 c3
       -1803.7379 1423.0422 -401.18994 -265.77576
000120 97 31 a4 c7 af a5 a4 c7 7b e4 91 c7 23 0d 9a c6
       -84067.18 -84299.37 -74696.96 -19718.568
000130 7d 70 a5 c7 ab 8d 2e 47 1d 61 8e c6 89 9c 3d c7
       -84704.98 44685.668 -18224.557 -48540.535
000140 58 7a a8 c6 e3 4e be c6 0c 67 e1 45 d9 fb 4a 47
       -21565.172 -24359.443 7212.881 51963.848
000150 82 ff 83 47 37 09 d2 c6 dc 74 3f c5 69 5b 54 47
       67583.016 -26884.607 -3063.3037 54363.41
000160 e9 27 39 47 61 a7 e1 c6 57 a3 77 c6 28 f6 75 c6
       47399.91 -28883.69 -15848.835 -15741.539
000170 00 19 60 46 25 bf cf 44 b0 14 e1 c6 65 6e 60 c6
       14342.25 1661.9733 -28810.344 -14363.599
000180 bf a5 14 47 d4 53 4e 47 4d 53 3b 47 34 27 05 c6
       38053.746 52819.83 47955.3 -8521.801
000190 58 49 3e c7 a9 57 29 c7 63 30 d1 c6 d0 82 05 46
       -48713.344 -43351.66 -26776.193 8544.703
0001a0 30 e7 df 45 f4 75 04 c7 46 62 e0 46 4c 94 b5 45
       7164.8984 -33909.953 28721.137 5810.537
0001b0 4d 18 17 47 cc c9 2d c6 e5 e3 6f c5 59 8d f3 46
       38680.3 -11122.449 -3838.2434 31174.674
0001c0 28 78 ea 46 54 11 f7 c5 b1 6a 89 46 4c 57 c7 c6
       30012.078 -7906.166 17589.346 -25515.648
0001d0 42 15 b4 c6 9f 78 b8 46 e7 9a fe c6 cb f3 d0 44
       -23050.629 23612.31 -32589.451 1671.6185
0001e0 10 a4 4c c4 7b 0d 83 45 9a 65 97 c4 1f 91 27 c5
       -818.5635 4193.685 -1211.175 -2681.07
0001f0 27 d7 57 c5 d5 2a bf 44 a6 d2 88 45 41 1d 3d 44
       -3453.447 1529.3385 4378.331 756.4571
000200 7c b9 28 45 cc 8a 5c c5 11 54 46 c5 63 0f ba 42
       2699.5928 -3528.6748 -3173.2542 93.03005
000210 de 00 9d 43 af dd b5 44 68 3b 65 c5 15 9c 86 45
       314.00677 1454.9276 -3667.713 4307.5103
000220 03 f8 0c 44 e7 93 f7 c2 5b 1f 16 46 82 8c c5 44
       563.8752 -123.78887 9607.839 1580.3909
000230 df 07 7f c5 50 01 e6 45 7f 3d ce 43 5c ae 49 45
       -4080.492 7360.164 412.48044 3226.8975
000240 dc 90 9f c4 97 2b e6 c4 74 5f a3 43 f6 bc 1c 45
       -1276.5269 -1841.3622 326.74573 2507.81
000250 67 49 77 c4 5c 44 3b 45 21 69 52 45 50 6e 5e c4
       -989.1469 2996.2725 3366.5706 -889.72363
000260 71 ba 51 c5 28 75 54 44 5a 8f d4 c4 57 5c aa c3
       -3355.6526 849.83057 -1700.4797 -340.7214
000270 24 7f b1 c4 f7 a3 b4 c4 b0 a9 c8 c3 75 d1 60 c4
       -1419.9731 -1445.1239 -401.32568 -899.27277
000280 fb 4e ae c4 d0 ed 8c c2 f2 dd 31 c4 34 c1 29 45
       -1394.4681 -70.46448 -711.4679 2716.0752
000290 9f da ec 44 8f a7 73 c4 57 8d 4a 45 ef 1f 4d c4
       1894.8319 -974.6181 3240.8337 -820.49896
0002a0 2b c1 fd c6 4e a4 99 c6 8f 8c 41 c6 d3 eb db 46
       -32480.584 -19666.152 -12387.14 28149.912
0002b0 06 61 0c c7 3e e9 45 47 58 70 88 c6 1b f1 3c 46
       -35937.023 50665.242 -17464.172 12092.276
0002c0 9a c7 74 c6 70 3d 03 c6 7c cd a3 46 97 50 0e 46
       -15665.9 -8399.359 20966.742 9108.147
0002d0 03 3b f3 46 1c 2a be c6 18 99 e3 c4 94 e4 40 46
       31133.506 -24341.055 -1820.7842 12345.145
0002e0 c1 3f ab 46 ba 93 9c c5 18 2f 85 c5 00 83 4b 44
       21919.877 -5010.466 -4261.8867 814.0469
0002f0 d9 db aa 45 11 7d 96 c4 b9 ac 27 c6 b8 6a d3 43
       5467.481 -1203.9083 -10731.181 422.83374
000300 b0 0c 05 c5 a9 a9 f7 c4 10 d5 ab c4 43 5c 9e 44
       -2128.793 -1981.3019 -1374.6582 1266.8832
000310 a7 68 6d c4 75 21 07 45 4b 72 2b 45 b2 c9 ac c4
       -949.6352 2162.091 2743.1433 -1382.303
000320 08 74 8a c4 2f dc 89 44 ef 7d cc c2 79 61 e8 44
       -1107.626 1102.8807 -102.245964 1859.046
000330 b2 83 a0 44 a7 07 10 44 de 89 86 44 a1 2b 7b 44
       1284.1155 576.11957 1076.3083 1004.6817
000340 6d 8f 1b c2 f6 e6 26 44 c4 6e 31 42 61 0a 40 44
       -38.890064 667.60876 44.35817 768.1622
000350 c2 4a db 44 b4 db 09 c4 5b 25 60 42 3d e4 b7 c3
       1754.3362 -551.43286 56.03648 -367.7831
000360 08 de 54 45 0a 9c 93 45 3f 60 88 44 fd 0d 5c c5
       3405.877 4723.505 1091.0077 -3520.8743
000370 a3 34 45 c4 93 e6 59 c5 b8 e7 ab c3 13 58 d3 43
       -788.82245 -3486.411 -343.8103 422.68808
000380 d3 42 12 45 3f 07 83 c5 df 96 af c2 4f 05 d6 44
       2340.1765 -4192.906 -87.79467 1712.1659
000390 4e 36 12 c5 f9 e4 ad 44 75 30 66 45 06 d4 a5 44
       -2339.394 1391.1554 3683.0286 1326.6257
0003a0 b8 39 fe 43 48 da cf c4 5c ef 91 45 6c 76 e7 c4
       508.45093 -1662.8213 4669.92 -1851.7007
0003b0 4c 69 27 c4 4e 51 ea 43 59 34 29 c5 73 8f 23 43
       -669.64526 468.6352 -2707.2717 163.56035
0003c0 34 13 06 c7 51 5d 27 c7 10 8b 1d c7 49 05 06 47
       -34323.203 -42845.316 -40331.062 34309.285
0003d0 c9 95 fa c5 eb 4d 8d 45 98 56 d2 c5 51 cd 66 c4
       -8018.723 4521.7397 -6730.824 -923.20807
0003e0 ab 01 49 c7 6b 99 cd 46 18 54 98 45 ab f8 dd c5
       -51457.668 26316.709 4874.5117 -7103.0835
0003f0 a1 c8 52 c6 a9 53 ea c6 47 28 e8 46 a9 d2 6b c6
       -13490.157 -29993.83 29716.139 -15092.665

exp_avg_sq f4 [32, 24]
000000 2b 0a af 51 ba 8c e6 51 87 41 52 52 f3 fa 32 50
       9.397373e+10 1.23775435e+11 2.2576062e+11 1.2011163e+10
000010 4e 0f 8a 50 b6 d4 c6 50 1c 5c 69 52 0e 4f 69 52
       1.853007e+10 2.6686632e+10 2.5056818e+11 2.5051342e+11
000020 65 29 69 52 06 50 69 52 87 52 69 52 0d 1a 69 52
       2.5035547e+11 2.5051749e+11 2.5052799e+11 2.5029111e+11
000030 ea 43 69 52 72 37 69 52 2d 92 68 52 0a d8 5e 52
       2.504667e+11 2.504144e+11 2.4972121e+11 2.3927682e+11
000040 7f 70 67 52 02 5c 14 52 61 d6 67 52 ad 7f 6c 50
       2.485062e+11 1.592997e+11 2.4893353e+11 1.5871161e+10
000050 ca 3e 5e 52 99 a5 68 52 79 7c 66 52 2a ad fa 51
       2.3863404e+11 2.4980267e+11 2.474827e+11 1.3458088e+11
000060 26 e2 12 51 21 9a 1e 51 a3 a2 73 51 fe 73 b1 4f
       3.942871e+10 4.2574418e+10 6.5400353e+10 5.954338e+09
000070 f8 30 de 4f 90 3f 18 51 49 a1 79 51 ba f9 78 51
       7.4555023e+09 4.086884e+10 6.700955e+10 6.683385e+10
000080 23 4d 79 51 50 6a 79 51 75 72 79 51 34 ed 77 51
       6.6921312e+10 6.6951905e+10 6.6960445e+10 6.6552283e+10
000090 ca aa 79 51 2e 46 79 51 08 42 77 51 ae 22 70 51
       6.7019514e+10 6.6914017e+10 6.6372796e+10 6.4460874e+10
0000a0 a9 6c 71 51 c9 03 fa 50 69 37 5c 51 01 8f f5 50
       6.4806883e+10 3.3556417e+10 5.9113902e+10 3.2958319e+10
0000b0 d6 8d 6c 51 76 be 73 51 76 41 59 51 9c ba 19 51
       6.3499493e+10 6.542953e+10 5.8319135e+10 4.12663e+10
0000c0 10 30 3d 51 99 4b 26 51 a6 3f 2e 51 60 aa fe 50
       5.07847e+10 4.4639556e+10 4.677451e+10 3.4180628e+10
0000d0 4c 3a 2f 51 14 3c 92 50 f8 1f 8a 51 f5 4c 8a 51
       4.7037334e+10 1.9627287e+10 7.415523e+10 7.424958e+10
0000e0 e3 50 8a 51 a2 92 8a 51 6e 3d 8a 51 db 87 8a 51
       7.425782e+10 7.43957e+10 7.421701e+10 7.4373095e+10
0000f0 1d 79 8a 51 f9 ed 86 51 19 6f 89 51 dc f2 86 51
       7.434218e+10 7.243977e+10 7.37843e+10 7.2450015e+10
000100 34 8b 7d 51 15 fa 57 51 f6 78 87 51 be 9c 0f 51
       6.8060135e+10 5.7975853e+10 7.273125e+10 3.8550626e+10
000110 c5 5a 87 51 54 63 7e 51 ea ab 87 51 5e 48 1b 51
       7.266793e+10 6.828676e+10 7.28381e+10 4.168338e+10
000120 c4 4d ed 52 f1 20 da 52 a5 a1 1f 53 b4 0b 98 52
       5.0960597e+11 4.6842777e+11 6.8561175e+11 3.265157e+11
000130 3a d3 81 52 75 a8 b3 52 1c 2f dd 52 68 d3 dc 52
       2.787973e+11 3.858127e+11 4.7498907e+11 4.742198e+11
000140 1b 4f dc 52 95 3f dc 52 18 97 dc 52 d7 c2 db 52
       4.7311e+11 4.7297977e+11 4.7371387e+11 4.7193335e+11
000150 58 ac dc 52 d6 43 dc 52 e0 63 da 52 41 52 d2 52
       4.7389213e+11 4.7301545e+11 4.6898925e+11 4.5166156e+11
000160 1f 4b ce 52 ad 40 48 52 ae 7a d2 52 d9 23 49 52
       4.430118e+11 2.1501963e+11 4.5200068e+11 2.1597246e+11
000170 2d 35 d2 52 cd ab d3 52 ee 4a cf 52 8e 15 75 52
       4.5141764e+11 4.5456022e+11 4.4515767e+11 2.6315715e+11
000180 6f 2a ab 52 3a fa 86 52 ed 29 f3 52 9b 69 38 52
       3.6757566e+11 2.8986186e+11 5.2219023e+11 1.9801144e+11
000190 e8 c3 50 52 fd 6a 62 52 8c 61 ea 52 35 f5 ea 52
       2.2415999e+11 2.431144e+11 5.0332946e+11 5.0456812e+11
0001a0 13 4d ea 52 74 70 e9 52 96 6c e9 52 d8 b3 ea 52
       5.0315772e+11 5.01307e+11 5.0127457e+11 5.040198e+11
0001b0 53 36 ea 52 36 fc e9 52 40 49 e6 52 3a 9a e0 52
       5.0296688e+11 5.024794e+11 4.945357e+11 4.8233008e+11
0001c0 ef 5c db 52 95 77 23 52 47 be df 52 63 79 79 52
       4.710785e+11 1.7552148e+11 4.80485e+11 2.6787085e+11
0001d0 fb 64 de 52 36 d4 d7 52 77 0a b4 52 98 ef 30 52
       4.7758846e+11 4.6348914e+11 3.8663484e+11 1.8998349e+11
0001e0 d3 a6 cd 4f a5 f7 10 50 80 e4 42 50 a3 96 1b 50
       6.9005245e+09 9.728595e+09 1.307902e+10 1.0441362e+10
0001f0 e0 54 1b 50 9c 1a 2f 50 94 86 8c 50 09 dd 91 50
       1.0424123e+10 1.1751027e+10 1.886104e+10 1.9577457e+10
000200 34 b8 8a 50 e6 2b 84 50 2a e4 80 50 0f cf 94 50
       1.8618622e+10 1.7739756e+10 1.7299493e+10 1.9972782e+10
000210 33 01 87 50 11 14 88 50 53 57 93 50 0f db 7b 50
       1.8120022e+10 1.8264132e+10 1.977579e+10 1.690175e+10
000220 fb f3 89 50 24 39 cc 4f 78 af 83 50 1d 8d ee 4f
       1.8515745e+10 6.8525937e+09 1.7674519e+10 8.004451e+09
000230 97 75 83 50 37 b0 7b 50 83 6d 76 50 2d 3a e8 4f
       1.7644173e+10 1.6890519e+10 1.6537488e+10 7.7922534e+09
000240 45 b9 db 50 c0 93 c5 50 b0 a8 11 51 da 27 af 4f
       2.9490817e+10 2.6518356e+10 3.9100023e+10 5.877249e+09
000250 d6 31 62 50 6b 4f cb 50 6d 1c 88 51 7b 9f 8b 51
       1.5179667e+10 2.7287837e+10 7.307406e+10 7.495951e+10
000260 21 72 8a 51 e1 d9 8a 51 d5 f4 89 51 cb 57 8a 51
       7.432753e+10 7.454511e+10 7.4064765e+10 7.42723e+10
000270 53 28 8b 51 7a fd 8a 51 90 89 79 51 20 61 7f 51
       7.470962e+10 7.4619765e+10 6.6984673e+10 6.8552884e+10
000280 f4 90 84 51 21 3e ee 50 61 2c 5f 51 ad c8 94 50
       7.117095e+10 3.1976393e+10 5.990764e+10 1.9969436e+10
000290 69 67 68 51 65 ba 6d 51 47 14 5f 51 5b 42 f6 50
       6.238546e+10 6.381465e+10 5.988237e+10 3.305235e+10
0002a0 25 60 d7 52 86 2c ce 52 ee 21 2c 53 25 0b 5d 52
       4.625155e+11 4.4275512e+11 7.393036e+11 2.3734369e+11
0002b0 8b 02 80 52 ae 75 9e 52 af 15 11 53 bb 90 12 53
       2.7489924e+11 3.402896e+11 6.2313405e+11 6.294934e+11
0002c0 f1 ea 11 53 b1 72 12 53 91 21 12 53 1c 67 12 53
       6.267119e+11 6.289894e+11 6.276284e+11 6.287951e+11
0002d0 3a 38 12 53 31 f4 11 53 a9 e1 08 53 51 96 0a 53
       6.2800855e+11 6.268671e+11 5.879015e+11 5.952274e+11
0002e0 94 f0 0a 53 6c 5f af 52 32 6b 07 53 d9 2a 25 52
       5.967417e+11 3.766101e+11 5.81619e+11 1.7734712e+11
0002f0 2f 34 0d 53 a7 66 0c 53 e9 d4 0a 53 77 57 af 52
       6.064659e+11 6.0301764e+11 5.962775e+11 3.7654335e+11
000300 dd cc 6d 51 31 40 8e 51 dc d0 e4 51 e4 f3 e2 50
       6.3834018e+10 7.637029e+10 1.2284458e+11 3.0461075e+10
000310 bf 19 20 51 44 d8 48 51 09 8b 56 52 c4 51 61 52
       4.297667e+10 5.3913862e+10 2.303639e+11 2.4193486e+11
000320 c5 1b 60 52 4e ca 60 52 ed 9c 5f 52 cd c8 61 52
       2.4063464e+11 2.413667e+11 2.4010262e+11 2.4243413e+11
000330 8c d5 61 52 bd 72 61 52 19 87 5f 52 f4 a9 4a 52
       2.4248759e+11 2.4207316e+11 2.4001107e+11 2.1760868e+11
000340 69 37 5b 52 e3 59 8b 51 18 bd 4f 52 e2 b8 79 51
       2.3538187e+11 7.481356e+10 2.2305767e+11 6.7034292e+10
000350 0e 77 4f 52 df 08 5a 52 95 89 f3 51 30 af 67 51
       2.2276391e+11 2.3411293e+11 1.3074816e+11 6.2192288e+10
000360 4e 9c 93 51 35 01 78 51 14 49 0b 52 a2 9a ae 50
       7.924782e+10 6.657326e+10 1.4955663e+11 2.3434957e+10
000370 ef 4a 82 50 0f 37 5d 51 b0 ae 17 52 a6 e6 17 52
       1.7487591e+10 5.938197e+10 1.628677e+11 1.6310243e+11
000380 55 07 17 52 01 c6 17 52 75 cc 17 52 52 a4 17 52
       1.6216577e+11 1.629655e+11 1.6299257e+11 1.6282422e+11
000390 5e d9 17 52 fb 7b 17 52 44 a6 17 52 f9 40 14 52
       1.6304672e+11 1.6265503e+11 1.6283238e+11 1.591863e+11
0003a0 99 be 0e 52 b8 08 d1 51 e9 42 eb 51 fb 4b 0a 51
       1.5327076e+11 1.12224305e+11 1.26304985e+11 3.7123764e+10
0003b0 7c 2f 12 52 68 6e 08 52 74 44 14 52 de 7d 98 51
       1.5696547e+11 1.4649197e+11 1.592009e+11 8.186834e+10
0003c0 8e 8d f0 51 bd 50 29 52 88 e4 86 51 1e cd 58 52
       1.2914588e+11 1.8180101e+11 7.241997e+10 2.3278856e+11
0003d0 be 0a 31 52 6d 52 cd 51 6f b6 ea 51 49 9c ea 51
       1.9009736e+11 1.102314e+11 1.26010384e+11 1.2595555e+11
0003e0 39 9f ea 51 da 11 e9 51 03 74 e7 51 1f 3d eb 51
       1.2596171e+11 1.2512836e+11 1.24260475e+11 1.26292845e+11
0003f0 e4 1f eb 51 3b 51 d5 51 71 f1 e7 51 d7 13 cf 51
       1.2623154e+11 1.1452386e+11 1.2452352e+11 1.1117389e+11

exp_avg f4 [32]
000000 76 56 e3 c2 93 33 54 45 1e 8c 89 45 b3 c9 ba 47
       -113.66887 3395.2234 4401.5146 95635.4
000010 2d d0 ea c6 61 f0 58 c6 18 11 70 c5 a8 ec bf 45
       -30056.088 -13884.095 -3841.0684 6141.582
000020 4f a3 4a c3 e2 6c 32 45 e5 9c 18 47 33 b0 a1 46
       -202.63792 2854.8052 39068.895 20696.1
000030 5b e2 00 c7 42 d4 8b c6 de 38 81 46 d9 cf 19 45
       -32994.355 -17898.129 16540.434 2460.9905
000040 fc 10 38 46 dc 88 55 c6 01 c8 01 46 ea df 17 47
       11780.246 -13666.215 8306.001 38879.914
000050 f8 d8 fc 45 c4 20 8e c4 07 6f fc 47 8b 27 2b 45
       8091.121 -1137.0239 129246.055 2738.4714
000060 97 d9 62 c6 47 4e 47 c3 d2 bf 8d c5 69 3c 0e 44
       -14518.397 -199.30577 -4535.9775 568.9439
000070 22 f3 d2 44 ce 4e 87 43 39 57 8a c4 19 48 3f c5
       1687.5979 270.61566 -1106.7257 -3060.506

exp_avg_sq f4 [32]
000000 83 80 4a 51 9c 19 ad 50 08 50 1c 51 49 8f bf 52
       5.4358716e+10 2.3233094e+10 4.195985e+10 4.1137134e+11
000010 2d 1d 22 52 75 45 88 50 1d 30 6f 50 90 83 95 52
       1.7406855e+11 1.8290026e+10 1.6051631e+10 3.210787e+11
000020 c8 75 1f 51 b6 17 0a 51 ca 0e 9f 52 39 15 1f 52
       4.280474e+10 3.7068956e+10 3.4157396e+11 1.7081396e+11
000030 28 a8 73 52 23 08 33 50 db 84 d7 4f a6 27 0d 50
       2.6162456e+11 1.201462e+10 7.2316165e+09 9.472743e+09
000040 54 d9 e7 51 11 30 ac 50 f4 27 66 52 d0 c8 16 52
       1.2447295e+11 2.311065e+10 2.471282e+11 1.6190354e+11
000050 99 83 2d 51 58 6f 67 50 0c ed 70 53 37 8d 06 51
       4.6577324e+10 1.5531336e+10 1.03476914e+12 3.6118426e+10
000060 14 05 36 51 98 97 2a 50 86 a4 f0 51 44 a1 05 51
       4.8860578e+10 1.1448246e+10 1.2919405e+11 3.5871015e+10
000070 8e 8b f9 50 fe 5d 58 50 30 ab 24 51 1b 05 18 50
       3.3493381e+10 1.4520154e+10 4.4202918e+10 1.0201886e+10

exp_avg f4 [32, 32]
000000 8e 56 de c5 81 2b 50 c6 c9 84 48 c5 61 65 1e 47
       -7114.8193 -13322.876 -3208.299 40549.38
000010 92 62 82 45 9b 95 8c c6 40 16 10 c6 ab f2 76 c6
       4172.3213 -17994.803 -9221.5625 -15804.667
000020 df f7 26 c5 ae d8 39 c5 b8 b6 7d 42 ec 27 fe c5
       -2671.492 -2973.5425 63.428436 -8132.99
000030 48 1d 30 c7 bf 03 62 c5 54 e4 c7 c4 5d 21 e8 c5
       -45085.28 -3616.2341 -1599.1353 -7428.1704
000040 15 a7 1a 46 f0 cd 81 45 bb 8e 84 c3 19 32 6c c6
       9897.7705 4153.742 -265.11508 -15116.524
000050 0d fa 9f c2 06 77 00 c6 37 de 74 47 75 c1 da c5
       -79.98838 -8221.756 62686.215 -7000.182
000060 35 73 2c c5 d1 2e 11 c5 ee 09 5a c6 6b 31 de 40
       -2759.2004 -2322.926 -13954.482 6.9435325
000070 f8 8b 2c c5 48 6c 69 c6 e7 7e 2e c5 69 b3 cd 46
       -2760.748 -14939.07 -2791.9314 26329.705
000080 b6 cb eb c2 e9 f5 39 44 14 4f 76 44 08 31 23 c7
       -117.89787 743.84235 985.2356 -41777.03
000090 54 44 85 c7 45 42 d6 c6 9f 51 6c 45 5a 11 e5 c7
       -68232.66 -27425.135 3781.1013 -117282.7
0000a0 03 d5 b9 43 6b 66 8b c2 98 c0 fa c6 b5 af 27 c6
       371.66415 -69.700035 -32096.297 -10731.927
0000b0 b2 2d 18 c8 3b 98 d6 c5 af f4 c6 c3 b7 21 94 45
       -155830.78 -6867.029 -397.9116 4740.2144
0000c0 01 32 d6 c7 d5 08 09 c7 18 7e 0b c6 e2 2e 8b c6
       -109668.01 -35080.832 -8927.523 -17815.441
0000d0 da 8a 3f 44 9c 55 9b c4 d8 a7 6b c8 c5 7c 07 46
       766.16956 -1242.6753 -241311.38 8671.192
0000e0 97 8e 4a c6 00 19 dd c3 97 52 fe 43 3c 17 a1 43
       -12963.647 -442.1953 508.64523 322.18152
0000f0 84 54 d5 44 e7 bd f4 c4 b3 d2 8f c4 6d 2c 57 c6
       1706.6411 -1957.9344 -1150.5844 -13771.106
000100 6b e8 71 45 65 c5 e8 c4 94 55 32 43 0c aa cb c6
       3870.5261 -1862.1686 178.33429 -26069.023
000110 32 f8 a8 c7 42 ec 85 45 cd c3 04 c6 a8 4e 13 c7
       -86512.39 4285.532 -8496.95 -37710.656
000120 3a 91 5a 44 5c 87 a6 44 20 c4 56 46 78 13 33 c5
       874.26917 1332.23 13745.031 -2865.2168
000130 57 08 82 c6 2a bb a4 44 56 62 49 c5 9b 14 07 c6
       -16644.17 1317.8489 -3222.146 -8645.151
000140 bf e3 35 c7 d1 5e 2c c6 6a c6 97 c5 4c 77 e6 c5
       -46563.746 -11031.704 -4856.802 -7374.912
000150 65 b7 05 45 36 b5 60 44 d1 2c 37 c8 e7 e9 53 c4
       2139.4622 898.8314 -187571.27 -847.6547
000160 38 1e 8d c5 df 17 a4 43 23 2b 3c 44 90 3d 9c c3
       -4515.7773 328.1865 752.674 -312.48096
000170 a3 e3 8e 44 36 a3 45 c5 4e b0 6e 44 4c 45 28 46
       1143.1136 -3162.2007 954.75476 10769.324
000180 77 2a 6b c3 90 62 92 43 0e 63 0c c4 7f ba ee 46
       -235.16588 292.77002 -561.5477 30557.248
000190 d9 d9 83 46 c2 98 c1 45 9f 00 75 45 01 db cf 45
       16876.924 6195.0947 3920.0388 6651.3755
0001a0 55 09 0b 43 ca ca df 3f 4f 8c 41 46 c1 c5 96 45
       139.03645 1.7483761 12387.077 4824.719
0001b0 f2 73 9f 46 07 0f 2c c6 31 51 3e c3 6a 49 9e 45
       20409.973 -11011.757 -190.31715 5065.177
0001c0 ef e0 d7 42 dc ba 98 c2 88 c7 b5 43 1c ca 3f 46
       107.93932 -76.36496 363.55884 12274.527
0001d0 b1 c1 34 c5 08 4c 3e c4 0a 0f d8 46 0b 59 55 c6
       -2892.1057 -761.188 27655.52 -13654.261
0001e0 a7 11 d0 45 4f 1e 6e c4 56 52 31 c6 3a a3 18 c1
       6658.2065 -952.4736 -11348.584 -9.53985
0001f0 c4 eb 10 c7 fa a3 61 42 72 5c 72 c4 1c 7d e9 c4
       -37099.766 56.410133 -969.44446 -1867.9097
000200 d5 e4 2c b8 be 90 ea 3c 8c b5 90 b9 e8 1f 69 3d
       -4.1221112e-05 0.028633472 -0.00027601083 0.056915194
000210 b0 da 47 b8 25 66 1f 38 a2 69 1e b9 6c 3b 24 38
       -4.7648966e-05 3.8003684e-05 -0.00015107405 3.9155988e-05
000220 31 c9 54 b8 d1 5a f2 b8 6c a0 95 3c 5f 46 64 b8
       -5.0732113e-05 -0.00011556375 0.018264972 -5.4424974e-05
000230 00 d5 58 b9 8b 30 1f 3d 71 cb b9 38 35 2f d9 b8
       -0.00020678714 0.038864654 8.859381e-05 -0.00010356159
000240 ef 45 7e 3b 9e f1 80 b9 26 46 26 b9 8f aa 05 3d
       0.0038799008 -0.0002459408 -0.00015857126 0.03263336
000250 82 d1 80 b9 4b 18 3e 38 43 83 7c 3c 58 b7 ef 36
       -0.00024570158 4.5322155e-05 0.015412155 7.144099e-06
000260 31 ca 78 b9 8b be 91 b9 5e d1 3c 38 e4 f9 d4 b8
       -0.00023726445 -0.0002779852 4.501768e-05 -0.000101554935
000270 6a e2 63 3c 31 4f 29 36 c0 c9 46 38 51 16 92 b7
       0.013908962 2.5229058e-06 4.7394773e-05 -1.7414948e-05
000280 89 2f 28 c5 d5 f1 0f c4 69 c5 58 bf c2 7f eb 45
       -2690.971 -575.7786 -0.84676224 7535.9697
000290 61 a8 13 c4 02 0f 0d bf b0 51 32 c4 77 0c 5f c0
       -590.6309 -0.55101025 -713.27637 -3.4851358
0002a0 62 84 c0 c2 e6 a5 1f b9 71 f7 34 c2 23 31 73 b9
       -96.25856 -0.00015225224 -45.241642 -0.00023192591
0002b0 d9 86 8d c3 d3 32 b8 45 e5 a3 83 3e 13 eb 03 c4
       -283.0535 5894.353 0.2571098 -527.67303
0002c0 f5 db 0b c0 8f 1e bc 3f 9d 9e f3 3e 9a 3f b1 40
       -2.1853 1.4696826 0.4758195 5.539014
0002d0 3b e7 ff 45 fa 56 89 3f 8f 07 38 46 a1 f1 22 46
       8188.904 1.0729668 11777.89 10428.407
0002e0 00 28 b7 45 3c ba 90 b9 71 db f6 45 c0 4a f8 bb
       5861.0 -0.00027604576 7899.43 -0.0075772703
0002f0 f6 51 17 47 91 e5 94 3e c1 2c de 3e e6 91 a1 41
       38737.96 0.29081395 0.4339352 20.19624
000300 03 74 79 3b e4 95 42 bb de 85 2a 40 f4 a0 15 44
       0.0038063533 -0.0029691393 2.6644206 598.5149
000310 16 a6 cb c4 30 47 26 43 75 7c fb 41 e7 68 25 44
       -1629.1902 166.27808 31.43577 661.6391
000320 1e 4b 53 41 81 fe 88 b9 4b 2f b5 44 db 4c da 43
       13.205839 -0.00026129562 1449.4779 436.60043
000330 15 b0 ac 44 67 b8 67 bc 12 bf d4 bd 08 37 a2 43
       1381.5026 -0.014143086 -0.10388006 324.42993
000340 97 8d a2 43 c4 4b b3 41 b1 54 48 44 8f 3c 49 45
       325.10617 22.411995 801.3233 3219.785
000350 7b 60 84 be a1 93 80 3d ef 05 71 c2 b8 5d 23 c1
       -0.2585486 0.06278158 -60.255795 -10.210381
000360 35 63 08 44 44 58 93 43 00 03 3d ba 80 09 39 b9
       545.5501 294.68958 -0.0007210225 -0.00017646514
000370 3b 56 fe b8 b5 98 10 40 01 83 50 41 c2 9c 26 43
       -0.000121277255 2.2593205 13.031983 166.61234
000380 15 2e 84 45 98 98 09 c6 94 04 16 c3 4e f4 37 44
       4229.7603 -8806.148 -150.01788 735.81726
000390 51 db 0d b9 00 7f 15 c7 0c d8 fb c5 0e df 8c c6
       -0.0001352851 -38271.0 -8059.006 -18031.527
0003a0 4c ed 48 c4 cc fc 0d c5 c1 fe 1f c5 36 3a 84 c6
       -803.70776 -2271.7998 -2559.922 -16925.105
0003b0 d9 fc a1 c5 9f 1b 95 c6 41 b2 61 c5 5a 13 4a c6
       -5183.606 -19085.81 -3611.1409 -12932.838
0003c0 b7 e0 3d 45 c3 45 2a c6 36 ef e3 c4 df d7 9f c6
       3038.0447 -10897.44 -1823.4753 -20459.936
0003d0 29 74 a5 c6 a1 32 8b c6 6e be 0d bd b0 7f 0e c5
       -21178.08 -17817.314 -0.034605436 -2279.9805
0003e0 cd 91 0c c7 22 b1 15 c6 e2 1b 2a c6 79 dd 59 45
       -35985.8 -9580.283 -10886.971 3485.842
0003f0 d9 dd 5a 45 98 9b 88 c6 bf eb 83 45 f2 33 0f c6
       3501.8655 -17485.797 4221.4683 -9164.986
