quadrotor/data/pre_train/64_64_best.pt (torch, 94583 bytes, 20 tensors)

state_batchnorm.running_mean f4 [24]
0.0 0.0 0.0 0.0 0.0 0.0 0.0 0.0
0.0 0.0 0.0 0.0 0.0 0.0 0.0 0.0
0.0 0.0 0.0 0.0 0.0 0.0 0.0 0.0
00000000: 0000 0000 0000 0000 0000 0000 0000 0000
00000010: 0000 0000 0000 0000 0000 0000 0000 0000
00000020: 0000 0000 0000 0000 0000 0000 0000 0000
00000030: 0000 0000 0000 0000 0000 0000 0000 0000
00000040: 0000 0000 0000 0000 0000 0000 0000 0000
00000050: 0000 0000 0000 0000 0000 0000 0000 0000

state_batchnorm.running_var f4 [24]
1.0 1.0 1.0 1.0 1.0 1.0 1.0 1.0
1.0 1.0 1.0 1.0 1.0 1.0 1.0 1.0
1.0 1.0 1.0 1.0 1.0 1.0 1.0 1.0
00000000: 0000 803f 0000 803f 0000 803f 0000 803f
00000010: 0000 803f 0000 803f 0000 803f 0000 803f
00000020: 0000 803f 0000 803f 0000 803f 0000 803f
00000030: 0000 803f 0000 803f 0000 803f 0000 803f
00000040: 0000 803f 0000 803f 0000 803f 0000 803f
00000050: 0000 803f 0000 803f 0000 803f 0000 803f

layers.0.weight f4 [64, 24]
-3.7320065 2.7773342 -0.16882916 -1.9182506 1.2644719 -0.027817752 4.6113424 -3.5824401
-0.32119718 0.024973713 0.05434604 0.004356962 0.014554391 0.04653217 -0.042231273 31.525848
-20.175932 0.12732981 -0.53332657 -0.27990225 0.57188326 0.08202121 0.6683155 0.27342954
0.021326417 0.031063497 -0.029765463 0.00020279716 0.02890873 -0.028756859 -0.02741154 -0.029256163
0.026091915 -0.030792832 -0.025465008 -0.030321216 -0.0315059 -0.03231977 0.015534897 0.00084565335
0.007416057 -0.022262275 -0.0008228333 -0.022452809 -0.0009668446 -0.00038967957 0.00012823837 -0.022486879
2.263881 0.38645172 0.7574787 -0.5312471 -0.47000337 -0.7343173 0.12855475 -0.85900885
0.071367554 -0.042270277 0.12707421 0.105493695 -0.41477457 -0.34272388 0.0267002 0.2139989
-6.3683476 -2.3620207 3.1268482 -1.4622492 2.9491148 -3.5149236 -1.7184658 -2.74857
0.041101575 0.0076097334 -0.011995068 -0.00737163 -0.017715396 0.0044283434 -0.0059945574 0.020825462
-0.06282328 -0.028441682 -0.095527 -0.012482859 -0.02137062 -0.034871437 0.06595042 0.018094096
-0.02726174 -0.02545129 -0.059293967 -0.026218703 -0.05294674 -0.06333659 0.06073977 -0.02556776
-0.04063465 -0.036591467 -0.032793563 -0.032388054 -0.032009583 -0.02542875 -0.031958975 -0.032058407
-0.03260907 -0.032050367 0.032030888 -0.03199807 -0.031966172 -0.03196312 -0.031641565 -0.029299403
0.021050971 -0.03196537 0.031954676 -0.031969547 -0.031591255 0.031951882 0.03156986 -0.031969417
-9.979852e-05 -5.5070936e-06 -0.006738174 -0.0028662803 -0.000937478 -0.0054511875 -0.0010460727 -0.0036094012
5.8641734e-07 -0.015487135 -1.138496e-09 -0.017935103 -0.018927265 -0.016769389 0.0012006458 -7.2959534e-17
7.485942e-17 -5.839365e-05 2.8212848e-17 -6.4575805e-05 5.6459054e-17 8.024052e-17 -7.418661e-17 -5.9201062e-05
0.87617564 0.5844602 0.2197513 -0.07303643 0.7167224 0.15379705 -0.15667303 -0.83677036
0.0058948454 -0.048398685 0.0627507 -0.24597618 0.27478385 0.25439897 -0.008051027 -0.81930995
-6.3698177 -1.6824801 -1.1507078 -1.35057 -1.435809 2.1838415 2.769149 -1.2046986
0.01947787 0.010621009 -0.031997528 -0.03139998 -0.035122223 -0.03576854 -0.03201101 -0.03398611
-0.0009029307 -0.034201656 -0.012691291 -0.03500113 -0.032880846 -0.032579094 0.027350143 0.0075367833
0.035757367 -0.03296501 0.026427373 -0.033057854 0.028981484 0.037570518 -0.03192842 -0.033037696
-0.03176581 -0.031765807 -0.03176581 -0.031765815 -0.031765807 -0.031765804 -0.03176581 -0.031765807
0.03176581 -0.031765807 0.031765807 -0.031765804 -0.031765815 -0.031765807 0.03176581 -0.03176581
-0.031765807 -0.031765807 -0.03176581 -0.031765807 -0.031765807 0.025652086 -0.03176581 -0.031765807
-3.891009e-39 -4.155478e-39 -4.360814e-39 -4.679945e-39 5.509386e-39 -6.018979e-39 -5.868502e-39 -5.054887e-39
4.25035e-39 -5.538685e-39 4.911733e-39 -5.331723e-39 -5.17387e-39 -5.7777067e-34 -4.52603e-39 3.879307e-39
4.936437e-39 -5.742747e-39 -6.115135e-39 -5.496421e-39 4.386642e-39 6.485131e-39 -5.013581e-39 -5.723571e-39
-0.03780727 -0.032643348 -0.024952155 -0.068263665 -0.018539453 -0.026985172 -0.006392185 -0.018795643
0.05035281 -0.0038136768 -0.02103794 -0.010736094 -0.011378694 -0.008637231 -0.05308342 -0.08477872
00000000: 32d9 6ec0 d8bf 3140 8de1 2cbe 3c89 f5bf
00000010: 37da a13f 0ee2 e3bc 1e90 9340 b346 65c0
00000020: f573 a4be ac95 cc3c f499 5e3d d9c4 8e3b
00000030: 8a75 6e3c 8498 3e3d b3fa 2cbd f034 fc41
00000040: 4f68 a1c1 bf62 023e 1788 08bf 594f 8fbe
00000050: f166 123f bcfa a73d b916 2b3f f5fe 8b3e
00000060: bdb4 ae3c e078 fe3c b3d6 f3bc f3a5 5439
00000070: 00d2 ec3c 8193 ebbc 2a8e e0bc 9faa efbc
00000080: b6be d53c 4041 fcbc fe9b d0bc 3364 f8bc
00000090: 550c 01bd bc61 04bd 1586 7e3c d6ae 5d3a
000000a0: 6502 f33b 605f b6bc 68b3 57ba f4ee b7bc
000000b0: d873 7dba e84d ccb9 ba77 0639 6736 b8bc
000000c0: 6de3 1040 00dd c53e 20ea 413f cfff 07bf
000000d0: 48a4 f0be 38fc 3bbf dba3 033e 01e8 5bbf
000000e0: 2729 923d 9923 2dbd be1f 023e 140d d83d
000000f0: 555d d4be 8179 afbe 61ba da3c 8722 5b3e
00000100: 81c9 cbc0 592b 17c0 481e 4840 fb2a bbbf
00000110: 4cbe 3c40 82f4 60c0 b0f6 dbbf 92e8 2fc0
00000120: 205a 283d 125b f93b f686 44bc b78d f1bb
00000130: e11f 91bc a31b 913b fe6d c4bb 299a aa3c
00000140: 7ea9 80bd 88fe e8bc a9a3 c3bd e884 4cbc
00000150: 7011 afbc 5ad5 0ebd 0411 873d 123a 943c
00000160: 0354 dfbc 397f d0bc 3bde 72bd 9bc8 d6bc
00000170: aede 58bd 9db6 81bd 44ca 783d 7b73 d1bc
00000180: 8570 26bd efe0 15bd 8b52 06bd 56a9 04bd
00000190: 7b1c 03bd f44f d0bc 6ae7 02bd ad4f 03bd
000001a0: 1791 05bd 3f47 03bd d232 033d 6910 03bd
000001b0: f6ee 02bd c3eb 02bd 969a 01bd 4d05 f0bc
000001c0: 1673 ac3c 1fee 02bd e8e2 023d 80f2 02bd
000001d0: d565 01bd fadf 023d 664f 013d 5df2 02bd
000001e0: ec4a d1b8 93c9 b8b6 e6cb dcbb 34d8 3bbb
000001f0: 15c1 75ba e09f b2bb 601c 89ba b48b 6cbb
00000200: 4b6a 1d35 c1bd 7dbc 4479 9cb0 a3ec 92bc
00000210: 5a0d 9bbc f55f 89bc fd5e 9d3a b53b a8a4
00000220: 349d ac24 b4eb 74b8 da1b 0224 df6c 87b8
00000230: 8b2f 8224 a505 b924 0c10 aba4 a84e 78b8
00000240: 0c4d 603f 2f9f 153f 7c06 613e 2094 95bd
00000250: 1f7b 373f f97c 1d3e e56e 20be 9536 56bf
00000260: 8c29 c13b b33d 46bd 7083 803d 2ee1 7bbe
00000270: 78b0 8c3e 9540 823e 74e8 03bc 4cbe 51bf
00000280: 8cd5 cbc0 825b d7bf 654a 93bf 7adf acbf
00000290: 97c8 b7bf 0fc4 0b40 bd39 3140 9033 9abf
000002a0: 0e90 9f3c be03 2e3c d70f 03bd 449d 00bd
000002b0: 52dc 0fbd 0882 12bd fa1d 03bd 0535 0bbd
000002c0: a7b2 6cba 0917 0cbd 22ef 4fbc 585d 0fbd
000002d0: 11ae 06bd a871 05bd 680d e03c 1ff7 f63b
000002e0: 5176 123d 5106 07bd 387e d83c ac67 07bd
000002f0: 946a ed3c 8be3 193d 60c7 02bd 8952 07bd
00000300: de1c 02bd dd1c 02bd de1c 02bd df1c 02bd
00000310: dd1c 02bd dc1c 02bd de1c 02bd dd1c 02bd
00000320: de1c 023d dd1c 02bd dd1c 023d dc1c 02bd
00000330: df1c 02bd dd1c 02bd de1c 023d de1c 02bd
00000340: dd1c 02bd dd1c 02bd de1c 02bd dd1c 02bd
00000350: dd1c 02bd 5324 d23c de1c 02bd dd1c 02bd
00000360: 8d5e 2a80 c83f 2d80 2d7c 2f80 c8f5 3280
00000370: edfd 3b00 778a 4180 ffe6 3f80 f80a 3780
00000380: 3f48 2e00 9a4f 3c80 ea7b 3500 ad0e 3a80
00000390: a556 3880 4bff 3f88 bb48 3180 ee3d 2a00
000003a0: c7c0 3500 7188 3e80 8296 4280 c9d9 3b80
000003b0: 2cc4 2f00 e89d 4600 d397 3680 fd52 3e80
000003c0: ccdb 1abd 08b5 05bd 7668 ccbc d2cd 8bbd
000003d0: 0de0 97bc 0210 ddbc 8975 d1bb 52f9 99bc
000003e0: c03e 4e3d e1ee 79bb c257 acbc 71e6 2fbc
000003f0: b46d 3abc 2c83 0dbc 006e 59bd 77a0 adbd

layers.0.bias f4 [64]
0.14486188 -0.022526702 -1.9024192 -0.02563247 -0.031969383 -7.022732e-05 -1.5973703 -0.033031084
-0.031765807 -5.753221e-39 -0.011447275 -7.302724e-05 -1.206563e-10 0.4175139 -0.16025059 -8.89776e-10
-1.030292e-09 -5.154346e-39 -1.2176969 -0.00067334465 1.7906737 -0.031882506 -4.052621e-39 -2.360341
-0.39520362 -6.255698e-39 -0.030888727 -0.03139713 -0.031623695 0.29517463 -0.82607335 -0.021961747
-0.01572655 -0.0008778474 -0.038335547 -2.2418083e-06 -0.028349528 -0.02344571 -0.02586949 -1.3426889
-0.025858574 -0.008404233 -0.035700932 -0.052379083 -0.011781135 -0.028489733 -0.08574128 -0.02586127
-0.009250614 -6.781008e-39 -8.0568054e-07 0.8809505 -0.028752204 -0.007526669 3.7218385 -0.03054872
-0.024387568 -0.032649737 0.038573995 -0.058302697 -0.000647898 -0.016429545 -2.2799195e-14 0.027865343
00000000: ac56 143e eb89 b8bc 7982 f3bf 30fb d1bc
00000010: 54f2 02bd 0147 93b8 a176 ccbf 9a4b 07bd
00000020: dd1c 02bd a4a5 3e80 5a8d 3bbc 3326 99b8
00000030: bba9 04af 62c4 d53e bb18 24be 6b94 74b0
00000040: 2d9a 8db0 3820 3880 7edd 9bbf 6583 30ba
00000050: cc34 e53f 3b97 02bd 0f21 2c80 d40f 17c0
00000060: 2158 cabe 571e 4480 5b0a fdbc 479a 00bd
00000070: d987 01bd 2121 973e 8b79 53bf 1fe9 b3bc
00000080: f7d4 80bc 571f 66ba bc05 1dbd f971 16b6
00000090: 453d e8bc 3811 c0bc 41ec d3bc 3bdd abbf
000000a0: 5cd5 d3bc e8b1 09bc 243b 12bd 738b 56bd
000000b0: a905 41bc 4d63 e9bc 2099 afbd 04db d3bc
000000c0: e38f 17bc b1d6 4980 f245 58b5 f985 613f
000000d0: be89 ebbc 47a2 f6bb 9a32 6e40 4f41 fabc
000000e0: 70c8 c7bc bbbb 05bd c4ff 1d3d cfce 6ebd
000000f0: b3d7 29ba 4197 86bc 5d5b cda8 dc45 e43c

layers.2.weight f4 [64, 64]
-0.021581488 3.39955e-39 -0.043801814 4.777303e-39 -2.1028252e-37 -5.00753e-39 -0.060344964 -6.431027e-39
-5.516677e-39 5.059143e-39 -3.016834e-39 5.10338e-39 3.867495e-39 -0.020855699 5.245968e-39 -3.623507e-39
-4.742888e-39 -5.076497e-39 -0.056719728 2.129273e-39 -0.032849047 -4.115486e-39 -5.092065e-39 0.02756936
-3.401561e-39 -5.176605e-39 6.4537e-40 -5.132239e-39 -3.406212e-39 -0.04629863 -0.0076138093 -4.940806e-39
6.313475e-38 -3.202989e-39 2.698085e-39 -6.62343e-39 8.34564e-40 1.5754451e-38 6.800308e-39 -6.470658e-39
4.325586e-39 -5.120782e-39 -2.757294e-39 3.3972262e-38 -6.3597695e-38 -5.016525e-39 -4.194089e-39 -5.794721e-39
5.795287e-39 4.49063e-39 5.69938e-39 -0.013088717 -6.966228e-38 -6.901747e-39 -0.035657384 3.701691e-39
7.989453e-39 3.172199e-39 0.0032395425 5.247965e-39 -2.743895e-39 -4.7424424e-38 2.8523e-39 -2.567577e-39
-0.58946 -8.82258e-40 -5.5674e-39 -0.03175917 -5.192233e-39 -4.707487e-39 -3.2895114 -5.501648e-39
3.823195e-39 5.107073e-39 0.031606767 5.18636e-40 -5.34975e-39 0.6472622 -1.439687e-39 -0.03176135
-2.770028e-39 -3.455707e-39 -0.23559184 -0.0005316462 -0.47835562 -7.1954546e-38 1.77491e-39 -1.2425005
-5.5532618 4.28124e-39 5.221415e-39 2.63104e-40 -2.793861e-39 -4.029579 -0.14186323 9.2759456e-38
-0.083512716 -5.25939e-39 5.758821e-39 -0.00084319664 -0.015266358 -0.03168538 -0.031006178 -0.991677
0.047890026 -2.990592e-39 -5.286777e-39 -1.324052e-39 -5.357334e-39 -9.77223e-39 -0.1499966 4.78195e-40
-5.236952e-39 2.319998e-39 4.953823e-39 0.12946323 5.022832e-39 -0.017506843 -3.3810222 -2.688137e-39
-2.649264e-39 -0.03176581 -0.22346048 5.560633e-39 5.122588e-39 -3.163821e-39 -3.538059e-38 -0.3474935
-53.13155 4.716015e-39 0.08883932 0.012222144 0.032013558 -0.03170869 0.16380301 0.028611213
-1.8809398e-37 -3.062947e-39 0.054217108 0.03171075 4.939662e-12 0.013399911 0.35117242 0.03174282
1.2909928e-18 -5.800176e-39 0.06796083 -7.43075e-40 0.6782917 -0.045080997 -4.880795e-39 -0.110578604
-0.9010474 1.1788398e-31 -0.000610651 0.034887236 -2.474305e-39 0.05557022 -0.22329952 -0.034547646
-0.074199565 -0.0005811371 -0.029345796 -3.928661e-12 0.011352738 0.045302704 0.029380534 0.20591468
0.016620249 -6.811028e-39 0.02699145 -0.026357776 -0.036720764 0.031753067 0.0014523033 0.038217932
4.632857e-39 -5.891066e-39 0.00025906644 -2.1563346 -3.387725e-39 -0.03156816 -0.13614221 -0.051904507
-0.057050586 -0.0652037 -0.5049802 -6.674431e-39 0.00018653186 -4.497135e-39 -6.314128e-39 -0.05532681
-1.0084214 -9.30762e-40 3.901537e-39 1.604778e-39 -8.83058e-40 -5.559294e-39 -1.9410049 -5.399933e-39
-4.556552e-39 -5.002393e-39 0.03176581 5.70933e-39 -4.878209e-39 -0.02883221 -0.09526662 5.170151e-39
4.901378e-39 -5.090624e-39 -0.46110284 5.081307e-39 -0.08691888 -5.66196e-39 -4.946666e-39 -0.088769644
0.03176581 6.901752e-39 4.672324e-39 5.494002e-39 -5.487496e-39 0.12665302 0.6748538 -5.559294e-39
-0.011256028 5.34975e-39 5.4809e-39 5.125176e-39 2.629598e-39 3.00537e-39 5.384606e-39 0.029665612
-0.029132199 -1.133011e-39 2.237864e-39 5.511269e-39 4.469754e-39 3.1953428e-38 -0.12467393 -5.415587e-39
-5.583727e-39 -5.503604e-39 -6.5467947e-38 0.76869965 -5.258269e-39 -6.914328e-39 2.766394e-39 5.132644e-39
-5.345756e-39 5.464159e-39 -0.81639147 -4.26644e-39 5.204951e-39 -5.663107e-39 5.726353e-39 0.16344726
00000000: a9cb b0bc 9004 2500 8869 33bd 2d05 3400
00000010: 621c 8f82 f586 3680 482c 77bd 1607 4680
00000020: 4012 3c80 d516 3700 b5d9 2080 2692 3700
00000030: 011d 2a00 92d9 aabc a01f 3900 dd74 2780
00000040: 3ea5 3380 3547 3780 f252 68bd 8c2f 1700
00000050: b98c 06bd 4dd0 2c80 9b72 3780 23d9 e13c
00000060: 2b0a 2580 455e 3880 0707 0700 98e2 3780
00000070: 2217 2580 a2a3 3dbd 437d f9bb f5cc 3580
00000080: 80de ab01 a1e0 2280 2a61 1d00 6e1f 4880
00000090: 6d16 0900 008d ab00 7e0c 4a00 9075 4680
000000a0: f919 2f00 a8c2 3780 3706 1e80 6cf6 3801
000000b0: 2021 ad81 08a0 3680 6aab 2d80 5319 3f80
000000c0: e71a 3f00 0de6 3000 8d0f 3e00 0f72 56bc
000000d0: 86a3 bd81 4327 4b80 7a0d 12bd cf4e 2800
000000e0: 58ff 5600 cd8a 2200 814e 543b 3125 3900
000000f0: dde0 1d80 001a 8181 0d0f 1f00 5cf5 1b80
00000100: dae6 16bf 609b 0980 a59f 3c80 e715 02bd
00000110: d589 3880 8f42 3380 5b87 52c0 5be8 3b80
00000120: 83a1 2900 719c 3700 1976 013d bfa5 0500
00000130: ed40 3a80 fab2 253f 43ad 0f80 3018 02bd
00000140: b629 1e80 1ba1 2580 fd3e 71be 2c5e 0bba
00000150: 07eb f4be 00e1 c381 ba53 1300 420a 9fbf
00000160: 52b4 b1c0 5b9e 2e00 2edb 3800 6ddd 0200
00000170: 266c 1e80 50f2 80c0 9844 11be e883 fc01
00000180: b708 abbd 0a45 3980 40b5 3e00 f809 5dba
00000190: bf1f 7abc 87c8 01bd ab00 febc 8bde 7dbf
000001a0: 5528 443d 8e90 2080 6291 3980 eb6a 0e80
000001b0: 1156 3a80 0069 6a80 b598 19be 0335 0500
000001c0: 7e06 3980 3643 1900 3ef1 3500 0292 043e
000001d0: 9db1 3600 836a 8fbc ab62 58c0 6f45 1d80
000001e0: 12d9 1c80 de1c 02bd d3d2 64be c88c 3c00
000001f0: b1c7 3700 7273 2280 58a1 4081 abea b1be
00000200: b586 54c2 555a 3300 64f1 b53d 633f 483c
00000210: a620 033d f9e0 01bd fabb 273e 1062 ea3c
00000220: 9802 8082 405a 2180 c212 5e3d 22e3 013d
00000230: 85cc ad2c 4d8b 5b3c dfcc b33e c204 023d
00000240: 5484 be21 8828 3f80 0c2f 8b3d 6417 0880
00000250: 86a4 2d3f daa6 38bd ac25 3580 0977 e2bd
00000260: 0bab 66bf ac05 190c 1814 20ba ebe5 0e3d
00000270: 5bf1 1a80 999d 633d a1a8 64be d581 0dbd
00000280: f1f5 97bd 7357 18ba 9866 f0bc 3c3a 8aac
00000290: d600 3a3c 548f 393d 72af f03c 4cdb 523e
000002a0: 3027 883c 602a 4a80 2c1d dd3c 43ec d7bc
000002b0: 8368 16bd 810f 023d 365b be3a 688a 1c3d
000002c0: 8572 3200 e525 4080 4fd3 8739 6301 0ac0
000002d0: 99e3 2480 9d4d 01bd dd68 0bbe d299 54bd
000002e0: e0ad 69bd 8489 85bd 6246 01bf 99ad 4880
000002f0: c497 4339 2ff8 3080 38c1 4480 5d9e 62bd
00000300: f413 81bf 9622 0a80 e67b 2a00 7879 1100
00000310: 9b9d 0980 0d89 3c80 d972 f8bf d1cc 3a80
00000320: d09d 3180 a378 3680 de1c 023d 4a2b 3e00
00000330: 761e 3580 8731 ecbc 251b c3bd 474c 3800
00000340: 0c5f 3500 976e 3780 ac15 ecbe 9e54 3700
00000350: 8702 b2bd 3ea7 3d80 4bdd 3580 dccc b5bd
00000360: de1c 023d 4727 4b00 8ae0 3200 0bd3 3b00
00000370: e8c0 3b80 54b1 013e 38c3 2c3f 0d89 3c80
00000380: 346b 38bc ed40 3a00 85ae 3b00 e8ce 3700
00000390: 40a2 1c00 c0b9 2000 17a2 3a00 4c05 f33c
000003a0: a6a6 eebc 6056 0c80 415e 1800 2d03 3c00
000003b0: dbab 3000 94f8 2d01 0c55 ffbd 74f8 3a80
000003c0: 29cd 3c80 cfed 3b80 8038 b281 80c9 443f
000003d0: ea41 3980 554a 4b80 951f 1e00 b9e3 3700
000003e0: cb35 3a80 da7f 3b00 08ff 50bf 1975 2e80
000003f0: 49ad 3800 70aa 3d80 be5a 3e00 b85e 273e

layers.2.bias f4 [64]
-0.06812576 1.3322948 -0.10216552 -1.3633063 -0.5035044 -1.483705 -1.3989542 1.3158048
-2.2094212 -1.1511606 0.7351804 -3.1720219 -1.1368775 -0.07798227 0.77557427 -0.7517071
-1.018567 -0.09136126 -2.27668 -0.623229 -2.5025182 -0.23303042 -1.1182277 -1.4788469
-0.14650178 1.273115 -0.3746071 -2.1830845 -0.52123225 -3.1507604 -1.961238 -0.56992763
-1.5197748 -0.08420743 -0.58341175 -0.26720247 0.24380007 -0.20854127 -6.3456087 -2.568834
-11.088549 -2.2592776 -1.8154103 1.7911288 -4.1968546 0.43510967 1.04833 -4.056925
0.26762033 -2.9398935 -4.854558 -1.8610525 -4.5602612 0.7759982 0.07840078 4.2426696
-0.23836336 -2.6323073 1.3406147 -1.4730698 -4.924846 -4.4834046 -0.31350088 -0.0041024718
00000000: 8585 8bbd a388 aa3f 283c d1bd d280 aebf
00000010: aae5 00bf 0cea bdbf ee10 b3bf 4b6c a83f
00000020: 2867 0dc0 3b59 93bf c834 3c3f 6802 4bc0
00000030: 3485 91bf 2bb5 9fbd 098c 463f e06f 40bf
00000040: 6760 82bf 9d1b bbbd 20b5 11c0 f08b 1fbf
00000050: 4229 20c0 879f 6ebe 1622 8fbf db4a bdbf
00000060: 9004 16be 6ff5 a23f 80cc bfbe a8b7 0bc0
00000070: 7a6f 05bf 0fa6 49c0 d909 fbbf c7e6 11bf
00000080: fb87 c2bf f274 acbd 795a 15bf c3ce 88be
00000090: baa6 793e d88b 55be 3a0f cbc0 c767 24c0
000000a0: b26a 31c1 0198 10c0 5d5f e8bf b543 e53f
000000b0: a24c 86c0 b2c6 de3e ad2f 863f 54d2 81c0
000000c0: 8805 893e 3727 3cc0 8a58 9bc0 f836 eebf
000000d0: a9ed 91c0 d1a7 463f 9790 a03d f3c3 8740
000000e0: 8615 74be b977 28c0 4399 ab3f 8d8d bcbf
000000f0: 5798 9dc0 0d78 8fc0 3083 a0be 076e 86bb

layers.4.weight f4 [21, 64]
-0.014886981 -0.70072675 -0.6520111 0.10145692 0.18270937 0.06282721 0.2867813 0.21024616
0.29594246 -0.1595657 0.27516863 0.25182295 -0.2705386 -0.12042185 -0.35305884 -0.1371936
0.22107127 -0.03208121 -0.061516043 -0.26016453 0.08456277 -0.054000717 -0.070557594 -0.18898699
0.010126742 0.6026428 0.14295964 0.3570764 -0.1318835 0.42971852 -0.09932893 0.10280998
0.2245707 -0.007382904 0.19663191 0.015465067 -0.03228879 0.6607211 0.21545984 -0.24051444
-0.1777621 -0.09834772 0.22512205 -0.22958337 -0.23566546 -0.20119497 -0.23638105 0.53814536
-0.14658305 -0.03736725 0.22833996 -0.40164384 0.051568277 -0.057821147 -0.033465978 -0.40548727
0.08621404 0.14436287 0.9919081 -0.26654157 0.058368344 0.24576166 -0.47108498 0.29397565
-0.01568516 0.8616894 0.7181226 0.04167409 0.26849553 -0.019697072 -0.18199785 0.3617686
-0.028976733 -0.07036142 0.19973968 -0.4831984 0.328816 -0.15403122 0.007731881 -0.17903236
-0.38118842 0.23081939 0.38175386 0.19178848 -0.05901784 0.016939765 -0.24556887 -0.1048764
0.016211556 -0.35080066 -0.3765104 -0.26598656 0.13298045 -0.46146095 0.3128709 0.09636857
0.12728392 0.015211875 0.12009818 0.033947725 0.12414274 -0.55917937 -0.12253062 0.09883617
0.44032177 0.2241534 0.52091646 0.33998832 -0.1992354 0.19540192 -0.15162347 -1.188046
-0.41706404 0.07826128 -0.41114417 0.11744217 -0.39042136 0.29985344 -0.022981795 -0.09890598
0.0012444279 -0.0077157174 -0.08351348 0.14699079 -0.006880935 -0.24006021 0.3200207 -0.10535047
-0.005954819 0.63976556 -0.7992153 0.38452527 -0.77781445 -0.4599815 0.18822125 -0.6313794
0.024753159 -0.1516271 0.5156277 0.2716962 -0.27058217 0.36068285 -0.2746379 0.32229868
0.20336439 -0.905663 0.057048745 0.3080437 -0.4311726 -0.26156047 1.6016245 -0.51818264
-0.3348961 -1.0741735 0.5616227 0.32414228 0.06467306 0.111577876 -0.49977762 -0.10530128
-1.1104335 -0.015289198 -0.7803785 -0.0075695626 -1.2154171 -0.08934877 -0.33761638 -0.54328465
0.10083983 0.4197723 -0.34449363 0.10820376 0.03279094 0.04424775 0.041492224 -0.055606768
-0.28657207 0.27878702 0.012726533 -0.6590045 0.688583 -1.1145821 -0.2800463 0.2831871
-1.0724545 -0.5786395 -1.4385844 0.27466452 0.89585376 0.2999566 -0.5877675 -0.47271875
-0.01270467 -0.57070273 -0.04123057 0.63466245 -0.50473404 0.35760096 0.094352104 -1.0638059
-1.2143734 -0.14685355 0.13136894 0.61229116 0.7453614 -0.3058794 0.7197264 0.30838883
0.56462467 0.38955528 -0.18331972 0.16224486 -0.3779588 0.033166848 0.6909184 0.37139323
0.028126689 0.3154761 0.15232524 0.3499585 0.27019066 0.59128404 -0.35526332 0.13773833
0.0480851 0.026790995 -0.1542715 -0.0019275495 0.19065167 -0.19157058 -0.23628758 0.29190975
0.29551303 0.042548224 -0.05513666 -0.2585186 0.92820734 0.5124489 0.17730302 0.7171744
0.9556619 -0.17260686 0.23856126 0.9938949 0.057459828 -0.12638925 -0.038984686 0.26968393
0.53345066 -0.052168638 -1.1481864 -0.16200216 0.1368987 0.01970348 -0.018697243 -0.40121347
00000000: 86e8 73bc d462 33bf 33ea 26bf a5c8 cf3d
00000010: 2a18 3b3e 8dab 803d 00d5 923e c54a 573e
00000020: c585 973e 3165 23be e7e2 8c3e f0ee 803e
00000030: 0984 8abe bb9f f6bd 21c4 b4be 7b7c 0cbe
00000040: 8260 623e 9667 03bd 3ff8 7bbd 4934 85be
00000050: 3f2f ad3d db2f 5dbd 8080 90bd ce85 41be
00000060: a2ea 253c cc46 1a3f 0364 123e b8d2 b63e
00000070: 780c 07be 1104 dc3e f76c cbbd 0a8e d23d
00000080: ddf5 653e 4aec f1bb e059 493e 3161 7d3c
00000090: 4041 04bd 0525 293f 81a1 5c3e 6b49 76be
000000a0: 4507 36be 886a c9bd 6586 663e e717 6bbe
000000b0: 4952 71be 0e06 4ebe e00d 72be e5c3 093f
000000c0: de19 16be 670e 19bd f3d1 693e 43a4 cdbe
000000d0: 4239 533d ded5 6cbd 9f13 09bd 079c cfbe
000000e0: fd90 b03d dcd3 133e b0ed 7d3f 2378 88be
000000f0: a513 6f3d f2a8 7b3e 0d32 f1be fa83 963e
00000100: 2a7e 80bc ad97 5c3f e2d6 373f 73b2 2a3d
00000110: 3f78 893e c15b a1bc a55d 3abe bc39 b93e
00000120: 9d60 edbc a619 90bd 8f88 4c3e c865 f7be
00000130: 925a a83e 5cba 1dbe b85b fd3b 4254 37be
00000140: 212b c3be eb5b 6c3e 3e75 c33e 3364 443e
00000150: b1bc 71bd 43c5 8a3c 6876 7bbe 70c9 d6bd
00000160: 19ce 843c 259c b3be f9c5 c0be 642f 88be
00000170: 072c 083e 9c44 ecbe 9d30 a03e e35c c53d
00000180: b756 023e 3a3b 793c 09f6 f53d c50c 0b3d
00000190: 8d3e fe3d 6126 0fbf 55f1 fabd 9e6a ca3d
000001a0: db71 e13e 7888 653e c85a 053f f312 ae3e
000001b0: 5d04 4cbe 7117 483e 2f43 1bbe e411 98bf
000001c0: 6b89 d5be 7347 a03d 7d81 d2be 8585 f03d
000001d0: 4fe5 c7be 6486 993e 5144 bcbc 388f cabd
000001e0: 121c a33a 21d4 fcbb 1e09 abbd c184 163e
000001f0: 7779 e1bb 58d2 75be c1d9 a33e fdc1 d7bd
00000200: a420 c3bb adc7 233f 6099 4cbf 7fe0 c43e
00000210: d91e 47bf b282 ebbe 12bd 403e 15a2 21bf
00000220: 23c7 ca3c 2244 1bbe 2d00 043f c41b 8b3e
00000230: bf89 8abe 6cab b83e 579d 8cbe 5504 a53e
00000240: c13e 503e 88d9 67bf f2ab 693d e7b7 9d3e
00000250: a8c2 dcbe 41eb 85be 0802 cd3f 9ea7 04bf
00000260: 8077 abbe 847e 89bf 81c6 0f3f faf5 a53e
00000270: 4f73 843d f182 e43d dae2 ffbe 33a8 d7bd
00000280: af22 8ebf 8b7f 7abc e3c6 47bf 180a f8bb
00000290: ca92 9bbf 7dfc b6bd 0edc acbe b414 0bbf
000002a0: 1d85 ce3d 65ec d63e 7861 b0be ef99 dd3d
000002b0: cb4f 063d 213d 353d c0f3 293d ecc3 63bd
000002c0: 93b9 92be 2cbd 8e3e f382 503c 85b4 28bf
000002d0: fa46 303f a0aa 8ebf 3b62 8fbe e6fd 903e
000002e0: 3046 89bf b821 14bf 8923 b8bf d4a0 8c3e
000002f0: ac56 653f e993 993e ee77 16bf 3108 f2be
00000300: 4027 50bc 9319 12bf 63e1 28bd 3d79 223f
00000310: 4036 01bf 7917 b73e ad3b c13d cb2a 88bf
00000320: 9670 9bbf c760 16be 9485 063e 1dbf 1c3f
00000330: 01d0 3e3f 3a9c 9cbe fd3f 383f 24e5 9d3e
00000340: 3e8b 103f ca73 c73e 2ab8 3bbe 8423 263e
00000350: d183 c1be f6d9 073d 07e0 303f 4127 be3e
00000360: f169 e63c 1586 a13e 26fb 1b3e c32d b33e
00000370: 6e56 8a3e 645e 173f 13e5 b5be 470b 0d3e
00000380: e2f4 443d ca78 db3c 59f9 1dbe d4a5 fcba
00000390: 313a 433e 142b 44be 5ff5 71be 3275 953e
000003a0: 7c4d 973e 0c47 2e3d fad6 61bd 8d5c 84be
000003b0: ff9e 6d3f da2f 033f ec8e 353e be98 373f
000003c0: 42a6 743f dabf 30be 6749 743e e56f 7e3f
000003d0: ff5a 6b3d 2f6c 01be 68ae 1fbd 0314 8a3e
000003e0: 3990 083f c8ae 55bd c6f7 92bf e5e3 25be
000003f0: 2c2f 0c3e 3169 a13c f62a 99bc da6b cdbe

layers.4.bias f4 [21]
-4.417108 -4.214118 0.9211142 -5.4601088 2.101535 0.556325 -2.437327 1.1160077
0.46822026 2.7370462 -3.357543 1.6587415 -0.031696938 5.3024106 -4.3386955 1.659225
4.8095403 1.9890496 -3.9389877 3.4103496 -0.9728572
00000000: f358 8dc0 0eda 86c0 24ce 6b3f 36b9 aec0
00000010: 8d7f 0640 516b 0e3f 2afd 1bc0 57d9 8e3f
00000020: 91ba ef3e c42b 2f40 fce1 56c0 a451 d43f
00000030: a6d4 01bd 59ad a940 98d6 8ac0 7c61 d43f
00000040: c1e7 9940 2d99 fe3f 6018 7cc0 2b43 5a40
00000050: 2b0d 79bf

exp_avg f4 [64, 24]
215082.17 217779.1 1.2020459e+06 540970.56 525680.2 983120.06 826601.0 847412.4
182437.8 3.247647e+06 85429.664 2.93764e+06 4.5580445e+06 4.5196945e+06 -108929.945 52499.17
14663.576 374371.6 -44474.473 375654.03 -18430.848 11986.755 -1233.2904 376384.34
2.136788e-06 3.1068187e-06 -2.9767666e-06 2.0808978e-08 2.8922311e-06 -2.8771126e-06 -2.7431688e-06 -2.9268167e-06
2.6117523e-06 -3.0798906e-06 -2.549309e-06 -3.0328508e-06 -3.1510338e-06 -3.2324833e-06 1.5590507e-06 8.613221e-08
7.4703286e-07 -2.2301783e-06 -8.3819735e-08 -2.2491697e-06 -9.840804e-08 -3.984925e-08 1.3190112e-08 -2.2525658e-06
30641.344 25697.242 23589.113 -994.432 -2404.519 4039.6687 -1128.3661 13869.637
4970.748 18324.648 1518.1089 31172.799 27440.883 26435.098 -2860.9453 -68.463615
-379.45737 2661.9187 -24.857252 2638.0818 418.93555 -130.96355 408.01526 2701.6785
4.1101594e-06 7.6097353e-07 -1.1995063e-06 -7.371638e-07 -1.7715413e-06 4.4283473e-07 -5.99456e-07 2.0825473e-06
-6.2823433e-06 -2.8441673e-06 -9.552713e-06 -1.2482855e-06 -2.137061e-06 -3.4871427e-06 6.5950576e-06 1.8094474e-06
-2.7262067e-06 -2.5451322e-06 -5.9294807e-06 -2.6218736e-06 -5.294744e-06 -6.3337693e-06 6.074088e-06 -2.5567792e-06
-4.063463e-06 -3.6591457e-06 -3.2793553e-06 -3.2388043e-06 -3.2009573e-06 -2.542874e-06 -3.1958964e-06 -3.2058397e-06
-3.2609062e-06 -3.2050357e-06 3.2030878e-06 -3.199806e-06 -3.1966163e-06 -3.1963111e-06 -3.1641555e-06 -2.9299435e-06
2.1051117e-06 -3.1965362e-06 3.1954667e-06 -3.1969537e-06 -3.1591246e-06 3.1951915e-06 3.1569894e-06 -3.1969407e-06
-1.1191773e-08 -6.5891376e-10 -6.9383833e-07 -3.000855e-07 -1.0035434e-07 -5.636151e-07 -1.1173155e-07 -3.7618238e-07
7.4102814e-11 -1.569667e-06 -1.7339053e-13 -1.8127622e-06 -1.9111046e-06 -1.6970752e-06 1.2788864e-07 -3.4221342e-21
2.8202623e-20 -6.624631e-09 1.5193322e-20 -7.309999e-09 1.2681545e-21 -4.1588707e-21 -1.915756e-20 -6.714226e-09
-133385.03 -152210.03 -705798.25 -21979.576 -99245.766 -103924.91 -166210.48 -157417.66
-30636.174 -601496.75 -13877.653 -561604.5 -916863.3 -900469.25 -13954.826 -6324.5093
-3014.353 -72648.13 7587.2847 -72215.17 3866.406 -2413.899 4731.9463 -72513.57
1.9477861e-06 1.0621004e-06 -3.1997517e-06 -3.139997e-06 -3.5122214e-06 -3.5768528e-06 -3.2011e-06 -3.39861e-06
-9.0293035e-08 -3.4201646e-06 -1.2691286e-06 -3.500112e-06 -3.2880837e-06 -3.2579085e-06 2.7350134e-06 7.536781e-07
3.5757357e-06 -3.2965e-06 2.6427363e-06 -3.3057843e-06 2.8981474e-06 3.7570508e-06 -3.192841e-06 -3.3037686e-06
-3.17658e-06 -3.1765796e-06 -3.17658e-06 -3.1765805e-06 -3.1765796e-06 -3.1765794e-06 -3.17658e-06 -3.1765796e-06
3.17658e-06 -3.1765796e-06 3.1765796e-06 -3.1765794e-06 -3.1765805e-06 -3.1765796e-06 3.17658e-06 -3.17658e-06
-3.1765796e-06 -3.1765796e-06 -3.17658e-06 -3.1765796e-06 -3.1765796e-06 2.5684694e-06 -3.17658e-06 -3.1765796e-06
-3.95e-43 -4.22e-43 -4.41e-43 -4.74e-43 5.56e-43 -6.08e-43 -5.93e-43 -5.11e-43
4.3e-43 -5.59e-43 4.97e-43 -5.38e-43 -5.23e-43 -1.7043212e-37 -4.58e-43 3.94e-43
4.99e-43 -5.8e-43 -6.17e-43 -5.55e-43 4.44e-43 6.54e-43 -5.07e-43 -5.77e-43
-3.780726e-06 -3.2643338e-06 -2.4952144e-06 -6.8263644e-06 -1.8539448e-06 -2.6985163e-06 -6.392183e-07 -1.8795638e-06
5.035283e-06 -3.8136756e-07 -2.1037931e-06 -1.0736089e-06 -1.1378689e-06 -8.6372285e-07 -5.30834e-06 -8.477868e-06
00000000: 8b0a 5248 c6ac 5448 efbb 9249 a912 0449
00000010: 0357 0049 0105 7049 90ce 4949 46e3 4e49
00000020: 7329 3248 7c38 464a d5da a647 a04c 334a
00000030: b919 8b4a 1dee 894a f9c0 d4c7 2c13 4d47
00000040: 4e1e 6546 73cc b648 79ba 2dc7 c16c b748
00000050: b2fd 8fc6 054b 3b46 4b29 9ac4 0bc8 b748
00000060: bd65 0f36 bd7e 5036 76c4 47b6 6dbf b232
00000070: 2718 4236 6b14 41b6 4817 38b6 546a 44b6
00000080: 9045 2f36 1eb0 4eb6 cc14 2bb6 fb87 4bb6
00000090: 5976 53b6 a4ed 58b6 9340 d135 aff7 b833
000000a0: b587 4835 2caa 15b6 6300 b4b3 71f0 16b6
000000b0: 6454 d3b3 b726 2bb3 ba9a 6232 c92a 17b6
000000c0: b062 ef46 7cc2 c846 3a4a b846 a69b 78c4
000000d0: 4e48 16c5 b37a 7c45 b70b 8dc4 8cb6 5846
000000e0: fc55 9b45 4c29 8f46 7cc3 bd44 9989 f346
000000f0: c461 d646 3286 ce46 20cf 32c5 5fed 88c2
00000100: 8bba bdc3 b35e 2645 a7db c6c1 4fe1 2445
00000110: c077 d143 abf6 02c3 f401 cc43 dbda 2845
00000120: 00ea 8936 b445 4c35 b9fe a0b5 83e1 45b5
00000130: b2c5 edb5 bebe ed34 4dea 20b5 e4c1 0b36
00000140: ebcc d2b6 6cde 3eb6 9744 20b7 c38a a7b5
00000150: 6e6a 0fb6 a804 6ab6 1d4b dd36 24dc f235
00000160: e0f3 36b6 0acd 2ab6 daf5 c6b6 72f3 2fb6
00000170: 81a9 b1b6 aa86 d4b6 05d0 cb36 2295 2bb6
00000180: e258 88b6 a58f 75b6 e512 5cb6 3c5a 59b6
00000190: 07d0 56b6 3ea6 2ab6 1579 56b6 e823 57b6
000001a0: f1d5 5ab6 1816 57b6 a1f4 5636 40bc 56b6
000001b0: 7385 56b6 3580 56b6 c757 54b6 0ca0 44b6
000001c0: 8b45 0d36 1384 56b6 b371 5636 3f8b 56b6
000001d0: 5901 54b6 f96c 5636 aadc 5336 068b 56b6
000001e0: f045 40b2 ef1e 35b0 3540 3ab5 701b a1b4
000001f0: 6282 d7b3 564b 17b5 12f1 efb3 1df6 c9b4
00000200: 2df4 a22e 59ad d2b5 6b38 43aa 094e f3b5
00000210: 8740 00b6 0fc7 e3b5 c351 0934 da48 819d
00000220: e12e 051f df9e e3b1 337f 8f1e 6e2b fbb1
00000230: 5aa3 bf1c 211e 9d9d 23f0 b49e f5b2 e6b1
00000240: 4242 02c8 82a4 14c8 6450 2cc9 27b7 abc6
00000250: e2d6 c1c7 74fa cac7 9f50 22c8 6aba 19c8
00000260: 5958 efc6 8cd9 12c9 9dd6 58c6 481c 09c9
00000270: f5d7 5fc9 54d7 5bc9 4e0b 5ac6 13a4 c5c5
00000280: a665 3cc5 11e4 8dc7 471a ed45 960b 8dc7
00000290: 7fa6 7145 62de 16c5 92df 9345 c9a0 8dc7
000002a0: b6b6 0236 7e8d 8e35 51bb 56b6 bdb8 52b6
000002b0: 81b3 6bb6 dd09 70b6 7bd2 56b6 ad13 64b6
000002c0: 1fe7 c1b3 fb85 65b6 ed56 aab5 77e3 6ab6
000002d0: d9a8 5cb6 71a2 5ab6 2c8b 3736 5d50 4a35
000002e0: acf6 6f36 7039 5db6 dd59 3136 f1d8 5db6
000002f0: cb7d 4236 a421 7c36 9744 56b6 50b6 5db6
00000300: 3b2d 55b6 392d 55b6 3b2d 55b6 3d2d 55b6
00000310: 392d 55b6 382d 55b6 3b2d 55b6 392d 55b6
00000320: 3b2d 5536 392d 55b6 392d 5536 382d 55b6
00000330: 3d2d 55b6 392d 55b6 3b2d 5536 3b2d 55b6
00000340: 392d 55b6 392d 55b6 3b2d 55b6 392d 55b6
00000350: 392d 55b6 f85d 2c36 3b2d 55b6 392d 55b6
00000360: 1a01 0080 2d01 0080 3b01 0080 5201 0080
00000370: 8d01 0000 b201 0080 a701 0080 6d01 0080
00000380: 3301 0000 8f01 0080 6301 0000 8001 0080
00000390: 7501 0080 edfa 6782 4701 0080 1901 0000
000003a0: 6401 0000 9e01 0080 b801 0080 8c01 0080
000003b0: 3d01 0000 d301 0000 6a01 0080 9c01 0080
000003c0: 61b8 7db6 d410 5bb6 7573 27b6 060e e5b6
000003d0: 0fd5 f8b5 2818 35b6 bf96 2bb5 5245 fcb5
000003e0: c0f4 a836 c2be ccb4 e42e 0db6 ec18 90b5
000003f0: e1b8 98b5 95da 67b5 4b1e b2b6 2a3c 0eb7

exp_avg_sq f4 [64, 24]
3.0688828e+11 4.50143e+11 9.669395e+12 4.363775e+11 7.2218653e+11 4.6344144e+12 3.3667715e+12 4.1348668e+12
3.3161973e+11 4.5480378e+13 6.8494446e+11 3.6963235e+13 7.5798665e+13 7.841882e+13 6.8448256e+11 2.5996508e+09
1.1300972e+10 5.7016327e+11 8.0614103e+09 5.7290634e+11 3.069637e+09 3.407782e+09 5.3887427e+09 5.752328e+11
2.641035e-07 4.3460925e-05 0.00018025549 1.6032488e-09 4.495345e-06 4.032568e-06 1.8387668e-06 5.8933465e-06
1.0327648e-06 2.5470476e-05 8.182128e-07 1.7131806e-05 4.99485e-05 4.0354385e-05 7.838507e-08 3.0932705e-09
1.901982e-08 3.167429e-07 3.0475151e-09 3.324769e-07 3.3329397e-09 2.1077953e-09 1.3507125e-09 3.353964e-07
1.1436216e+11 7.18617e+10 1.5987489e+11 4.947446e+09 8.075069e+09 2.118423e+09 9.390043e+09 2.0878131e+10
2.4065738e+09 1.0866747e+11 1.423533e+09 1.2700854e+11 2.2466332e+11 2.1885218e+11 2.402597e+09 1.5940326e+07
2.5438068e+07 1.661184e+09 2.2509282e+07 1.6682022e+09 1.1760252e+07 2.1574416e+07 3.2462524e+07 1.6483537e+09
17.66492 17.242243 19.355646 0.68914086 0.7697939 0.9770904 1.3271157 4.0535645
0.19913328 23.879162 0.33147895 23.403599 44.707462 50.64355 0.18537691 0.002232541
0.0062984233 0.32133937 0.0047312607 0.31988534 0.005350029 0.0033712776 0.0029620056 0.32358488
34.76427 313.21204 10954.289 298.34308 5159.782 13468.734 11084.315 9111.291
492.65778 86170.586 152.85326 150923.95 306069.7 381592.44 3189.241 0.42288303
0.019088518 2455.4053 17.206203 2435.0496 3.5840595 2.460033 2.3132539 2451.055
1.03545915e-10 5.0539135e-11 1.2533954e-09 5.343888e-10 2.579371e-10 9.760426e-10 2.7387764e-10 6.494095e-10
3.4520428e-11 5.6950493e-09 1.7783013e-11 8.953724e-09 1.090092e-08 7.1893083e-09 2.960485e-10 4.799342e-13
4.4494807e-12 8.820965e-11 2.110698e-12 9.0795746e-11 2.0499429e-13 2.0010543e-12 2.5919332e-12 8.8555316e-11
4.7012535e+11 3.2698706e+11 2.0375973e+12 1.1258659e+11 1.2392592e+11 3.251986e+11 3.2460272e+11 3.7622202e+11
3.4542805e+10 2.3822118e+12 3.929129e+10 2.4399567e+12 5.876458e+12 5.699505e+12 3.1699286e+10 3.3791885e+08
3.318711e+08 3.727229e+10 7.4082176e+08 3.6912804e+10 2.8322704e+08 5.406276e+08 5.821448e+08 3.681702e+10
660.527 934.4948 43382.63 40077.37 21835.82 91678.05 120821.945 74130.53
3298.3643 528858.75 137.73923 584804.5 1.8305665e+06 2.0200251e+06 2308.2854 51.506992
327.55945 11879.854 67.61419 11998.512 191.02187 30.887331 28.756134 12191.736
10197.905 6235.469 299381.03 109439.76 79633.27 367765.72 158277.42 365469.75
56295.13 1.8354968e+06 8879.527 1.4753206e+06 2.4033492e+06 4.0784562e+06 951.34314 614.5917
143.9553 23783.502 586.4745 23809.54 146.07175 6.161657e-07 798.22107 23743.78
1.7519084e-14 2.182119e-14 1.4153754e-12 3.4179128e-15 3.1551196e-15 5.3067566e-13 2.843342e-13 3.8109533e-13
3.2509003e-14 3.2927662e-12 1.3578251e-13 5.0847096e-12 9.224883e-12 1.22581025e-11 1.7114878e-16 6.8570977e-19
5.986679e-17 6.061959e-14 6.493369e-18 5.9757815e-14 9.158849e-16 6.4809535e-16 8.996121e-18 6.0022015e-14
152493.55 132048.19 2.0337455e+06 142546.64 120541.766 807766.1 521858.9 901464.1
68861.74 8.1415115e+06 65446.66 7.9310795e+06 1.7411914e+07 1.7755346e+07 138432.38 1359.2139
00000000: efe7 8e52 3a9d d152 4eb5 0c55 4034 cb52
00000010: ac25 2853 14e1 8654 cef8 4354 51ae 7054
00000020: 276c 9a52 e774 2556 df79 1f53 b278 0656
00000030: 81e0 8956 9ca4 8e56 575e 1f53 86f3 1a4f
00000040: c965 2850 61c0 0453 ae3f f04f e163 0553
00000050: f2f6 364f a01e 4b4f d898 a04f 8cee 0553
00000060: 1cca 8d34 d049 3638 f702 3d39 4d59 dc30
00000070: b8d6 9636 7f4f 8736 8ccb f635 76bf c536
00000080: 879d 8a35 6ea9 d537 28a3 5b35 46b6 8f37
00000090: cb7f 5138 3142 2938 a654 a833 6491 5431
000000a0: 0761 a332 d00c aa34 746c 5131 477f b234
000000b0: b209 6531 bad8 1031 f9a3 b930 8810 b434
000000c0: 2104 d551 54da 8551 25e5 1452 0472 934f
000000d0: e3a7 f04f 2489 fc4e 2cec 0b50 e08d 9b50
000000e0: 6771 0f4f b068 ca51 c8b2 a94e 6492 ec51
000000f0: e93b 5152 6dd2 4b52 b934 0f4f e63a 734b
00000100: ba13 c24b 5007 c64e 71bb ab4b 7edd c64e
00000110: 7c72 334b 8899 a44b 5eab f74b c37f c44e
00000120: c251 8d41 1df0 8941 5dd8 9a41 896b 303f
00000130: 3711 453f 9922 7a3f edde a93f cdb6 8140
00000140: 98e9 4b3e 8608 bf41 9cb7 a93e 923a bb41
00000150: 71d4 3242 ff92 4a42 72d3 3d3e d34f 123b
00000160: 0163 ce3b 9886 a43e b108 9b3b 03c8 a33e
00000170: 4c4f af3b a7f0 5c3b 351e 423b ebac a53e
00000180: 9d0e 0b42 249b 9c43 2829 2b46 ea2b 9543
00000190: 423e a145 f072 5246 4331 2d46 2a5d 0e46
000001a0: 3254 f643 4b4d a847 6fda 1843 fd62 1348
000001b0: b672 9548 0e53 ba48 db53 4745 2084 d83e
000001c0: 865f 9c3c 7c76 1945 4ea6 8941 cb30 1845
000001d0: 3b61 6540 2e71 1d40 5a0c 1440 e130 1945
000001e0: 2bb3 e32e 0246 5e2e ee43 ac30 45e4 1230
000001f0: 6bcd 8d2f 7225 8630 da90 962f 2282 3230
00000200: 8cd2 172e 2fae c331 c96b 9c2d e5d2 1932
00000210: c146 3b32 d305 f731 1fc1 a22f e716 072b
00000220: 5c8d 9c2c 9ef9 c12e f486 142c 76a9 c72e
00000230: 95cd 662a cacf 0c2c 1e64 362c 36bc c22e
00000240: 4feb da52 e543 9852 2235 ed53 78b5 d151
00000250: 7cd4 e651 b26e 9752 a927 9752 2931 af52
00000260: 96ae 0051 b9a9 0a54 185f 1251 3006 0e54
00000270: 0607 ab54 9fe0 a554 972d ec50 dc21 a14d
00000280: 9c3f 9e4d a0d9 0a51 2ca0 304e cb82 0951
00000290: 9d0d 874d 4ae5 004e 4ccb 0a4e 7227 0951
000002a0: ba21 2544 ab9f 6944 a176 2947 5f8d 1c47
000002b0: a497 aa46 060f b347 f9fa eb47 44c9 9047
000002c0: d425 4e45 ac1d 0149 3ebd 0943 48c6 0e49
000002d0: 3475 df49 c995 f649 9144 1045 2907 4e42
000002e0: 9cc7 a343 6a9f 3946 773a 8742 0c7a 3b46
000002f0: 9905 3f43 4119 f741 900c e641 f27e 3e46
00000300: 9f57 1f46 c1db c245 a12e 9248 e1bf d547
00000310: a388 9b47 b792 b348 5b91 1a48 b873 b248
00000320: 21e7 5b47 460f e049 1cbe 0a46 c517 b449
00000330: 55b0 124a e1ed 784a f6d5 6d44 dea5 1944
00000340: 8ff4 0f43 01cf b946 5e9e 1244 1403 ba46
00000350: 5e12 1243 9666 2535 268e 4744 8f7f b946
00000360: 42cc 9d28 3d8c c428 4632 c72b 5d49 7627
00000370: af59 6327 365f 152b e010 a02a a089 d62a
00000380: 5468 1229 34b5 672c a5e0 182a fee6 b22c
00000390: 2e49 222d 96a5 572d 3452 4525 c462 4a21
000003a0: 1e0b 8a24 d180 8829 2390 ef22 0990 8629
000003b0: 30fe 8326 ffcc 3a26 fbf2 2523 5628 8729
000003c0: 63eb 1448 0cf4 0048 8c42 f849 a934 0b48
000003d0: e26e eb47 6235 4549 5dd0 fe48 8215 5c49
000003e0: df7e 8647 8f75 f84a a9a6 7f47 8f09 f24a
000003f0: a5d7 844b 6976 874b 1830 0748 d8e6 a944

exp_avg f4 [64]
380162.1 -2.2565348e-06 2673.562 -2.5632503e-06 -3.1969373e-06 -7.935325e-09 -73296.26 -3.3031074e-06
-3.1765796e-06 -5.82e-43 -1.144727e-06 -7.5296285e-09 -1.334178e-14 -17746.773 0.001458698 -9.790202e-14
-1.1305756e-13 -5.21e-43 -33402.426 -6.8698824e-08 12471.428 -3.1882496e-06 -4e-43 -283.1568
11176.34 -6.3e-43 -3.088885e-06 -3.1396441e-06 -3.1624409e-06 -60188.32 22355.719 -2.2037311e-06
-1.5726545e-06 -8.9119276e-08 -3.834386e-06 -2.3551802e-10 -2.8349743e-06 -2.3445812e-06 -2.5882455e-06 -64563.4
-2.588713e-06 -8.4753106e-07 -3.5700923e-06 -5.2379105e-06 -1.1817134e-06 -2.8490153e-06 -8.574124e-06 -2.5861261e-06
-9.3079353e-07 -6.84e-43 -8.462728e-11 -52842.785 -2.8766492e-06 -7.5266956e-07 12930.876 -3.054871e-06
-2.438756e-06 -3.2649727e-06 390250.16 -5.8305095e-06 -6.592763e-08 -1.6483734e-06 -2.6795978e-18 -2891.6653
00000000: 43a0 b948 f96e 17b6 fe18 2745 4e04 2cb6
00000010: f78a 56b6 ee53 08b2 2128 8fc7 f4aa 5db6
00000020: 392d 55b6 9f01 0080 85a4 99b5 a85b 01b2
00000030: 1a58 70a8 8ca5 8ac6 c831 bf3a ac74 dca9
00000040: 3f95 fea9 7401 0080 6d7a 02c7 9487 93b3
00000050: b6dd 4246 b6f5 55b6 1d01 0080 1294 8dc3
00000060: 5ca1 2e46 c201 0080 a44a 4fb6 adb2 52b6
00000070: 523a 54b6 521c 6bc7 70a7 ae46 d0e3 13b6
00000080: ff13 d3b5 d761 bfb3 20a9 80b6 377a 81af
00000090: 7d40 3eb6 9957 1db6 b8b1 2db6 6633 7cc7
000000a0: c0b9 2db6 e481 63b5 b895 6fb6 4fc1 afb6
000000b0: 5d9b 9eb5 b631 3fb6 95d9 0fb7 4f8d 2db6
000000c0: a5db 79b5 e801 0080 ec18 baae c96a 4ec7
000000d0: 750c 41b6 0f0b 4ab5 810b 4a46 4902 4db6
000000e0: 82a9 23b6 ce1b 5bb6 458d be48 b2a3 c3b6
000000f0: 1994 8db3 ae3d ddb5 2cb8 45a2 a5ba 34c5

exp_avg_sq f4 [64]
5.840688e+11 3.3885752e-07 1.7027871e+09 0.3299597 2455.8174 9.304753e-11 3.7946995e+10 12244.934
24542.07 6.06803e-14 119652.88 1.1518858e-09 1.2943037e-10 5.0751463e+10 3.524859e+08 1.4125615e-10
1.4847078e-10 2.225533e-12 1.25941645e+11 2.6032172e-09 7.313612e+10 418.58636 2.6534076e-13 3.7411533e+09
2.7346422e+10 1.2680892e-13 0.061811518 185.4825 0.0019214259 1.404025e+11 4.2055008e+11 8.4799936e-08
2.0985297e+09 4.5387023e-09 2.103143e-05 4.6664084e-10 0.016185235 0.04909752 3.952044e-06 1.05104854e+12
8.1587854e-07 1.4301443e-08 78.95737 1.9827409 1.07357764e-07 0.0043045143 1.7349396e+10 60588.816
2.641775e-08 1.3744504e-13 4.698331e-10 2.6302593e+10 4.019499e-06 0.061706472 8.1600774e+10 4488.252
294979.8 6.6035075 1.6301642e+12 0.00058367924 3.430905e-09 9.223852e-08 5.9337125e-11 6.5915286e+10
00000000: 37fd 0753 39ec b534 f0fc ca4e 7af0 a83e
00000010: 147d 1945 1a9d cc2e 135d 0d51 bc53 3f46
00000020: 24bc bf46 d0a3 8829 71b2 e947 6150 9e30
00000030: 694f 0e2f 5e10 3d51 1014 a84d 1250 1b2f
00000040: cf3e 232f a39b 1c2c a895 ea51 48e4 3231
00000050: 053a 8851 0e4b d143 a25f 952a 78fd 5e4f
00000060: 29bf cb50 2fc6 0e2a 132e 7d3d 857b 3943
00000070: 5bd8 fb3a 91c2 0252 7ad5 c352 421b b633
00000080: 0b2a fa4e d9f2 9b31 a76c b037 ee44 0030
00000090: e696 843c 7b1a 493d cd9b 8436 60b7 7453
000000a0: bf02 5b35 69b2 7532 2cea 9d42 74ca fd3f
000000b0: 8e8c e633 e20c 8d3b 5943 8150 d1ac 6c47
000000c0: 3fed e232 d6bf 1a2a 9125 0130 37f8 c350
000000d0: 3cdf 8636 edbf 7c3d 48fe 9751 0442 8c45
000000e0: 7a08 9048 ef4f d340 aec6 bd53 0d02 193a
000000f0: 1ec5 6b31 aa14 c633 d57b 822e b78d 7551

exp_avg f4 [64, 64]
-2.1581477e-06 3.35e-43 -4.380548e-06 4.72e-43 -1.414e-42 -5.06e-43 -6.034512e-06 -6.38e-43
-5.58e-43 5.11e-43 -3.07e-43 5.04e-43 3.92e-43 -2.08558e-06 5.3e-43 -3.69e-43
-4.79e-43 -5.13e-43 -5.671975e-06 2.07e-43 -3.2849148e-06 -4.18e-43 -5.03e-43 2.756955e-06
-3.46e-43 -5.23e-43 7e-44 -5.18e-43 -3.35e-43 -4.6302484e-06 -7.6138457e-07 -5e-43
5.2e-43 -3.15e-43 2.76e-43 -6.68e-43 7.8e-44 -1.796e-42 6.74e-43 -6.53e-43
4.39e-43 -5.17e-43 -2.7e-43 -6.32e-43 7.88e-43 -5.07e-43 -4.25e-43 -5.86e-43
5.86e-43 4.54e-43 5.76e-43 -1.3088734e-06 3.3e-43 -6.85e-43 -3.5657642e-06 3.76e-43
-1.47e-43 3.22e-43 3.239555e-07 5.31e-43 -2.8e-43 9.4e-43 2.91e-43 -2.62e-43
-601.53424 -9.4e-44 -5.62e-43 -3.1759498e-06 -5.25e-43 -4.65e-43 -0.007641893 -5.56e-43
3.88e-43 5.16e-43 3.1606758e-06 5.7e-44 -5.41e-43 -2.0280812 -1.39e-43 -3.176138e-06
-2.83e-43 -3.52e-43 -3.1444452 -5.427956e-08 -0.025495151 1.638e-42 1.84e-43 -0.00012425012
-0.00055532594 4.34e-43 5.28e-43 3.2e-44 -2.84e-43 -0.0004652908 5682.2466 -1.98e-42
-8.351268e-06 -5.31e-43 5.82e-43 -8.5140066e-08 -1.5322346e-06 -3.1685781e-06 -3.1009924e-06 0.00012368089
4.7931762e-06 -3.04e-43 -5.34e-43 -1.26e-43 -5.41e-43 -2.046e-42 -1.4999832e-05 5.3e-44
-5.3e-43 2.38e-43 5.02e-43 -3990.0642 4.96e-43 -1.7506894e-06 -0.00033810234 -2.75e-43
-2.7e-43 -3.17658e-06 10366.383 5.62e-43 5.18e-43 -3.22e-43 -2.76e-43 1130.7489
0.011697334 4.78e-43 -36815.5 1.222219e-06 3.2013547e-06 -3.1709747e-06 -43556.387 2.8611203e-06
2.267e-42 -3.12e-43 5.4217126e-06 3.1711036e-06 5.5830075e-16 -8920.519 9.6855336e-05 3.174292e-06
1.6332796e-22 -5.86e-43 -14676.042 -8e-44 -519.4373 -4.508102e-06 -4.93e-43 -24805.975
-9.010477e-05 2.3140553e-35 -6.106635e-08 3.488684e-06 -2.54e-43 -3311.0386 -0.09852816 -3.4621646e-06
-7.4199543e-06 -5.929056e-08 -2.9371797e-06 -4.3247731e-16 1.1352881e-06 4.530641e-06 2.9387081e-06 0.000109160464
1.663872e-06 -6.87e-43 2.699144e-06 -2.6357786e-06 -3.674378e-06 3.1753143e-06 1.4523405e-07 3.8217913e-06
4.7e-43 -5.94e-43 2.6645807e-08 -1.2848285 -3.34e-43 -3.1568236e-06 -9889.932 -5.190449e-06
-5.70506e-06 -6.5203762e-06 -3522.3333 -6.73e-43 1.9157095e-08 -4.44e-43 -6.26e-43 -5.5326786e-06
-0.00010084217 -9.8e-44 3.95e-43 1.67e-43 -9.4e-44 -5.62e-43 -0.00019410043 -5.45e-43
-4.5e-43 -5.06e-43 3.17658e-06 5.76e-43 -4.93e-43 -2.883222e-06 -9.526658e-06 5.23e-43
4.96e-43 -5.14e-43 -4.6110297e-05 5.14e-43 -8.691884e-06 -5.72e-43 -5e-43 -8.8769675e-06
3.17658e-06 6.85e-43 4.61e-43 5.55e-43 -5.55e-43 1.2665298e-05 0.59785646 -5.62e-43
-1.1256024e-06 5.41e-43 5.54e-43 5.18e-43 2.69e-43 2.94e-43 5.44e-43 2.966562e-06
-2.914477e-06 -1.19e-43 2.3e-43 5.56e-43 4.41e-43 -1.114e-42 -1.2467397e-05 -5.47e-43
-5.63e-43 -5.56e-43 1.334e-42 7.686993e-05 -5.31e-43 -6.85e-43 2.82e-43 5.18e-43
-5.4e-43 5.52e-43 0.26507097 -4.2e-43 5.25e-43 -5.72e-43 5.79e-43 1.6344733e-05
00000000: b2d4 10b6 ef00 0000 9ffc 92b6 5101 0000
00000010: f103 0080 6901 0080 107c cab6 c701 0080
00000020: 8e01 0080 6d01 0000 db00 0080 6801 0000
00000030: 1801 0000 fef5 0bb6 7a01 0000 0701 0080
00000040: 5601 0080 6e01 0080 e551 beb6 9400 0000
00000050: 6872 5cb6 2a01 0080 6701 0080 2004 3936
00000060: f700 0080 7501 0080 3200 0000 7201 0080
00000070: ef00 0080 885d 9bb6 f361 4cb5 6501 0080
00000080: 7301 0000 e100 0080 c500 0000 dd01 0080
00000090: 3800 0000 0205 0080 e101 0000 d201 0080
000000a0: 3901 0000 7101 0080 c100 0080 c301 0080
000000b0: 3202 0000 6a01 0080 2f01 0080 a201 0080
000000c0: a201 0000 4401 0000 9b01 0000 8cac afb5
000000d0: eb00 0000 e901 0080 5d4b 6fb6 0c01 0000
000000e0: 6900 0080 e600 0000 1bec ad34 7b01 0000
000000f0: c800 0080 9f02 0000 d000 0000 bb00 0080
00000100: 3162 16c4 4300 0080 9101 0080 6722 55b6
00000110: 7701 0080 4c01 0080 d868 fabb 8d01 0080
00000120: 1501 0000 7001 0000 ff1b 5436 2900 0000
00000130: 8201 0080 15cc 01c0 6300 0080 a325 55b6
00000140: ca00 0080 fb00 0080 973e 49c0 0221 69b3
00000150: 35db d0bc 9104 0000 8300 0000 2349 02b9
00000160: 4b93 11ba 3601 0000 7901 0000 1700 0000
00000170: cb00 0080 46f2 f3b9 f991 b145 8505 0080
00000180: 6c1c 0cb7 7b01 0080 9f01 0000 3fd6 b6b3
00000190: 2ea7 cdb5 c2a3 54b6 a51a 50b6 56b0 0139
000001a0: 12d5 a036 d900 0080 7d01 0080 5a00 0080
000001b0: 8201 0080 b405 0080 caa7 7bb7 2600 0000
000001c0: 7a01 0080 aa00 0000 6601 0000 0761 79c5
000001d0: 6201 0000 3bf9 eab5 5443 b1b9 c400 0080
000001e0: c100 0080 3b2d 55b6 88f9 2146 9101 0000
000001f0: 7201 0000 e600 0080 c500 0080 f757 8d44
00000200: 2da6 3f3c 5501 0000 80cf 0fc7 200b a435
00000210: dbd6 5636 eecc 54b6 6324 2ac7 ac01 4036
00000220: 5206 0000 df00 0080 28ec b536 25cf 5436
00000230: 53eb 2026 1362 0bc6 d01e cb38 ec05 5536
00000240: 8e73 451b a201 0080 2b50 65c6 3900 0080
00000250: fddb 01c4 4d44 97b6 6001 0080 f3cb c1c6
00000260: a1f6 bcb8 9412 f605 9523 83b3 221f 6a36
00000270: b500 0080 9ef0 4ec5 22c9 c9bd 8957 68b6
00000280: ecf8 f8b6 a9a6 7eb3 5d1c 45b6 634e f9a5
00000290: 3460 9835 e905 9836 9f36 4536 14ed e438
000002a0: 3552 df35 ea01 0080 f122 3536 55e2 30b6
000002b0: 5595 76b6 7c17 5536 a2f1 1b34 f03c 8036
000002c0: 4f01 0000 a801 0080 c0e2 e432 4375 a4bf
000002d0: ee00 0080 d1d9 53b6 ba87 1ac6 9e29 aeb6
000002e0: 186e bfb6 9bc9 dab6 5525 5cc5 e001 0080
000002f0: e68e a432 3d01 0080 bf01 0080 59a5 b9b6
00000300: 3a7b d3b8 4600 0080 1a01 0000 7700 0000
00000310: 4300 0080 9101 0080 7087 4bb9 8501 0080
00000320: 4101 0080 6901 0080 3b2d 5536 9b01 0000
00000330: 6001 0080 607d 41b6 afd4 1fb7 7501 0000
00000340: 6201 0000 6f01 0080 8e66 41b8 6f01 0000
00000350: 5cd3 11b7 9801 0080 6501 0080 49ee 14b7
00000360: 3b2d 5536 e901 0000 4901 0000 8c01 0000
00000370: 8c01 0080 0a7d 5437 1f0d 193f 9101 0080
00000380: 6713 97b5 8201 0000 8b01 0000 7201 0000
00000390: c000 0000 d200 0000 8401 0000 2615 4736
000003a0: 5596 43b6 5500 0080 a400 0000 8d01 0000
000003b0: 3b01 0000 1b03 0080 102b 51b7 8601 0080
000003c0: 9201 0080 8d01 0080 b803 0000 3b35 a138
000003d0: 7b01 0080 e901 0080 c900 0000 7201 0000
000003e0: 8101 0080 8a01 0000 62b7 873e 2c01 0080
000003f0: 7701 0000 9801 0080 9d01 0000 0c1c 8937
